HW2/EEGNet.pkl (torch_old, 99821 bytes, 17 tensors)

weight f4 [16, 1, 1, 51]
0.21077837 0.016311934 -0.11804444 -0.120013386 -0.020698238 0.01094088 0.017240291 0.106935956
0.082792595 -0.20871224 -0.016490607 0.050200094 0.22292493 -0.12555364 -0.13230546 -0.10392721
0.16156074 0.001665439 0.027334139 -0.096150875 0.09493799 0.005489297 -0.056302305 0.0862446
-0.030738551 -0.10743792 0.07889895 -0.019196555 -0.0993145 -0.067993514 0.17328599 0.08816086
-0.09154285 -0.07610284 0.13433209 0.07369305 -0.26556778 -0.013520674 0.12592013 0.08525275
0.013343769 -0.08502191 -0.012173232 0.08453544 -0.10978589 0.015895091 0.08505336 -0.12319236
-0.12318814 0.044747714 0.13014217 0.037598394 -0.15180114 -0.026084442 0.025251951 0.13339391
0.11861255 -0.11569615 -0.025266087 -0.11668339 0.12763932 0.21538655 -0.051868875 -0.07382074
-0.17504644 0.04637069 0.12740555 0.10044409 -0.06409905 -0.15536274 -0.04927518 0.06352301
0.10605518 0.13452731 -0.18255308 -0.17254338 0.0633925 0.06692895 0.08101876 0.017792296
-0.14924455 -0.10208581 0.018703273 0.1531548 0.028594218 0.03606024 -0.08533149 -0.052872613
0.014395883 0.12731676 -0.008274108 -0.008920966 -0.050304335 -0.07839382 -0.025948234 0.01558005
0.084797725 -0.0010296254 0.016259285 -0.09591536 0.023532989 0.071998626 -0.21043913 -0.07217999
-0.09227316 0.05410603 0.0062109698 -0.1165272 -0.06544247 0.03420769 0.064143896 0.07520373
0.012915417 -0.13343318 -0.050392512 0.06874274 0.065243445 -0.004137835 -0.056467302 -0.031835508
-0.09710619 -0.036764704 0.06525303 0.053327758 -0.15686071 -0.13711521 -0.025672259 0.11119313
0.030583326 -0.05147298 -0.08128892 -0.0506864 0.009121148 0.011458815 0.0765085 -0.031356517
-0.055587485 0.05741939 -0.11331043 0.0012031291 0.016364248 0.117475726 0.0038231283 -0.152991
-0.17672594 -0.11603524 0.08722304 0.15901297 0.045046885 -0.1696525 -0.11432382 -0.020973785
-0.09916011 -0.05114362 -0.09402954 -0.2207876 -0.07463109 -0.2259642 0.0013506445 -0.08207022
-0.12144101 -0.10773264 -0.10127618 -0.032174308 -0.09350912 0.07189825 0.08564374 0.106440835
0.038636766 0.10394596 -0.02423241 -0.00677477 -0.009661907 -0.019800637 -0.10941875 -0.062406633
-0.01665195 -0.14106622 -0.074265964 -0.20163578 -0.07425077 -0.026223037 -0.13367741 -0.076827794
0.11231657 -0.048639063 -0.040229548 0.044102162 0.05276908 -0.12305119 0.06952423 -0.02480678
0.097935185 0.13165405 0.0011024135 -0.062009543 -0.030786647 -0.045901526 0.09162055 -0.018232403
-0.037116006 -0.08860444 -0.11384634 -0.2315376 0.048602343 -0.013482035 0.09518728 0.06995182
-0.0039974903 -0.058211166 -0.15251768 -0.026174411 -0.052226383 -0.0014230545 0.060820416 -0.015915
-0.14942367 -0.09606579 0.008192599 -0.056210607 -0.04495002 0.009807712 -0.121160656 -0.05127256
-0.10459378 -0.026727047 -0.13364244 -0.19702147 -0.0737583 0.00177611 -0.14095917 0.029041374
-0.006766439 -0.08315449 -0.02910245 -0.02671717 0.08653494 -0.0929166 0.07309867 0.082484044
-0.07750931 0.0042531746 0.14014678 0.093238145 -0.0220084 0.071157485 -0.014377527 0.18740399
0.09689688 0.08526558 0.09876242 0.03201278 -0.024190808 0.09281633 0.1735984 0.0064609083
00000000: 49d6 573e 9ba0 853c 49c1 f1bd 94c9 f5bd
00000010: 5a8f a9bc 6041 333c 833b 8d3c 3d01 db3d
00000020: 2a8f a93d a9b8 55be 4f17 87bc 9d9e 4d3d
00000030: 6f46 643e 2291 00be 157b 07be cad7 d4bd
00000040: 2e70 253e dc4a da3a d8eb df3c c0ea c4bd
00000050: d96e c23d 90df b33b 3f9d 66bd 02a1 b03d
00000060: 6acf fbbc 6a08 dcbd c695 a13d 1842 9dbc
00000070: 6765 cbbd 2f40 8bbd e271 313e ae8d b43d
00000080: d17a bbbd cedb 9bbd 5a8e 093e 62ec 963d
00000090: 80f8 87be d185 5dbc 35f1 003e fe98 ae3d
000000a0: d39f 5a3c f81f aebd 3c72 47bc eb20 ad3d
000000b0: 6dd7 e0bd 6c36 823c 7530 ae3d 474c fcbd
000000c0: 104a fcbd 6149 373d fd43 053e c600 1a3d
000000d0: c271 1bbe 0aaf d5bc 2edd ce3c 6a98 083e
000000e0: 23eb f23d 1af2 ecbd d3fa cebc b4f7 eebd
000000f0: e2b3 023e 4b8e 5c3e 7574 54bd 542f 97bd
00000100: 603f 33be 31ef 3d3d 9a76 023e a2b5 cd3d
00000110: 5d46 83bd 6917 1fbe c5d4 49bd 5a18 823d
00000120: 7533 d93d 87c1 093e 32ef 3abe 36af 30be
00000130: edd3 813d 0c12 893d 2aed a53d 26c1 913c
00000140: 90d3 18be 5d12 d1bd 9b37 993c 9dd4 1c3e
00000150: 6c3e ea3c e7b3 133d 47c2 aebd f490 58bd
00000160: b6dc 6b3c 535f 023e 2090 07bc 3e29 12bc
00000170: eb0b 4ebd f08c a0bd 6491 d4bc 7743 7f3c
00000180: 6eaa ad3d 7ff4 86ba 3132 853c 466f c4bd
00000190: 41c8 c03c 0474 933d 5b7d 57be 1ad3 93bd
000001a0: b6f9 bcbd 499e 5d3d 6485 cb3b d0a5 eebd
000001b0: b406 86bd 5d1d 0c3d e05d 833d 6a04 9a3d
000001c0: 2f9b 533c b5a2 08be 6168 4ebd fec8 8c3d
000001d0: 5b9e 853d ad96 87bb 424a 67bd f365 02bd
000001e0: 9cdf c6bd 9696 16bd 61a3 853d 356e 5a3d
000001f0: 18a0 20be ee67 0cbe a14e d2bc 39b9 e33d
00000200: e289 fa3c 55d5 52bd ce7a a6bd 8b9c 4fbd
00000210: de70 153c c1bd 3b3c 7db0 9c3d b16f 00bd
00000220: b4af 63bd 9830 6b3d 4c0f e8bd 50b2 9d3a
00000230: 510e 863c 1d97 f03d 738d 7a3b aca9 1cbe
00000240: a5f7 34be e2a3 edbd fea1 b23d 4cd4 223e
00000250: 1583 383d 63b9 2dbe 9b22 eabd 37d1 abbc
00000260: 7514 cbbd f97b 51bd 8f92 c0bd 2516 62be
00000270: 2fd8 98bd 2963 67be 1c08 b13a 6e14 a8bd
00000280: 10b6 f8bd eea2 dcbd e369 cfbd 35c9 03bd
00000290: b681 bfbd 643f 933d fc65 af3d a7fd d93d
000002a0: 9641 1e3d 9fe1 d43d 0c83 c6bc e4fe ddbb
000002b0: fa4c 1ebc f234 a2bc f016 e0bd 199e 7fbd
000002c0: ac69 88bc aa73 10be c118 98bd 9c79 4ebe
000002d0: ca10 98bd b2d1 d6bc bbe2 08be e457 9dbd
000002e0: 3b06 e63d c139 47bd bdc7 24bd 78a4 343d
000002f0: 6424 583d 4302 fcbd b862 8e3d 9737 cbbc
00000300: 3e92 c83d 52d0 063e dc7e 903a b8fd 7dbd
00000310: 4734 fcbc 3d03 3cbd 8ea3 bb3d 1f5c 95bc
00000320: f406 18bd 3f76 b5bd 4528 e9bd 3118 6dbe
00000330: 4013 473d c1e3 5cbc 8cf1 c23d e642 8f3d
00000340: 61fd 82bb d56e 6ebd 982d 1cbe b86b d6bc
00000350: 55eb 55bd c985 baba d41e 793d 2d60 82bc
00000360: 8502 19be 24be c4bd 403a 063c 183d 66bd
00000370: 831d 38bd 87b0 203c 1423 f8bd 2d03 52bd
00000380: 4435 d6bd aef2 dabc 90d9 08be ffbf 49be
00000390: 970e 97bd 5dcc e83a 9a57 10be 2de8 ed3c
000003a0: 01b9 ddbb e74c aabd 4368 eebc f7dd dabc
000003b0: 3b39 b13d 0f4b bebd c1b4 953d 65ed a83d
000003c0: 33bd 9ebd 375e 8b3b a382 0f3e a4f3 be3d
000003d0: f64a b4bc 04bb 913d b88f 6bbc d5e6 3f3e
000003e0: df71 c63d b89f ae3d f443 ca3d d51f 033d
000003f0: cd2b c6bc 7d16 be3d c7c3 313e 07b6 d33b

weight f4 [16]
0.38830924 0.7896919 0.24466911 0.2854692 0.5302272 0.59425783 0.6038257 0.4507858
0.9362937 0.07312115 0.13667601 0.67372787 0.9951074 0.48127365 0.16142993 0.07347925
00000000: 78d0 c63e 4029 4a3f 8a8a 7a3e 0529 923e
00000010: f8bc 073f 4821 183f 5294 1a3f 65cd e63e
00000020: f2b0 6f3f 8bc0 953d ccf4 0b3e 6e79 2c3f
00000030: 5cbf 7e3f 8069 f63e e34d 253e 4a7c 963d

bias f4 [16]
-0.004864477 0.062043466 -0.014609534 -0.0060270904 -0.02032385 -0.00593151 0.0082006445 0.0043062223
0.008724282 -0.084466614 -0.005274302 0.0430353 0.03706253 -0.013310769 0.02028511 0.004863193
00000000: 3166 9fbb 4a21 7e3d d45c 6fbc e67e c5bb
00000010: 347e a6bc 1d5d c2bb ff5b 063c 361b 8d3b
00000020: 4af0 0e3c d5fc acbd 0dd4 acbb c845 303d
00000030: e1ce 173d 6915 5abc f62c a63c 6b5b 9f3b

running_mean f4 [16]
-0.002406914 -0.002432081 0.03686771 0.046916973 -0.031182196 0.001799847 -0.006024532 0.0025349606
-0.08854846 -0.018938914 -0.011980391 0.0011643218 6.307627e-05 -0.0025338551 -0.01899652 0.012717014
00000000: 51bd 1dbb 8c63 1fbb 9902 173d 032c 403d
00000010: ce71 ffbc d8e8 eb3a 7069 c5bb 9521 263b
00000020: e558 b5bd c825 9bbc 6749 44bc 289c 983a
00000030: d147 8438 090f 26bb 979e 9bbc 065b 503c

running_var f4 [16]
4.3618975 5.077958 24.824234 64.35688 45.25852 15.494198 8.503818 47.55216
181.05994 101.56202 23.826254 24.554195 3.3991923 30.001616 17.312296 14.683726
00000000: aa94 8b40 a27e a240 0898 c641 b9b6 8042
00000010: b908 3542 3ce8 7741 a30f 0841 6935 3e42
00000020: 580f 3543 c11f cb42 2b9c be41 fe6e c441
00000030: 5e8c 5940 4f03 f041 957f 8a41 8bf0 6a41

weight f4 [32, 1, 2, 1]
-0.6633303 -0.08624232 0.26209903 -0.05423754 -0.17325011 0.46287864 -0.07778738 0.74329376
-0.092452586 0.445054 0.16924079 0.41492543 -0.412236 -0.61580265 -0.5694913 -0.09678541
0.26991993 -0.08556335 0.18670826 -0.39367503 -0.36728692 -0.5287044 0.43771663 0.5831583
-0.841791 -0.20086452 -0.5952843 0.08871816 -0.30422595 0.1821376 0.00081086677 -0.45885763
-0.3584512 0.7083419 0.020609418 0.365357 0.59494585 -0.49886724 0.4752828 0.5405166
0.078650884 -0.42065075 0.08352443 -0.49944255 0.54985845 -0.14099713 -0.6578494 0.08469787
-0.08934284 0.37653747 0.15948896 -0.64637434 -0.45215884 0.486004 0.3248933 -0.23336415
-0.60744745 0.40708825 0.32662606 0.7020642 -0.52588767 0.22334604 0.21731573 -0.37413603
00000000: 04d0 29bf d09f b0bd d831 863e 2f28 5ebd
00000010: 7a68 31be 6efe ec3e fd4e 9fbd 8048 3e3f
00000020: c857 bdbd 1ede e33e 754d 2d3e 1b71 d43e
00000030: 9910 d3be 3ea5 1dbf 2fca 11bf 6e37 c6bd
00000040: f232 8a3e d63b afbd 7330 3f3e c68f c9be
00000050: 080d bcbe 2c59 07bf 651c e03e dd49 153f
00000060: 9d7f 57bf 6eaf 4dbe 8d64 18bf deb1 b53d
00000070: 81c3 9bbe 4782 3a3e 5990 543a 63ef eabe
00000080: ea86 b7be e555 353f 15d5 a83c 1310 bb3e
00000090: 5f4e 183f 876b ffbe 4458 f33e 4c5f 0a3f
000000a0: b713 a13d 895f d7be db0e ab3d efb6 ffbe
000000b0: 86c3 0c3f 8d61 10be d168 28bf 1476 ad3d
000000c0: 61f9 b6bd 85c9 c03e 1351 233e ca78 25bf
000000d0: 5d81 e7be 84d5 f83e 6a58 a63e 03f7 6ebe
000000e0: ad81 1bbf df6d d03e 883b a73e 7bba 333f
000000f0: 93a0 06bf d3b4 643e 0488 5e3e c28e bfbe

weight f4 [32]
0.4043848 0.6183753 0.90927887 0.84473187 0.4362374 0.45189825 0.23370929 0.7253547
0.70946306 0.664825 0.2934089 0.68563306 0.4702766 0.21039876 0.6942374 0.34148413
0.18316588 0.24383229 0.7897343 0.26050708 0.71295285 0.5794147 0.45393452 0.25656816
0.5445285 0.8933965 0.49751326 0.16670716 0.5755907 0.14280236 0.63537955 0.7505577
00000000: 860b cf3e d84d 1e3f 80c6 683f 5940 583f
00000010: 825a df3e 355f e73e 7d51 6f3e d8b0 393f
00000020: 5f9f 353f f931 2a3f b139 963e a685 2f3f
00000030: 18c8 f03e c672 573e 8bb9 313f 02d7 ae3e
00000040: d68f 3b3e 2caf 793e 072c 4a3f 2f61 853e
00000050: 1484 363f 8654 143f 1b6a e83e e75c 833e
00000060: 3866 0b3f a2b5 643f 0fba fe3e 48b5 2a3e
00000070: ea59 133f c83a 123e 3ca8 223f 8d24 403f

bias f4 [32]
-0.15395007 -0.25215217 -0.43467417 -0.3970694 -0.0322586 0.027169676 -0.18210015 -0.19347857
-0.3081861 0.089720696 -0.020118646 -0.34524038 -0.24338415 -0.1024874 -0.27596548 -0.073350936
0.09612766 -0.108522736 0.060261168 0.052161958 -0.2740915 -0.2337619 -0.11265654 -0.059344478
-0.20622055 -0.31103083 -0.11071298 -0.034103643 0.08449785 -0.16762762 -0.09625677 0.032650203
00000000: 16a5 1dbe 171a 81be 9d8d debe ae4c cbbe
00000010: 9821 04bd f192 de3c 7678 3abe 3f1f 46be
00000020: 92ca 9dbe 7cbf b73d dccf a4bc 59c3 b0be
00000030: b239 79be eae4 d1bd 594b 8dbe 0439 96bd
00000040: 94de c43d 2b41 debd 6ad4 763d c7a7 553d
00000050: b955 8cbe 485f 6fbe 79b8 e6bd 3213 73bd
00000060: 7b2b 53be 6f3f 9fbe 7dbd e2bd 43b0 0bbd
00000070: 350d ad3d 93a6 2bbe 4522 c5bd 38bc 053d

running_mean f4 [32]
0.0048493184 -0.0013047378 0.017231608 0.040237054 -0.0048496574 -0.008123864 0.005448613 0.0035552674
-0.0039558983 0.004287855 0.0056108534 -0.0063920217 -0.008570597 -0.004133887 -0.00041335172 -0.0016223832
0.002789776 0.0032237873 -0.0077173305 -0.08376718 0.001259494 0.001524055 0.01749243 -0.024105912
0.010449501 -0.017565722 -0.0003605458 -0.0012565014 -0.0039902423 0.020440238 -0.0025525864 -0.001346517
00000000: 08e7 9e3b bc03 abba 4d29 8d3c 9ccf 243d
00000010: e0e9 9ebb f519 05bc 478a b23b 7dff 683b
00000020: 7ba0 81bb 2281 8c3b 40db b73b 2a74 d1bb
00000030: b06b 0cbc 8f75 87bb 21b7 d8b9 26a6 d4ba
00000040: add4 363b 2d46 533b a9e1 fcbb 218e abbd
00000050: 9b15 a53a cdc2 c73a 494c 8f3c c379 c5bc
00000060: 6234 2b3c fde5 8fbc a307 bdb9 31b1 a4ba
00000070: 94c0 82bb 4972 a73c 4b49 27bb 9d7d b0ba

running_var f4 [32]
0.07461828 0.008214379 0.10826109 0.31628725 0.009579929 0.016238708 0.0671139 0.03180262
0.013732359 0.024393016 0.24079962 0.31244153 0.33875725 0.109366454 0.010116823 0.039672576
0.31099784 0.12476735 0.00109095 0.004634786 0.0027944152 0.0040054116 0.09930804 0.16223559
0.12155235 0.35314918 0.028107496 0.012635186 0.006312063 0.02174443 0.0012511158 0.0005802696
00000000: 78d1 983d 9a95 063c feb7 dd3d 67f0 a13e
00000010: 22f5 1c3c 0a07 853c 0373 893d 7743 023d
00000020: b0fd 603c ddd3 c73c 2d94 763e 56f8 9f3e
00000030: 9771 ad3e 85fb df3d 08c1 253c b67f 223d
00000040: 1c3b 9f3e 0686 ff3d 35fe 8e3a 67df 973b
00000050: 8222 373b d43f 833b 0462 cb3d 1621 263e
00000060: 70f0 f83d f8cf b43e b141 e63c d003 4f3c
00000070: 6cd5 ce3b 6021 b23c 7bfc a33a 3c1d 183a

weight f4 [32, 32, 1, 15]
0.031585965 0.008103481 0.02602011 -0.019839723 -0.01735753 -0.003683041 -0.047988083 -0.0069440776
-0.048775643 -0.020144453 -0.06677291 -0.03755527 -0.032464728 -0.022598758 -0.04556979 -0.020659603
-0.083435565 -0.057745486 -0.040193025 -0.049568675 0.0010019058 -0.0020005875 -0.00059350237 -0.0038423087
0.02408884 -0.0030881164 -0.026049463 -0.018140404 -0.021717284 -0.021077758 -0.1979416 -0.15934151
-0.15987879 -0.11563799 -0.094965674 -0.10253379 -0.08167119 -0.060312096 -0.09274144 -0.080084726
-0.063573934 -0.08283159 -0.108639196 -0.13154782 -0.14444134 -0.08511685 -0.11249215 -0.0727
-0.044103857 -0.07719852 -0.049785696 -0.044843134 -0.020254055 0.00387512 -0.0016903391 -0.02718944
-0.035655815 -0.068631336 -0.06754648 -0.079933695 0.03526255 -0.034048557 -0.056312457 -0.020680588
-0.031062394 -0.077466816 -0.06451034 -0.062267747 -0.011329637 -0.029194301 -0.021650104 -0.013222644
-0.020257492 -0.0074294275 -0.026751393 -0.009252875 -0.02334607 -0.0002954137 -0.029784279 0.002063223
-0.043887693 -0.05196747 0.0064227367 -0.03707446 -0.01699807 -0.021706048 -0.0035920301 -0.020615172
0.023791272 0.029087722 -0.019019559 0.012210678 0.003584359 -0.042892467 -0.062144812 -0.081519164
-0.074708655 -0.13436347 -0.112808704 -0.17527184 -0.12530619 -0.10873469 -0.11691987 -0.13374972
-0.1349724 0.012466352 0.047710665 0.046659835 0.062483504 0.012747363 0.035393104 -0.002878316
-0.006148998 0.029604265 -0.005483718 0.004783136 -0.001380465 -0.023331756 -0.032167193 -0.027187154
0.0077724857 -0.018387344 0.040984377 0.043166343 0.050120603 0.03705508 0.05845528 0.057998464
0.0044925003 0.040158637 0.0185301 0.028875543 0.041956194 0.08516473 0.11932986 -0.041710883
-0.031834535 -0.028818486 -0.02100444 -0.034473374 0.004008604 -0.0069800657 0.014309678 0.0013581406
-0.022608059 -0.022383148 -0.0019645272 -0.0025538816 0.012590255 0.010544257 -0.07419789 -0.03707911
-0.018841082 -0.037619665 -0.046489876 -0.034322105 -0.08189906 -0.076676644 -0.03953819 -0.042310283
0.011106059 -0.05490468 -0.04476307 -0.055325773 -0.016922798 -0.071925364 -0.03941995 -0.072444685
-0.045106884 -0.012722668 -0.022402944 -0.039105225 -0.027466077 -0.03790257 -0.090331085 -0.062074468
-0.05900358 -0.11993494 -0.12449779 -0.10742323 0.044944942 0.06836558 0.039688986 0.08202585
0.07162557 0.05123137 0.06268127 0.025558054 0.043256994 0.037541963 0.062210612 0.08862343
0.060714588 0.06659086 0.042359084 0.040038016 -0.0052846563 0.0139707 -0.009613002 0.040979106
0.0025317336 0.045410007 -0.01318645 -0.0074681276 -0.019862847 0.06936106 0.12519199 0.037875857
0.06201547 0.039535757 -0.064625986 -0.04438406 0.017803922 0.012521275 0.061880045 0.015413349
0.042935114 0.0266774 -0.0024057499 0.010110139 0.043120194 0.04995121 0.018724237 0.037449382
0.038637035 0.06516483 0.039057408 0.042613924 0.052775506 -0.0071741506 -0.01661241 0.030342763
0.014036515 -0.02110407 0.03507451 -0.008337372 0.030553361 0.075606965 0.013127184 0.012088569
-0.012004377 -0.010703282 0.011044401 0.009617436 -0.030874044 -0.017472083 -0.009407615 -0.008418933
-0.00413751 -0.044925503 -0.032044675 -0.012363225 -0.031231377 0.008410872 -0.009381264 -0.022143926
00000000: 4960 013d 76c4 043c 2028 d53c ea86 a2bc
00000010: 6131 8ebc 2d5f 71bb 278f 44bd 258b e3bb
00000020: f8c8 47bd fb05 a5bc 3cc0 88bd 8ed3 19bd
00000030: bcf9 04bd 0821 b9bc 63a7 3abd 543e a9bc
00000040: 44e0 aabd 8886 6cbd 71a1 24bd 8608 4bbd
00000050: 6152 833a 4a1c 03bb 4595 1bba 3ecf 7bbb
00000060: f555 c53c ff61 4abb af65 d5bc 2f9b 94bc
00000070: 72e8 b1bc 43ab acbc 34b1 4abe 6c2a 23be
00000080: 44b7 23be 9cd3 ecbd 5d7d c2bd 3cfd d1bd
00000090: 3a43 a7bd d109 77bd 39ef bdbd 7603 a4bd
000000a0: 0d33 82bd 9ca3 a9bd 3a7e debd 79b4 06be
000000b0: 6ee8 13be be51 aebd 4962 e6bd bde3 94bd
000000c0: 3fa6 34bd 421a 9ebd 16ec 4bbd 6fad 37bd
000000d0: d5eb a5bc baf5 7d3b 5e8e ddba 63bc debc
000000e0: d50b 12bd 968e 8cbd cf55 8abd 47b4 a3bd
000000f0: 776f 103d 8076 0bbd e4a7 66bd 566a a9bc
00000100: 9076 febc eca6 9ebd ff1d 84bd 770c 7fbd
00000110: f19f 39bc e328 efbc 8f5b b1bc caa3 58bc
00000120: 0af3 a5bc 8e72 f3bb bd25 dbbc 5f99 17bc
00000130: 4240 bfbc c1e1 9ab9 29fe f3bc 2337 073b
00000140: 95c3 33bd d8db 54bd d275 d23b 64db 17bd
00000150: 893f 8bbc e2d0 b1bc 4468 6bbb 26e1 a8bc
00000160: eae5 c23c 6049 ee3c e8ce 9bbc 4c0f 483c
00000170: 91e7 6a3b 03b0 2fbd 8f8b 7ebd 85f3 a6bd
00000180: da00 99bd 9496 09be 4008 e7bd 767a 33be
00000190: 4450 00be 4bb0 debd af73 efbd b0f5 08be
000001a0: 3436 0abe ac3f 4c3c 426c 433d 621e 3f3d
000001b0: b4ee 7f3d 51da 503c 5cf8 103d 21a2 3cbb
000001c0: 897d c9bb a584 f23c c3b0 b3bb dabb 9c3b
000001d0: b8f0 b4ba 3d22 bfbc bfc1 03bd 98b7 debc
000001e0: 56b0 fe3b 0ea1 96bc 3cdf 273d 31cf 303d
000001f0: 434b 4d3d 11c7 173d ce6e 6f3d cc8f 6d3d
00000200: d335 933b 627d 243d 70cc 973c 678c ec3c
00000210: 42da 2b3d d96a ae3d 3763 f43d 08d9 2abd
00000220: ee64 02bd bf14 ecbc 8111 acbc f433 0dbd
00000230: 9c5a 833b 09b9 e4bb 2473 6a3c a303 b23a
00000240: 8934 b9bc dd5c b7bc 4cbf 00bb 065f 27bb
00000250: 5b47 4e3c d2c1 2c3c 10f5 97bd 44e0 17bd
00000260: 9d58 9abc 1417 1abd 2b6c 3ebd 5695 0cbd
00000270: b2ba a7bd a508 9dbd ccf2 21bd 8c4d 2dbd
00000280: 30f6 353c bbe3 60bd 7b59 37bd 479d 62bd
00000290: aea1 8abc 9b4d 93bd d076 21bd e15d 94bd
000002a0: ffc1 38bd bd72 50bc 6186 b7bc cd2c 20bd
000002b0: 8a00 e1bc ba3f 1bbd 81ff b8bd cc41 7ebd
000002c0: bdad 71bd 73a0 f5bd b3f8 febd b600 dcbd
000002d0: 3018 383d 4103 8c3d eb90 223d 2bfd a73d
000002e0: 6db0 923d fcd7 513d 0a5f 803d 205f d13c
000002f0: 3f2e 313d 9ac5 193d 8ed0 7e3d 3380 b53d
00000300: dcaf 783d ca60 883d b880 2d3d e7fe 233d
00000310: e92a adbb 5de5 643c da7f 1dbc b5d9 273d
00000320: 71eb 253b d8ff 393d fb0b 58bc 32b7 f4bb
00000330: 69b7 a2bc 2c0d 8e3d 5432 003e b723 1b3d
00000340: ef03 7e3d 3ff0 213d a15a 84bd 0fcc 35bd
00000350: 88d9 913c 0926 4d3c ee75 7d3d 4588 7c3c
00000360: bbdc 2f3d 908a da3c c9a9 1dbb ffa4 253c
00000370: cd9e 303d a499 4c3d 9263 993c 8664 193d
00000380: de41 1e3d 2375 853d a9fa 1f3d f08b 2e3d
00000390: 212b 583d 2315 ebbb c016 88bc 6391 f83c
000003a0: 69f9 653c 71e2 acbc 4aaa 0f3d 7999 08bc
000003b0: 0b4b fa3c d3d7 9a3d 6613 573c 220f 463c
000003c0: 02ae 44bc d25c 2fbc 93f3 343c 7392 1d3c
000003d0: 90eb fcbc 9d21 8fbc 6622 1abc 90ef 09bc
000003e0: f393 87bb ce03 38bd 4741 03bd 208f 4abc
000003f0: f2d8 ffbc c1cd 093c e0b3 19bc 2e67 b5bc

weight f4 [32]
0.7292508 0.7637567 1.1427797 0.66900045 0.6339317 0.622 0.70053506 0.48241916
0.61083186 0.77203417 1.0270185 0.48085335 0.989274 0.9986259 0.9918439 1.135718
0.5830454 0.46312025 1.0198263 1.2187691 1.1433955 0.7264885 1.2196244 0.5025948
1.1728514 0.7528052 0.5345072 0.51760507 0.529259 0.9964812 0.5541194 0.4277404
00000000: 2eb0 3a3f 8f85 433f 9b46 923f 9d43 2b3f
00000010: 5949 223f 643b 1f3f 4456 333f a5ff f63e
00000020: 7a5f 1c3f 08a4 453f 5875 833f 6932 f63e
00000030: 1041 7d3f f2a5 7f3f 7be9 7d3f 355f 913f
00000040: 7742 153f 191e ed3e ab89 823f a000 9c3f
00000050: c95a 923f 26fb 393f a71c 9c3f 0eaa 003f
00000060: ff1f 963f d7b7 403f 77d5 083f c481 043f
00000070: 857d 073f 6419 7f3f c5da 0d3f ca00 db3e

bias f4 [32]
-0.05402503 -0.037196588 -0.17932837 0.01400314 -0.15505803 -0.0429159 -0.035656467 -0.03455308
0.006559613 -0.008063825 -0.013280779 0.007081268 -0.04502827 -0.13863511 -0.0428281 -0.020458974
0.0024290264 -0.05679082 -0.047034133 -0.06256513 -0.049585853 -0.135792 -0.0819139 -0.02746747
-0.050480764 0.020882113 0.036344256 0.0425114 -0.02357118 -0.04588236 0.057610936 0.076393865
00000000: 5a49 5dbd 735b 18bd dba1 37be 6d6d 653c
00000010: 88c7 1ebe 95c8 2fbd 840c 12bd 8887 0dbd
00000020: 06f2 d63b 221e 04bc a097 59bc fb09 e83b
00000030: 906f 38bd 5df6 0dbe 856c 2fbd 9499 a7bc
00000040: 4d30 1f3b 7e9d 68bd dda6 40bd 2622 80bd
00000050: 891a 4bbd 0f0d 0bbe 7ac2 a7bd 7603 e1bc
00000060: ebc4 4ebd f710 ab3c b7dd 143d 6f20 2e3d
00000070: 5918 c1bc 24ef 3bbd 72f9 6b3d 6374 9c3d

running_mean f4 [32]
-0.5396373 0.1616838 -0.41417733 -0.07650732 0.17056693 -0.081022926 -0.42408347 -0.71902734
-0.32200736 -0.27945784 -0.24600661 -0.73081553 -0.35904628 -0.052888695 -0.15170787 -0.22075571
-0.4213399 -0.5194178 -0.33915406 -0.78437847 -0.21275379 0.5841112 0.18247566 -0.6066174
-0.6042263 -0.18652692 -0.4138294 -0.3270436 -0.7139915 -0.52984023 -0.42350268 -0.25101662
00000000: ac25 0abf 7090 253e 0d0f d4be dfaf 9cbd
00000010: 19a9 2e3e 59ef a5bd 7821 d9be 2d12 38bf
00000020: 26de a4be 1915 8fbe 28e9 7bbe ba16 3bbf
00000030: ead4 b7be d1a1 58bd 4f59 1bbe c90d 62be
00000040: ddb9 d7be 91f8 04bf 9aa5 adbe 07cd 48bf
00000050: 21dc 59be 5088 153f e6da 3a3e 474b 1bbf
00000060: 93ae 1abf ea00 3fbe 72e1 d3be 4272 a7be
00000070: 26c8 36bf 9ca3 07bf 58d5 d8be 4085 80be

running_var f4 [32]
0.401274 0.2629398 0.52168864 0.26463306 0.6002869 0.38208014 0.43929607 0.45688534
0.402115 0.32273608 0.32969052 0.5720866 0.32477582 0.28314072 0.5336645 0.22086312
0.40138736 0.5796507 0.29640415 0.4015789 0.42774376 0.36747268 0.40763286 0.48938027
0.4206213 0.31623358 0.4193216 0.37760025 0.52768505 0.37872127 0.4211009 0.47168273
00000000: c973 cd3e 0ca0 863e 638d 053f fc7d 873e
00000010: 67ac 193f 02a0 c33e 6aeb e03e e0ec e93e
00000020: 04e2 cd3e aa3d a53e 32cd a83e 4474 123f
00000030: 0449 a63e d2f7 903e 3d9e 083f f129 623e
00000040: a582 cd3e fd63 143f 49c2 973e c09b cd3e
00000050: 3b01 db3e 6125 bc3e 41b5 d03e 0d90 fa3e
00000060: ad5b d73e 5ee9 a13e 52b1 d63e d254 c13e
00000070: 5e16 073f c1e7 c13e 8a9a d73e 6680 f13e

weight f4 [2, 736]
-0.0023037056 -0.023751935 -0.107370995 -0.1170733 -0.20482332 -0.17645419 -0.13664904 -0.07522367
-0.007875631 -0.024092708 -0.06558027 0.016840346 0.038126748 0.015535599 0.073775545 -0.01911922
0.008913367 0.054050475 -0.03578523 -0.10666408 0.045785572 0.053965896 -0.01142515 -0.10526163
-0.036639564 -0.020455206 -0.09063588 0.030577015 0.041573495 0.050188143 0.10583469 0.10165692
-0.051283173 -0.013792016 0.14288506 0.10552939 -0.08059332 0.07376394 0.0745127 -0.008278857
0.049838644 0.09379644 0.0015462462 -0.013522784 0.044779837 0.17538445 0.043662008 0.17419745
0.033448145 0.031099683 -0.010526414 -0.035046775 -0.118138894 -0.06638589 -0.06107744 -0.12684889
-0.047121808 -0.06468058 -0.044364065 -0.02938908 0.057693742 0.15483817 -0.0057087117 -0.08388987
-0.010421676 -0.010262667 0.00535512 -0.017854184 -0.008093747 0.18903768 0.16121837 0.024682293
0.13936831 -0.008909808 0.036554206 -0.017352698 0.044204067 0.07441764 -0.08033974 0.036695763
-0.12904511 -0.13252854 0.23804404 0.05972892 0.09518709 0.014460259 0.02855044 -0.020130347
0.04825531 -0.08081732 0.059236944 -0.08462473 0.22937347 0.17867069 -0.009498588 -0.019233732
-0.113038816 -0.096045785 -0.12166103 -0.28178874 -0.105585836 -0.06832257 0.053143293 -0.119739965
-0.26393265 -0.045292698 0.10766331 0.09853897 0.08670511 0.10659286 0.04019852 0.011883697
-0.06162873 -0.12488599 0.07858669 0.0030226056 -0.061084636 -0.026813883 -0.07556449 -0.1242373
-0.18112022 -0.053250678 -0.06260873 -0.19470146 -0.15864156 -0.124876395 -0.22222917 -0.202181
-0.13818777 0.053955827 -0.05829897 -0.10288069 -0.06530254 -0.016082885 -0.11773568 0.001966674
0.014633913 -0.01685972 0.055541743 0.1899744 0.13867898 0.116615474 0.07507769 0.056587372
-0.008664935 -0.04519303 -0.14666872 -0.093157046 0.01006707 0.007494243 -0.02807002 0.049014438
-0.09624663 -0.05480685 -0.047722146 0.0083333645 -0.08468335 -0.030131578 0.013132505 0.006688799
0.1299783 -0.071985714 -0.014281534 -0.09436418 -0.17617317 -0.1811596 -0.117960945 -0.13472386
-0.06437294 0.0024959298 -0.05130307 -0.09241319 -0.041594133 0.117540516 0.02830666 0.079734966
-0.046142228 -0.03952441 -0.035106838 0.036801234 -0.10363354 0.010520596 -0.052398507 -0.015141937
0.14040434 0.20631835 0.07781558 0.09212871 0.012683461 0.064982966 -0.09832289 0.039494965
0.06284965 -0.12801442 -0.01146224 0.004177191 0.04907039 -0.11257536 -0.049577013 -0.022093575
0.025435 -0.023433538 -0.006674407 0.08869937 0.09564426 0.1258061 -0.06242685 0.122650675
0.0012220804 -0.033649974 -0.11826334 -0.2075294 -0.1734724 -0.055956956 -0.03624314 0.08922954
0.04503963 -0.15121605 -0.010230778 -0.11484623 -0.102075525 0.036516238 -0.09717622 0.03998884
0.025783107 -0.018198749 0.092264906 -0.052913915 -0.13047965 -0.0546768 0.044251222 -0.18448928
-0.04594578 -0.009619994 -0.13384382 -0.2089994 -0.052539345 0.041537974 0.023952229 0.047162857
0.049813118 0.011260155 -0.06970972 0.032457665 0.013901021 -0.005108455 -0.0432183 0.18912871
-0.10832453 -0.20572297 0.022916839 -0.0028611943 0.14204296 0.14287966 0.3201794 0.08707027
00000000: c4f9 16bb 6b93 c2bc 53e5 dbbd 20c4 efbd
00000010: 34bd 51be 68b0 34be baed 0bbe de0e 9abd
00000020: ca08 01bc 125e c5bc f34e 86bd c4f4 893c
00000030: cb2a 1c3d 0689 7e3c a217 973d e99f 9cbc
00000040: 5f09 123c 0864 5d3d 8993 12bd b272 dabd
00000050: a789 3b3d 580b 5d3d 8d30 3bbc 6993 d7bd
00000060: 5e13 16bd ad91 a7bc 4e9f b9bd a67c fa3c
00000070: f848 2a3d 1592 4d3d dcbf d83d 8131 d03d
00000080: 4e0e 52bd e8f7 61bc 7650 123e cb1f d83d
00000090: 1c0e a5bd 8c11 973d 1d9a 983d 0ba4 07bc
000000a0: 9b23 4c3d 5918 c03d 6aab ca3a ab8e 5dbc
000000b0: 106b 373d fb97 333e efd6 323d d160 323e
000000c0: ec00 093d c3c4 fe3c fb76 2cbc 358d 0fbd
000000d0: cef2 f1bd 53f5 87bd 562c 7abd ade4 01be
000000e0: cc02 41bd 4077 84bd 18b7 35bd 5ec1 f0bc
000000f0: 4650 6c3d e68d 1e3e 2510 bbbb 74ce abbd
00000100: adbf 2abc bf24 28bc 017a af3b f042 92bc
00000110: a39b 04bc 1893 413e 6e16 253e 8532 ca3c
00000120: 91b6 0e3e 71fa 11bc ddb9 153d 3f27 8ebc
00000130: 530f 353d 4768 983d 2989 a4bd 4c4e 163d
00000140: 6724 04be 90b5 07be d1c1 733e 50a6 743d
00000150: 73f1 c23d b9ea 6c3c 9de2 e93c 66e8 a4bc
00000160: 5ca7 453d 8d83 a5bd 70a2 723d bb4f adbd
00000170: e1e0 6a3e 73f5 363e f79f 1bbc 0f90 9dbc
00000180: e580 e7bd a7b3 c4bd 6b29 f9bd 9d46 90be
00000190: 633d d8bd b4ec 8bbd c8ac 593d 3a3a f5bd
000001a0: 2e22 87be d684 39bd 957e dc3d cdce c93d
000001b0: 7392 b13d 5b4d da3d 34a7 243d d6b3 423c
000001c0: 686e 7cbd 3ac4 ffbd 0ff2 a03d e816 463b
000001d0: e233 7abd caa8 dbbc 8ec1 9abd 2070 febd
000001e0: 9477 39be 621d 5abd 0139 80bd d25f 47be
000001f0: ef72 22be 32bf ffbd 0b90 63be 8908 4fbe
00000200: 1881 0dbe c900 5d3d e7ca 6ebd 1cb3 d2bd
00000210: 57bd 85bd 41c0 83bc 671f f1bd 51e3 003b
00000220: 14c3 6f3c 651d 8abc bd7f 633d a688 423e
00000230: dd01 0e3e 18d4 ee3d 55c2 993d 29c8 673d
00000240: 5ff7 0dbc 541c 39bd 5330 16be 1fc9 bebd
00000250: 5af0 243c 4492 f53b 19f3 e5bc 5dc3 483d
00000260: f41c c5bd 267d 60bd 4c78 43bd aa88 083c
00000270: 776e adbd 80d6 f6bc b829 573c b62d db3b
00000280: 0819 053e 3f6d 93bd 18fd 69bc 0242 c1bd
00000290: bd66 34be e781 39be 8295 f1bd 0df5 09be
000002a0: f6d5 83bd c192 233b 2b23 52bd 2043 bdbd
000002b0: 9c5e 2abd 15b9 f03d 5ee3 e73c 164c a33d
000002c0: a2ff 3cbd 59e4 21bd 30cc 0fbd e4bc 163d
000002d0: d23d d4bd 945e 2c3c d19f 56bd e315 78bc
000002e0: 28c6 0f3e 1e45 533e c65d 9f3d faad bc3d
000002f0: 4bce 4f3c ca15 853d 835d c9bd 79c5 213d
00000300: 51b7 803d 3616 03be 1ecc 3bbc d1e0 883b
00000310: 09fe 483d e98d e6bd 4411 4bbd 96fd b4bc
00000320: 105d d03c b1f7 bfbc fcb4 dabb 04a8 b53d
00000330: 23e1 c33d 50d3 003e 4cb3 7fbd 4730 fb3d
00000340: 372e a03a 8ed4 09bd 0d34 f2bd 9682 54be
00000350: c0a2 31be 1f33 65bd b073 14bd fabd b63d
00000360: 7a7b 383d 61d8 1abe fe9e 27bc 8034 ebbd
00000370: f90c d1bd 0d92 153d 5304 c7bd 57cb 233d
00000380: 1837 d33c 8b15 95bc 62f5 bc3d 43bc 58bd
00000390: 759c 05be c8f4 5fbd c540 353d c2ea 3cbe
000003a0: a431 3cbd 2e9d 1dbc 5b0e 09be f003 56be
000003b0: 7f33 57bd b923 2a3d 7737 c43c d72d 413d
000003c0: d708 4c3d 837c 383c f8c3 8ebd 54f2 043d
000003d0: 1cc1 633c d464 a7bb ac05 31bd f5aa 413e
000003e0: 40d9 ddbd 0ba9 52be 18bc bb3c e082 3bbb
000003f0: b673 113e 0c4f 123e 8eee a33e e651 b23d

bias f4 [2]
0.0119165955 -0.010126199
00000000: d33d 433c 5be8 25bc
