HW2/ELU_EEGNet.pkl (torch_old, 99499 bytes, 17 tensors)

weight f4 [16, 1, 1, 51]
00000000: 6443 353d 5536 02bd 587b bcbd 64e5 ba3d
00000010: 4d41 e63d bee3 ce3d 5823 8ebc 6309 6a3e
00000020: b29d b33d 5f41 f13d 1c6d 3f3e eb0d 93bb
00000030: 2066 bc3c e7bc ef3d d699 abbd 905b cebd
00000040: 2377 4ebd 67fa dd3c 8b31 15be ea79 1fbe
00000050: cd34 06be 3511 d5bd 93ed 3fbe 1998 4bbe
00000060: 3c04 0fbe 95bb 4cbd 837b 123d dbbe 0dbc
00000070: 9c0a b7bd e0cc 273d 86dd a9bb 9c13 b2bd
00000080: ccde f33d e481 143e e78b cc3c d0c4 a4bb
00000090: 2458 203e 0138 bc3c 9bd6 aabb ee4c b13c
000000a0: 4024 0f3e 997b c6bd fd16 983d b562 07bd
000000b0: 0ad6 d13d b220 b0bd a88b 31ba 73e0 383d
000000c0: 7e8a df3c 5b64 de3c 3c50 bcbd 487f af3d
000000d0: 81a0 fabc 42da df3d 8040 b13d 1c52 213d
000000e0: 2e0d 80bd a40e a53c 77fe 11be 78fe 30bd
000000f0: 531b 12be 2638 13be 360a 6ebd 412c 2f3e
00000100: f684 3dbd 0475 063e edde d03d ebe5 f23d
00000110: e6d3 a03d d3c8 3abd 8418 46be e3b1 78bc
00000120: 0596 41be 3447 693c faad 1e3e dca3 c9bc
00000130: 5bcd 1e3e 5cf4 3abd ca5c 113e bb8f a3bd
00000140: f0dd a6bd e843 c4bd dfb9 08be f704 da3b
00000150: b4d2 843d 12e6 1a3e f975 2dbd 5342 b43d
00000160: 9fd6 533e cbc0 09bb 24f2 88bd 92f2 55bc
00000170: bfa2 00be a2b9 37be 7698 2b3d ce6a 1dbd
00000180: 9956 30bd d3bf 413e 5ff2 833d 059d 88bd
00000190: de5d 603d f611 52bd 70a9 193d 18b3 8d3d
000001a0: 8f41 1a3b 82ce 0f3e 3492 89bd 6b76 4d3e
000001b0: a56d 553e 2245 873d 73df 1a3e a73d d23d
000001c0: a66d 103e cf88 513e 9ea7 c03d 20c1 4b3e
000001d0: d37b 333e ed75 de3d bbdc cd3d a77f 523e
000001e0: 2300 4fbd 7c87 21bd 50a5 ce3d d631 f7bd
000001f0: 92f3 b0bc b692 eebd c624 75bd 0786 55bd
00000200: ed66 b7bd 2ec8 08be 699c 7c3d 8260 49bd
00000210: 7b49 bbbd 0c3f 963d d002 0bbe ad4b b73d
00000220: 490b dcbd 5ecf 533d b11e 253d 8b9d e1bd
00000230: 7f04 dbbc 1efb 093d b3f3 8f3d f087 dabd
00000240: d106 0f3e 41a1 78bd fd39 4d3d 0f0e 0d3e
00000250: 6038 99bd 095c fd3d 1a5e 4dbd c5a4 92bd
00000260: 8477 243d cbac d4bd 8987 a3bd 66fd d83d
00000270: f674 123e 6fba fd3d 3a49 d43d 9a65 113e
00000280: 748f 06bb b001 8ebd 973e b0bd 8a3a 033e
00000290: 935e 853d 358b 8a3c efaa 1c3e 6054 113c
000002a0: e88b 88bc b036 9c3d 055c 123e be55 3b3d
000002b0: d14d 143e 7769 333e ab17 193e c85e 243e
000002c0: 7d2b 923d c120 c33d 11c2 843d 9fff dd3c
000002d0: 8828 7dbd ba9f 8c3d e67c 0e3c c134 043e
000002e0: 53f6 51bd 5f80 aebd cebd c63d b671 823d
000002f0: 1048 013d bc97 863d ec57 df3c 4b57 c33a
00000300: ebad bc3d ddd5 1dbd 7a9a 01be f5dd b63c
00000310: b83b 9abd 4729 cb3c 2dab 20be f222 e6bd
00000320: 7dae 04be 26b4 27bd f432 20be dd50 af3d
00000330: 9907 76be 8b40 20be 339a 54be f240 debd
00000340: e789 e83c f0c2 39bc 9778 d9bd ee96 fb3c
00000350: da8b d8bd 6a91 613d 6e25 26be bbeb 1bbe
00000360: 0435 c8bd c75c fdbd 1177 ad3d acf7 a43d
00000370: f954 a2bd a52c 053e 1a1e e73d 9f93 91bd
00000380: d977 fe3c c16b 663d 1a87 7b3d 0d78 edbd
00000390: 7780 ec3c 625e 63bd faaa 3a3d 4193 063e
000003a0: e198 93bd 0d9c 95bd 4257 e0bc 98f1 f5bc
000003b0: 944c c6bc 4faa 3d3d f801 f7bd 026d 6abd
000003c0: b867 84bb 25a2 943d fba5 0c3e 13e5 32bd
000003d0: f357 283d b729 443e 43cb 2fbd 702b 8c3d
000003e0: 0bae 40bc 2e81 10be ab3f 7f3d c559 57be
000003f0: 8273 32be fe4b 133d a686 3ebe e127 203e
0.04425372 -0.031790096 -0.092032135 0.09125784 0.11242924 0.10102032 -0.017350838 0.22855143
0.08770312 0.11780047 0.18693966 -0.004487743 0.022997916 0.11705952 -0.08378951 -0.10076058
-0.050406586 0.02709694 -0.1456968 -0.1557385 -0.1310608 -0.104036726 -0.18742971 -0.1988224
-0.13966459 -0.04998358 0.03576232 -0.0086514605 -0.089375705 0.04096687 -0.0051838784 -0.086951464
0.119077295 0.14502674 0.024969054 -0.0050283447 0.15658623 0.022975923 -0.0052135712 0.021643128
0.13978672 -0.09691543 0.0742626 -0.03305312 0.10245903 -0.08599986 -0.00067728246 0.045135926
0.027287718 0.027147463 -0.09194991 0.08569199 -0.030594112 0.10930301 0.086548805 0.039384946
-0.06252514 0.020148583 -0.14257227 -0.04321143 -0.14268236 -0.14376888 -0.058115207 0.17106725
-0.04626938 0.13130575 0.1019877 0.118602596 0.078529164 -0.045601677 -0.1934529 -0.01517913
-0.18904884 0.014238168 0.15496054 -0.024614267 0.15508024 -0.045643196 0.14195552 -0.07986399
-0.081478 -0.095832646 -0.13352154 0.006653424 0.06485501 0.15126827 -0.042348836 0.08801713
0.2068734 -0.0021019455 -0.0668681 -0.013058322 -0.12562083 -0.17941907 0.041893445 -0.038431935
-0.043051336 0.18920831 0.06442713 -0.06670574 0.05477702 -0.05128666 0.037515104 0.06918925
0.002353761 0.1404362 -0.06717339 0.20064704 0.20842607 0.06604983 0.15124302 0.102656655
0.14104328 0.20462345 0.094069704 0.1989789 0.17527704 0.10862336 0.100518666 0.20556508
-0.05053724 -0.03943585 0.100901246 -0.12070052 -0.021600518 -0.11649077 -0.059849523 -0.05212977
-0.089551784 -0.13357612 0.0616726 -0.049164303 -0.09144875 0.07336244 -0.13575292 0.08949981
-0.1074434 0.051711433 0.040312473 -0.11016377 -0.026735542 0.03368675 0.07028904 -0.10670459
0.13967444 -0.06070066 0.05010413 0.13774894 -0.07481456 0.1237107 -0.05013857 -0.071603335
0.04015304 -0.1038452 -0.07984836 0.10595207 0.1430243 0.12389075 0.10365529 0.14198914
-0.0020532282 -0.069339156 -0.08605688 0.128153 0.06512179 0.016912082 0.15299581 0.008870214
-0.016668275 0.07627618 0.14292915 0.045736067 0.1448281 0.175207 0.14950435 0.16051781
0.07137201 0.09527732 0.06482328 0.027099429 -0.06180623 0.06866403 0.00869677 0.12910749
-0.051260304 -0.085205786 0.09704171 0.06369345 0.031562865 0.0657191 0.027263604 0.0014903335
0.0921286 -0.038534034 -0.12656584 0.022322634 -0.07530922 0.024799956 -0.15690298 -0.11237134
-0.12957187 -0.040943287 -0.15644437 0.08560345 -0.24026336 -0.15649621 -0.20761947 -0.10852231
0.02838607 -0.011337981 -0.10618704 0.030711617 -0.105735496 0.05507032 -0.16225216 -0.15226643
-0.09775737 -0.123712115 0.08469976 0.08055052 -0.079263635 0.13005312 0.11285038 -0.071082346
0.031063007 0.056255106 0.06140814 -0.115951635 0.02886985 -0.055509932 0.045573212 0.1314211
-0.07206894 -0.07305155 -0.027385358 -0.030022427 -0.024206437 0.046304997 -0.120609224 -0.057232864
-0.0040406846 0.07257489 0.13735192 -0.043675493 0.0410995 0.19156538 -0.042918455 0.068442225
-0.011760245 -0.14111778 0.062316578 -0.21030338 -0.17426875 0.035961144 -0.18606052 0.15640213

weight f4 [16]
00000000: 5c48 5f3f e952 993f 5dca 5c3e 025e 043f
00000010: 46fd 023e e2b4 353f 95da 273f 736f 563f
00000020: 5bf1 a13e e020 e83e 92de 6f3f 85bf 353d
00000030: af48 843f 8264 1f3f 6583 b73e 07fe 603f
0.87219787 1.1978427 0.2156157 0.51705945 0.12791929 0.7097913 0.65567905 0.8376381
0.31629452 0.45337582 0.9369899 0.0443721 1.0334681 0.6226274 0.35842434 0.87887615

bias f4 [16]
00000000: 95c2 033c 1af2 11bd 5c19 77bd 0fb3 053d
00000010: a8d5 98bb 64bc 1d3c c78b eb3b c508 e63b
00000020: 6fa9 c1bb 1adf 253c 01db 543d e611 b13c
00000030: 9bc3 4c3d 35d3 b3ba 6d92 723c d3f9 7ebc
0.008041997 -0.035631277 -0.06032692 0.032641467 -0.0046641417 0.009627435 0.0071882936 0.0070200884
-0.0059100906 0.010123992 0.05196667 0.02161498 0.04999123 -0.0013719561 0.014805418 -0.015562492

running_mean f4 [16]
00000000: 0e96 4abc e83b f5ba f672 81bd b8e8 19bd
00000010: b5e9 953d 09bc 9a3c a6c3 ba39 acd8 24be
00000020: f9f2 b9bd d8e7 39bc 521f 8aba 26e6 f2bd
00000030: 1c6d 3db9 58b6 14bb 9199 083c 010d b53c
-0.012364877 -0.001870987 -0.06320755 -0.037575454 0.07319967 0.01888849 0.00035622454 -0.16098279
-0.090795465 -0.01134678 -0.0010537899 -0.118603036 -0.00018065091 -0.0022691693 0.008337394 0.022100927

running_var f4 [16]
00000000: ef79 b841 a8b5 bb41 3daf 9542 bf11 aa42
00000010: 1044 3742 dbdd cf41 5688 9340 57ff 1c43
00000020: 2619 7b42 15ca 2142 7cbb 9240 9b8c aa42
00000030: f91d 4f40 5190 cb41 4f97 8841 1394 ea41
23.059538 23.4637 74.84226 85.03466 45.816467 25.983328 4.6103926 156.99742
62.77456 40.447346 4.5853863 85.27462 3.2362044 25.445467 17.073881 29.322302

weight f4 [32, 1, 2, 1]
00000000: 30e4 01bf b419 b43e 46f3 b3be be4c ac3e
00000010: e04c 1abd 5443 7e3e 4af7 0a3f 53ff 35be
00000020: eca3 8cbe c50a a93e 6562 013f 0f73 d8be
00000030: 1328 f33e 911b 073b 71b3 23bf 16b4 19bd
00000040: 3e90 ba3e 5745 06bf 2a00 a1be e2ac afbe
00000050: 6981 4d3e 0dd3 483f c1f5 46be eac4 5b3e
00000060: 78a5 1cbe 175e a53d 2934 ae3d f84e 62be
00000070: 2b8c 59be 899a d63e dfb3 8e3e 5866 91be
00000080: 2877 d73d b98c 77be 12bb 61be 2e6d 3fbf
00000090: 10df a43e b886 adbe 6e8d c9be 7e93 d6bd
000000a0: e7c4 0abe fd85 2e3f 569d 123e f2da 2bbf
000000b0: 3dea 4c3e b856 1dbf 7d85 613e 78c1 1c3f
000000c0: 210b 943d 3087 85bf b174 d7bd c3b4 4c3f
000000d0: b3b2 23be 3a30 bf3c f9d6 76bc a81e a5be
000000e0: df43 da3d 58d1 26bf 7a92 83be 6733 493f
000000f0: cfd0 053f 3fc0 0cbf 2d92 013e ce11 eebe
-0.5073881 0.3517586 -0.3514654 0.336523 -0.03767097 0.24830371 0.54283583 -0.1777318
-0.27468812 0.3301603 0.50540763 -0.42275283 0.47491512 0.0020615796 -0.6394568 -0.03752526
0.36438173 -0.52449554 -0.31445438 -0.34311587 0.20068897 0.7844704 -0.19429685 0.21461836
-0.15297496 0.08074587 0.085060425 -0.22100437 -0.21244876 0.41914776 0.27871606 -0.28398395
0.10520774 -0.24174775 -0.22044018 -0.7477597 0.32201433 -0.33891845 -0.39365715 -0.10477351
-0.13551675 0.681732 0.14317831 -0.6713096 0.2001123 -0.6146045 0.22023578 0.6123271
0.07228685 -1.0431881 -0.10520304 0.7996332 -0.15986137 0.023338426 -0.015065902 -0.3224995
0.10657477 -0.65163183 -0.2569769 0.7859406 0.5227174 -0.54980844 0.12653418 -0.4649796

weight f4 [32]
00000000: 918f 353e 33ee 593f 21af 423f 5939 8f3f
00000010: b52d 093f bd6a 2a3f a36e 2f3f 62f5 243f
00000020: 24cf e23e 6501 653f 765b cc3d ff13 543f
00000030: def8 253f 9a50 523f 9b99 5a3f 0a1a 783c
00000040: d305 493f 14f0 953e d674 5e3f 36bf 00bd
00000050: a33b 8e3f 52e0 943f bf13 323f 2392 773e
00000060: 31e9 943f d46b 8c3f dae8 083f 94cc b73e
00000070: 9e6f 283f 5e2e f93e d8fc b23e bc13 f53e
0.17730547 0.8512909 0.76048476 1.1189376 0.5358537 0.6656912 0.68528193 0.64436924
0.4429866 0.8945525 0.09978382 0.8284301 0.64832866 0.8215424 0.85390633 0.015142927
0.7852451 0.29284728 0.8689703 -0.031432353 1.111195 1.1630957 0.6956138 0.2417684
1.1633664 1.0970407 0.53480303 0.35898268 0.65795314 0.48668188 0.3495853 0.4786662

bias f4 [32]
00000000: bea6 a4bc 4eed 25be bd2c 16be 776e 99be
00000010: 7400 84bd 1d22 b7bd 83a7 01be 6a7a 2dbe
00000020: 24cb 76bc 5e11 2ebe 6978 d13c b522 47be
00000030: 17f7 28be 3bfa 36be fdbf b7bd ae86 6f3b
00000040: fcde 18be b654 56be f60c 35be 62f3 68bb
00000050: 1e6f 79be c588 a1be 14df 98be 6202 0ebe
00000060: 8f5d 81be 7ce5 81be 76dd 9bbd e642 27bd
00000070: 975b f1bd 5263 c5bd fe20 753c d1c9 89bd
-0.02009904 -0.16203806 -0.14665504 -0.2996709 -0.06445399 -0.089420535 -0.12661557 -0.16941229
-0.015063081 -0.16998813 0.025570111 -0.19446833 -0.16500507 -0.17868893 -0.08972166 0.0036548781
-0.14928812 -0.20930752 -0.17680725 -0.0035545458 -0.24358794 -0.3154966 -0.29857695 -0.13868096
-0.25266692 -0.25370395 -0.076106 -0.040835284 -0.117850475 -0.096380845 0.014961479 -0.067279465

running_mean f4 [32]
00000000: fc02 d2ba 187a d4b9 8871 f7bb bb39 46bc
00000010: 4fd4 8cbb 9bb3 73bb 0f50 8a3c 9b52 c2bc
00000020: 2202 8739 3b97 8f3b 5623 1a3c 4391 a939
00000030: 084a bbb9 29d6 a1ba f481 2ebb 63c7 783b
00000040: 47c0 d73a 457d f23b 5420 6cb9 2994 9ebb
00000050: f6ae e03c 870d dabc 4215 0cbc edc5 8f3c
00000060: 2a72 49bd 3c95 103d eac4 8839 1601 903a
00000070: 4733 fbbb 8720 f53b b223 00ba 0552 9d3b
-0.0016022618 -0.00040526758 -0.007551376 -0.012098725 -0.00429777 -0.003718591 0.016883878 -0.02372103
0.00025750796 0.0043820417 0.009407839 0.0003234242 -0.00035722577 -0.001234715 -0.002662775 0.003796064
0.0016460501 0.007400187 -0.00022518757 -0.0048394394 0.027427178 -0.026617778 -0.00854999 0.017550433
-0.04918114 0.03529857 0.00026086654 0.0010986652 -0.007666025 0.007480684 -0.00048881315 0.0048010373

running_var f4 [32]
00000000: 8471 cc3d a125 5e3d 7844 9e3d fb44 823e
00000010: f644 393b 6260 da3b 0743 7d3d 25ff f63d
00000020: 8b15 2b3b eabf c13b 67bc e13e 721f 543c
00000030: ec87 033c 7a6b 853c d59e 9b3d 4253 2c3d
00000040: 1e6c 633b 23db a33d 5df8 403c 3276 4c3d
00000050: d86e ae3e 8a7d a83e 6584 013a 6db1 933a
00000060: d3af 8f3f 24ea 213f e55c 0a3c 0002 243d
00000070: 0d16 463d 56e4 6a3d 7d69 083e 8c92 e53d
0.09982589 0.054235104 0.07727903 0.25443253 0.0028269864 0.0066643218 0.0618315 0.12060384
0.002610537 0.0059127705 0.44089052 0.01294695 0.008028012 0.0162866 0.07598654 0.04207159
0.0034701894 0.080007814 0.011777964 0.049917407 0.34068942 0.3290828 0.0004940688 0.0011268087
1.1225532 0.63247895 0.008444999 0.04004097 0.048360873 0.057346664 0.1332149 0.11209592

weight f4 [32, 32, 1, 15]
00000000: d7e4 fd3c 887b 013b 5af5 de3c 7fce d5bd
00000010: b8d8 0fbe ead8 22bd 8b79 54bd 9154 37bc
00000020: 882c 49bd 7e78 3bbd 9ad2 463c 2e89 d5bc
00000030: 224f 7a3d c237 353d 1b54 f03b 8d9b abbd
00000040: 9a3a 16bd 4ffb debd d34b 0dbe 76da 0ebe
00000050: 5e85 84bd 3851 89bd 9472 2abd 7cbf abbd
00000060: b9b7 c2bd eda6 8bbd fd2c ddbd abe0 f4bd
00000070: e90a 8bbd 49f1 08be be55 23bd a457 1bbe
00000080: 4ed8 10be 87eb afbd a4d4 ccbd b7e4 94bd
00000090: b581 62bd 92fd 07bc 5e2c 343c 09d1 c83d
000000a0: bb3f 683d 10ae 8f3d 2228 74bd ff7f 4eba
000000b0: 62f3 acbd 92ec 463c 036c 3cbd 462f 3f3d
000000c0: 5c24 a03b 27d3 623c 72da 4e3d 3d09 1e3d
000000d0: f1af 883d 1532 2bbd cd47 543d efff d53a
000000e0: 4d2e b4bc cf91 9ebc ca99 44ba 41cc 1bbd
000000f0: 1fc4 56bd a4c4 5bbd d2d3 edbc df26 6fbd
00000100: e8ad 19bd 1932 b3bc f545 4abd 91a1 0dbd
00000110: a47e 04bd 7f82 4cbd ff5c 1e3a caaa f5bc
00000120: 47eb 2abd 1bdd 47bd 5205 fb3c ff31 1fbd
00000130: dd66 83bd 4ee9 f53c e0ea 50bc 066e 41bd
00000140: 80f2 05bd 7884 b0bd 623c 8dbd 991a 7cbc
00000150: c93c 96bc c5f7 5fbd ec21 a9bd bead 9ebd
00000160: 34e4 12bd 36c7 a7bd 74ad 503d c11d 4a3d
00000170: 7ea4 99bc a4d4 173c 679d 493d 8143 353d
00000180: 21d6 933b ccb6 493d 2e80 893d 9847 4f3d
00000190: 16c3 8a3d bd5a dc3b 555e 0f3d 18ee 1e3c
000001a0: 4880 ab3c 6eed 86bd 3c7a 9ebc 727f 0cbb
000001b0: a676 8a3b 7aa7 033d 1ea2 003d feb3 6d3d
000001c0: 8d42 f23d 5745 b83d 1b71 7a3d 777d 513d
000001d0: f307 7f3d 57be e03b 642c 8c3a 1433 31bc
000001e0: 618a 313c cca7 3d3d 058b 963b 8746 7f3d
000001f0: 92ed 573b bfef 363c 415a 273b 2069 1b3d
00000200: 3eb6 d5bc 6c87 24bd b420 1abd 26bd d5bc
00000210: 5aac 153c 27a7 ff3a 7034 8ebc 2460 853d
00000220: 7487 413d bff0 5b3d 060d 513c 3909 833b
00000230: 3fef 153d 7dac c63d c3a7 7a3d 16eb e93c
00000240: 16c5 863d 6132 113d 06ff 9f3d 287d fc3d
00000250: 1573 803d 9047 133d 6178 d2bc 09c5 a63a
00000260: 03f7 a6bd 0218 62bd d203 c5bc 4d60 20bc
00000270: 0a7a bebc 268c a83c 47f4 be3c a59a 943d
00000280: f499 3c3d d072 a93d d4b2 353c bf37 0e3c
00000290: ed2e 9fbc c705 58be 4b29 22be 49da f7bd
000002a0: 4f5c dcbd 9da1 cabd 1e70 1bbe 1f25 d9bd
000002b0: 85db 07be aab8 b4bd 2f84 aebb 415d bcbd
000002c0: f94f 07be 0640 98bd 704d c5bd 6b10 fabd
000002d0: 594d b8bc 4d4b 99bd 52c6 a5bd 8e66 f4bd
000002e0: 303f 46bd a7b4 b43d 5e0e 413d 350f 51bd
000002f0: 85d2 49be f88a bbbc ad03 0dbe 2ba8 49be
00000300: 25dc 293d 2d33 46bd dcfb 71be 753e 5ebd
00000310: c9ad c0bd 3ea8 d0bc 4863 7dbc aa0b 83bb
00000320: 5152 fcbc 2bf4 1b3d c60a 053e 7cda 8a3c
00000330: 6a96 f9bc d863 e4bd 9c7b 7bbd ad0c 10be
00000340: cdc3 66bd 76c3 73bd ce5a 833d 49a6 b53d
00000350: 696b b53d a027 ce3d 03cc 253c 5866 093b
00000360: 94a6 443d 4a2d 5d3c 7f2f b23c f752 05bd
00000370: e63c 3ebd 4480 20bb 9623 a7bc 59f5 86ba
00000380: 8983 43bc bd4a 3fbd 6edd feba 93c5 69bd
00000390: 3a37 62bc f416 85bb f29d 9ebc eafd 5cbd
000003a0: b460 d3bc 567a 9ebc 1407 c13c 3a03 b4bb
000003b0: dcb5 dcbb 3d46 edbc 3dfa 1e3d f464 d63c
000003c0: 5260 7b3d ec5c 043d 47cf d33d a2e5 9b3d
000003d0: d888 823d 4c91 cd3d b75b 493d 8c91 ba3c
000003e0: b377 f43c dfc9 6a3d c615 543d e202 88ba
000003f0: ef3f 04bd a059 bfbc 9387 abbd 321a f93c
0.030992908 0.0019757468 0.027216602 -0.10439777 -0.14047515 -0.039757647 -0.051873725 -0.011189596
-0.049114734 -0.045769207 0.012135172 -0.026066389 0.061110623 0.044242628 0.007334245 -0.08379278
-0.03667698 -0.10887777 -0.13798456 -0.13950524 -0.0647075 -0.06704944 -0.041613176 -0.08386132
-0.095076986 -0.06818948 -0.107995965 -0.119569145 -0.0678919 -0.13373293 -0.039876692 -0.15170151
-0.14145014 -0.08589845 -0.100014955 -0.072701864 -0.05529948 -0.008300202 0.010996906 0.09805495
0.056701403 0.07015622 -0.059608586 -0.0007877349 -0.08444859 0.012141364 -0.046001446 0.046675943
0.004887147 0.013844288 0.050501294 0.03858303 0.06674183 -0.04179581 0.051826287 0.0016326885
-0.021994734 -0.019356636 -0.0007499723 -0.03803659 -0.05243313 -0.053654328 -0.029031668 -0.05838668
-0.037519366 -0.021874474 -0.049383122 -0.03457791 -0.032347336 -0.04992914 0.0006041079 -0.029988665
-0.041728284 -0.048794847 0.030642185 -0.03886604 -0.06416104 0.030018475 -0.012751311 -0.047224067
-0.03270197 -0.086190164 -0.06896283 -0.015387201 -0.018339531 -0.05467965 -0.08258423 -0.077479824
-0.035862163 -0.08192293 0.050946668 0.04934478 -0.018755194 0.009267006 0.049222376 0.04425383
0.00451161 0.049246594 0.067139015 0.050605386 0.06775491 0.006724684 0.03500207 0.009700321
0.020935193 -0.06588255 -0.019345395 -0.0021438268 0.00422557 0.03214214 0.031404607 0.058032982
0.118291 0.089976005 0.061143022 0.051145043 0.06226344 0.006858628 0.0010694382 -0.010815401
0.010836215 0.0463026 0.004594209 0.06232312 0.0032948 0.011165558 0.0025535973 0.037942052
-0.026087876 -0.04016821 -0.037628844 -0.02609117 0.00913533 0.0019504771 -0.017358989 0.06512478
0.04724832 0.05369639 0.012759453 0.003998902 0.036605116 0.09700868 0.061195146 0.02855448
0.0658056 0.035448436 0.07812314 0.12328559 0.0627195 0.03595692 -0.025692167 0.0012723516
-0.081525825 -0.055198677 -0.024049673 -0.009788585 -0.023251552 0.02057464 0.02330984 0.072560586
0.04604526 0.08273852 0.011089999 0.008680283 -0.019431556 -0.21095954 -0.15836065 -0.121021815
-0.10759794 -0.098941065 -0.15179488 -0.106027834 -0.13267334 -0.088242844 -0.005325816 -0.09197474
-0.13214101 -0.074340865 -0.09633911 -0.12210163 -0.02249782 -0.074850656 -0.08094467 -0.11933623
-0.048400104 0.08823519 0.047132842 -0.051039893 -0.19709213 -0.022893414 -0.13770933 -0.19693057
0.04146971 -0.04838865 -0.23631233 -0.054258782 -0.09408147 -0.02547085 -0.015465565 -0.003999193
-0.03080097 0.038074654 0.12992391 0.016949885 -0.03046723 -0.11151856 -0.06139718 -0.14067335
-0.056339074 -0.059512578 0.06413804 0.08869607 0.088583775 0.100661516 0.010119441 0.0020965543
0.048010424 0.013499567 0.021751164 -0.032549825 -0.046444796 -0.0024490515 -0.02040271 -0.0010296508
-0.011933216 -0.046702135 -0.0019444653 -0.057073187 -0.013807112 -0.004061574 -0.019362424 -0.05395309
-0.025802948 -0.019345444 0.023562945 -0.0054935487 -0.0067355465 -0.028964156 0.038812865 0.026171185
0.061371155 0.03231518 0.103422694 0.07612158 0.06373757 0.10037479 0.04915973 0.02277448
0.029842233 0.057321426 0.051778577 -0.0010376836 -0.032287534 -0.023358166 -0.08375468 0.030407999

weight f4 [32]
00000000: 3ddd 903e f645 723f c3c4 263f 1113 a33f
00000010: 6eee 943f d3a4 133f ca8f a13f 3d29 733f
00000020: 8e19 403e 5c33 ab3f bd6f 1c3f f255 4d3f
00000030: 63b6 8a3f e585 7f3f 4b37 8c3f eefa 8a3f
00000040: 7336 503f dc9a 553f abe0 093f cd65 b93e
00000050: 6bd2 a23f fa3c 733f 9cca 923f 8607 443f
00000060: b611 5d3f 222c 593f 446b 1a3f fcc9 623f
00000070: 07a7 ad3f e97d 1b3f bd5f 4e3f 27c5 013f
0.2829379 0.94638 0.65143985 1.2740194 1.1635263 0.57673377 1.2622006 0.949848
0.18759748 1.3375049 0.61108 0.8020927 1.083691 0.9981368 1.0954374 1.0857828
0.8133308 0.8343942 0.5385844 0.3621048 1.2720464 0.9501492 1.1468081 0.7657398
0.8635515 0.84832966 0.60319924 0.88589454 1.3566598 0.60739 0.80614835 0.50691456

bias f4 [32]
00000000: b569 693c 91f3 efbd 60f6 a6bc 9cfd c4bd
00000010: a963 8bbd 3683 0abd 544e 72bd 0881 06be
00000020: 463a 593a 8262 28be 34c7 16bd d118 7abd
00000030: 575c 27be 70c8 e2bd cd95 a3bd 7818 00be
00000040: 2533 12bd 5bed 98bd 3e48 98bc 86b1 8c3b
00000050: a929 aabd d476 8ebd 6b2d 9ebd 7ce7 19bd
00000060: 0d20 15bd 74fe 20bd af05 433b 03c0 35bd
00000070: dfcb 2dbe 52de 123b 7dfc 14bd eef0 22bb
0.014246394 -0.117163785 -0.020381153 -0.09618685 -0.06806118 -0.03381654 -0.05915673 -0.13135159
0.00082865765 -0.16443828 -0.03681107 -0.061058823 -0.16343819 -0.11073387 -0.079875566 -0.12509334
-0.035693306 -0.07467147 -0.018589135 0.0042936234 -0.08308727 -0.069562584 -0.077235065 -0.037574276
-0.03640752 -0.039305165 0.0029758026 -0.04437257 -0.16972302 0.0022410345 -0.036373604 -0.0024862844

running_mean f4 [32]
00000000: fd87 21be 4391 27bd 3c26 17bc 6747 073b
00000010: fa10 263e 7870 233d b484 8a3e d3dc 8a3d
00000020: ad68 c6bd d086 493e 2fa3 dd3b 33e1 633d
00000030: 12fd 753d 27b9 063d 5e36 753d 3355 bc3d
00000040: 5192 07bc e617 d93b 77b6 93bd efdf 393e
00000050: 815c 903c 51a1 a53d 2f0a 933e 583d 0fbc
00000060: 53f2 5abe a6c8 0bbe 4851 3abd 3bea 29be
00000070: 989a 2b3e c7d7 883d 092e 31be 25d7 33be
-0.15774532 -0.040910017 -0.009225424 0.0020641924 0.16217414 0.03990218 0.2705437 0.067804
-0.09687934 0.19680333 0.0067638378 0.05563469 0.0600558 0.03289142 0.0598663 0.09195938
-0.008274631 0.0066251634 -0.07212537 0.1815183 0.017622234 0.08087409 0.28718707 -0.008742653
-0.21381502 -0.1365076 -0.045487672 -0.16593258 0.16758192 0.06681781 -0.17302717 -0.1756254

running_var f4 [32]
00000000: 44ad 923f 972c 9f3f 39bf c23f ce14 903f
00000010: fe38 983f caa7 583f 082f ab3f 5707 6d3f
00000020: e13b 9c3f 4c32 a93f d5d7 823f a03e 783f
00000030: 6cc7 8e3f 797a c93f bdda ad3f 763e 9b3f
00000040: 81a5 9a3f bdd5 393f ed7a 793f 8f30 903f
00000050: 9de0 973f 5642 783f 19fd 7f3f f8a2 8d3f
00000060: e134 9c3f 6782 9c3f 2fdb b13f ff07 863f
00000070: e124 e03f fdb8 833f d3bd 613f 791b 8f3f
1.1459126 1.2435483 1.5214607 1.1256349 1.1892393 0.84631026 1.3373728 0.92589325
1.2205774 1.3218474 1.0222117 0.9697056 1.1154609 1.5740501 1.3582379 1.2128437
1.2081758 0.72591764 0.97453195 1.1264819 1.1865422 0.9697622 0.9999557 1.1065359
1.2203637 1.2227296 1.3895015 1.047119 1.7511255 1.0290829 0.88180274 1.1180259

weight f4 [2, 736]
00000000: f9b3 acbe 5028 19be b35b 34bc 26be b7bb
00000010: 7880 5cbd b2ac f83b 9135 863d 2217 a2bb
00000020: a65c 353d 473e cb3d 0931 a3bd d446 b23d
00000030: fb13 d83d 0d26 d6bd be5c d03c 4f45 573e
00000040: 53ee 813d 0810 2d3e 12da e03d 4d38 f73d
00000050: 6d0c cabd d6c0 14bd 8dc9 603d f9a7 f83d
00000060: d321 c7bc e26a c03d db84 e4bd 50c3 b63c
00000070: 839a 44be c4b0 e43d ca1a 02bd 27f7 83bd
00000080: 7987 04be 16cd 9a3c e0c5 07bd a42b 35bd
00000090: a812 9cbc c2c9 aabd 7c1c b13c afde 83bc
000000a0: 0999 033d dda8 f9bd 9187 7dbd 6e5f 3f3d
000000b0: 9c11 9dbd 1c58 863d de77 033d 7b32 3e3d
000000c0: e1c4 b4bb 686f 113e 3ff4 1e3d 5096 a2bb
000000d0: 77f8 0fbc f47f 893c c02c f5bc b566 53bd
000000e0: 2694 e53b 6134 90bd 39bb 7c3d 506f b23d
000000f0: bb51 223d c39f c0bc 2997 bf3c 378b 28bd
00000100: 46be 333c e83a cb3c f237 01be c637 a7bd
00000110: 4345 a4bc c360 813e cecc e0bc c971 1cbd
00000120: 6a1a 64bd 78aa a0bd 26ce 0dbd b887 cbbd
00000130: 76a9 0dbe ccf6 65be fa41 11bc e008 ffbd
00000140: affb 87bc d2b0 4fbe 0506 0b3d 0bf7 81bd
00000150: 003c 14bc 219a ef39 2b21 cf3d 820c 98bd
00000160: 1013 15be daa1 083d 3703 9d3c 0848 d4bd
00000170: 6e84 c23d c106 193d d240 093d 3b9d a33c
00000180: a1d7 8a3d 5cf6 1e39 6f73 2bbd 62e2 41bc
00000190: 25db 353d 7837 5abd 112d 75bd 10b1 053b
000001a0: f97b 483c 0d7f 243c 89f1 dc3d a3c6 90bd
000001b0: 42d7 fd3d 61d1 a33c 55c6 153d d582 f6bb
000001c0: 95bb 6fbd ad77 de3c 2640 12be 1bd1 24bd
000001d0: ab99 a53d 3bbe c2bd 3ddb 43be 9375 563d
000001e0: 83cf cebd e96d e23d 5eb7 a0bc f9c4 9abd
000001f0: cc40 7e3d a704 d83c 706b b33c c5d0 073d
00000200: 1f6d 21be 06d0 403d 781c d8bd c2a7 82bd
00000210: 9b1e acbc 20ec a9bd 381e 58bc e581 953d
00000220: 15ab 413d 391f 93bd ed89 81be a222 a7be
00000230: 7192 bdbd 50b5 9fbc 9e25 82bd 3f28 29bd
00000240: fcbc 92bc e5c9 943d e88b 57bd f256 623d
00000250: 7240 813d d7ee a73c 9468 893d 7030 d1bd
00000260: 5079 c93d 089d ecbc 0d6c 723d 4460 94bd
00000270: cbfe 9cbc a256 433d 3fdc a4bc 9b3c 0e3d
00000280: be48 debd 9a95 893e 41c8 be3d c263 60bd
00000290: 316d cb3c f7cd 5c3c 0a9a 49bc 99bd 753d
000002a0: 1fd3 a73c 44bc 03bd 8b34 33bd eede 93bd
000002b0: e8fa a53d dd79 06bd 24f4 58bd 3a70 54bd
000002c0: dbd5 cdbd bb5f 213d 5886 49bc 04e5 e8bc
000002d0: a699 2e3d 1f1f 393d 24c2 10bd 89a3 19be
000002e0: ca94 b0bd 78eb 32bd 7f8a 0e3e f7b5 f53d
000002f0: e706 86bc 20fe 463c 801f 103e d4f1 47bd
00000300: c35f f23d f0f7 17bd 28ee 0ebe 154a 52bb
00000310: cb6f b7bd 759d e9bc a480 81bd 0c0c 8a3d
00000320: 4c7d fabd 3eda 3fbe e829 dc3d 27ef 80bd
00000330: 1527 883d e66d c63d df09 c83c 9b7e 0d3e
00000340: 08d0 d63d ca82 eb3d 6a4a 913d 0876 0d3d
00000350: 1c0d cebc 2289 093d 392e 56bd 3025 023c
00000360: 9e01 f5ba 4096 abbc 6f28 23bd b287 2c3c
00000370: 2e85 c7bc ee11 30be 652e ecbc b9fc 2dbc
00000380: d0c3 a63d e6da 54bd 8243 b33d d847 203d
00000390: c5ed 0bbd c826 d43d 8551 333e 5b58 02bd
000003a0: ed34 993d c501 963d c946 b6bd 6e25 8ebd
000003b0: 30ee 43bd 34fd 9fbc ee72 9ebd 896c 853d
000003c0: f7e1 edbc a398 1f3c 3b83 24be f240 133e
000003d0: e60e dc3d 9a31 1abe 6e86 a33d 0af2 04bd
000003e0: 6a7b 85bb 29ea 113c 9e1c 8fbd 7e6c a9bd
000003f0: 6649 083d 8d39 033e c0d8 763d b8ae 3a3e
-0.33731058 -0.14956784 -0.011008191 -0.0056073843 -0.053833455 0.0075889463 0.06553186 -0.0049466053
0.04427781 0.09923988 -0.07968337 0.08704916 0.10550686 -0.10456476 0.025434848 0.21022533
0.06344285 0.16900647 0.109790936 0.120712854 -0.09865651 -0.036316715 0.054879714 0.12141413
-0.02430812 0.09395386 -0.11158153 0.02230993 -0.19199567 0.11166528 -0.03176383 -0.06443625
-0.12942304 0.01889662 -0.033147693 -0.044231072 -0.019051865 -0.083392635 0.021620028 -0.016097395
0.032128368 -0.12190411 -0.061896864 0.04672187 -0.07669374 0.06559774 0.032096736 0.04643486
-0.005516634 0.14202654 0.03880715 -0.0049617663 -0.008787266 0.016784646 -0.029928565 -0.05161162
0.007006186 -0.070412405 0.061701987 0.087126374 0.039628725 -0.02351368 0.023387508 -0.04114839
0.010970658 0.024808362 -0.12618998 -0.08164935 -0.020052558 0.25269136 -0.027441408 -0.03819445
-0.055689253 -0.07845014 -0.034620427 -0.09937996 -0.13834175 -0.22457427 -0.008865828 -0.12452865
-0.016599504 -0.20282295 0.033941288 -0.06345948 -0.009047508 0.00045700467 0.10113748 -0.07424261
-0.14558053 0.03335748 0.019166572 -0.10365301 0.09497915 0.037359957 0.033509083 0.019972434
0.06779409 0.0001515983 -0.041858133 -0.011833759 0.044398446 -0.053275555 -0.05985743 0.0020399727
0.012236589 0.010040057 0.10788257 -0.07069137 0.12394573 0.0199973 0.036566097 -0.0075229206
-0.0585285 0.027156675 -0.14282283 -0.04023848 0.080859505 -0.0950894 -0.19126602 0.05235822
-0.100981735 0.1105612 -0.019618686 -0.07557101 0.062073514 0.026369406 0.021901816 0.033158083
-0.15764283 0.047073387 -0.10552305 -0.063796535 -0.021010688 -0.082969904 -0.013190798 0.07300166
0.047282297 -0.071836896 -0.25300542 -0.3264361 -0.09256447 -0.019495636 -0.06354831 -0.041298147
-0.01791238 0.07265071 -0.05262366 0.0552587 0.0631112 0.02049963 0.067094 -0.10214317
0.09837592 -0.028883472 0.059185077 -0.07244924 -0.019164464 0.04769004 -0.020124553 0.034725767
-0.10853718 0.2687195 0.09315539 -0.054782636 0.02483234 0.01347684 -0.012304792 0.059995268
0.020486413 -0.032161966 -0.04375128 -0.07220255 0.08104497 -0.03283106 -0.052967206 -0.05186484
-0.10050555 0.039397936 -0.012300096 -0.028429516 0.042627 0.045195695 -0.035341397 -0.1500379
-0.08622129 -0.04368159 0.1392002 0.11997598 -0.016360713 0.012145549 0.14074516 -0.04881461
0.11834671 -0.037101686 -0.13958037 -0.0032087613 -0.0895687 -0.028517464 -0.063233644 0.06740579
-0.1223093 -0.18735597 0.107501805 -0.06295615 0.06648079 0.0968893 0.02441877 0.13817827
0.104888976 0.114995554 0.070942715 0.03453639 -0.025152735 0.033578046 -0.052290175 0.0079434365
-0.0018692499 -0.020945668 -0.039833482 0.010530399 -0.024355497 -0.1719434 -0.028830716 -0.010619336
0.08142817 -0.05196657 0.087531105 0.039131016 -0.0341623 0.103589594 0.17511566 -0.031822544
0.07480798 0.07324556 -0.0890022 -0.06940733 -0.047834575 -0.019529916 -0.07736765 0.06514842
-0.029038412 0.009740981 -0.16065685 0.14380243 0.10745029 -0.15057984 0.07984625 -0.03245739
-0.00407355 0.008905926 -0.0698788 -0.08272646 0.033273123 0.12814923 0.060265303 0.18230712

bias f4 [2]
00000000: 6c4d 313c 9c9f 38bd
0.0108216815 -0.04507409
