HW2/ELU_DeepConvNet.pkl (torch_old, 637289 bytes, 28 tensors)

weight f4 [25, 1, 1, 5]
00000000: d6bc ddbd dd01 ac3c 1715 c9bc 035d a23e
00000010: eaaf 6e3e 836d 8e3a 0b3d 6cbe d0a6 833e
00000020: 11aa 76be 1c7a 82be 35b5 123e 4087 a3be
00000030: 8353 993d 4690 d1bc ed49 cd3d 309c 0fbe
00000040: 816b 943e dbf6 93be faf3 edbe 6840 063f
00000050: 0007 94be 61b0 de3e 0752 cfbc 96ea f6be
00000060: ca8e b43e e978 cabe b723 ea3d afb5 983e
00000070: 5fc4 15bd bf6e 5a3e ac3a d93d db99 8a3d
00000080: 44f5 bcbe 439f f73d 6ca1 083d b354 82be
00000090: 5159 18be c45b 973e 7833 cd3e cef6 ffbd
000000a0: d22d 333e 583b 363e ee03 863e bbed 90be
000000b0: ea4a b0be dc9c a63e 0b5a f8be 60e7 2e3e
000000c0: f3ab 893e 0729 98be 920c be3e 23b1 e2bd
000000d0: d2da 323e 68ca a73e fc81 86be 275f 8abe
000000e0: 7d79 6f3e c0f3 593d eb62 c5be b78b 9c3b
000000f0: b35f e33e 8678 5cbe 34ad fcbc 8dae a63e
00000100: 8851 9b3e d747 4b3d 8317 69be 9705 49be
00000110: bdc0 873d cb6f 99be 62ac 6d3d 1e38 363e
00000120: 0ae6 37be 9eb2 7bbe 3de8 20be 70c6 163c
00000130: a3cb 183e ee29 1f3e 926a 50be 5b1c 16bd
00000140: 1556 e1be 0bae b93e ec28 d93c 42d0 55be
00000150: 3c95 953e a62c 0c3d 2da9 08bf 76b5 20bd
00000160: 09a9 9c3e e5dd 8e3e 596b 6d3e b5e2 b73e
00000170: 5424 54be 55dc 92be f8d7 013e d208 9abe
00000180: b2b2 6dbd 5f16 e7bc 5dbc 483e 8cc1 c1be
00000190: 9de6 b7be 8491 973e b1ff c53e c44c 3ebe
000001a0: 0e46 babe 7f68 853e f61b babe e499 523e
000001b0: 62a3 ce3e 8d5f a3be b6c4 b439 2c88 c33e
000001c0: e98a 56be 81e4 f73d e77c 9abe fd75 edba
000001d0: 333e 67be 5d76 dbbe cdbb f23e 262c af3e
000001e0: aa48 c93e 009e 00be 4233 003d 81d6 243e
000001f0: 0b43 36be
-0.10827033 0.020996982 -0.02454619 0.31711587 0.23309293 0.0010866377 -0.23070161 0.25713205
-0.24088313 -0.25483787 0.14326937 -0.31939125 0.07486632 -0.02558149 0.10023866 -0.14024425
0.2898827 -0.28899273 -0.46475202 0.52442026 -0.2891159 0.4349394 -0.025307668 -0.4822585
0.3526519 -0.39545372 0.11432593 0.29826114 -0.036564227 0.21331309 0.10606894 0.06767627
-0.36905873 0.12090924 0.03335707 -0.25455245 -0.14877822 0.295622 0.4007833 -0.12498246
0.17497948 0.17796075 0.26174873 -0.28306374 -0.34432155 0.3254155 -0.48506197 0.1708045
0.26889 -0.297188 0.37118965 -0.110689424 0.17466286 0.3277161 -0.26271045 -0.2702572
0.23386188 0.053210974 -0.3855203 0.0047773975 0.4440895 -0.21530351 -0.030844308 0.32555047
0.3033564 0.04962906 -0.22762875 -0.19631039 0.06628559 -0.29968104 0.058025725 0.17794845
-0.17958847 -0.24579856 -0.15713592 0.009202585 0.14921431 0.15543339 -0.20353153 -0.036648136
-0.44010988 0.36265597 0.02650877 -0.20880225 0.2921542 0.034222268 -0.5338314 -0.039235555
0.30597714 0.27903667 0.23185481 0.3591515 -0.20716983 -0.28683725 0.12680042 -0.30084854
-0.058031745 -0.02820891 0.19603105 -0.37842977 -0.3591813 0.29603207 0.3867164 -0.18583971
-0.36381572 0.26056287 -0.36349458 0.20566517 0.40359026 -0.31908837 0.00034478836 0.38189828
-0.20951428 0.121041305 -0.30173418 -0.0018116828 -0.22582321 -0.42863742 0.47408906 0.3421337
0.3931325 -0.12560272 0.031298883 0.16097452 -0.17799012

bias f4 [25]
00000000: 90e6 60be 77d3 cabe fcb4 aebe 2f91 a1be
00000010: 1c07 acbd 0ce6 7dbe 32e5 44be d39e 873d
00000020: 7a12 9a3e c963 dfbd eae7 34be 6fcf 983c
00000030: cf55 79be 8d11 b8be 2d9f 04be 1bdc 9b3c
00000040: 9c1d e4be 3ea6 d53e 267b cf3e 1641 eb3c
00000050: c43e 89bd 5578 b6be 2ee1 533e fd94 46be
00000060: 80f2 d8be
-0.21962953 -0.3961446 -0.34122455 -0.3155608 -0.083997935 -0.24794787 -0.19228056 0.0662209
0.30092221 -0.109077044 -0.17666593 0.0186536 -0.2434914 -0.3595089 -0.12951346 0.019025853
-0.4455384 0.41728395 0.40523642 0.028717559 -0.06701425 -0.3563868 0.20691368 -0.19392772
-0.42372513

weight f4 [25, 25, 2, 1]
00000000: dba1 14bc e850 fe3d 2299 46bd 997b d13d
00000010: db92 8ebc d038 b3bd 4ede 2cbe 8925 cfbd
00000020: a014 e3bd 72c9 88be 5279 28bc 31e5 df3d
00000030: 7bd3 033d 4d68 07be 0d37 cc3d aad3 a13e
00000040: 95f8 153e d3af 48bd 774e dfbd fdfb 5a3e
00000050: fd82 ed3c 5244 873d 49ff a3bd 8480 06bd
00000060: 7676 d03d ffeb 54bd f94e fc3d 2774 e83b
00000070: bee4 053d 6b44 f4bd c329 b3bd 0c66 a2bd
00000080: dcbc 8e3a 50e8 593d 2d0d 01be eb50 56bd
00000090: 6b9d b93d 69a9 82be ba7e cdbd 3e12 9b3d
000000a0: 9e5f a53c 7e29 473d d0cd d3bd eb9f 6c3d
000000b0: e368 9c3d e977 15bc bec7 533d 6fd0 af3d
000000c0: 9549 44bd 4c63 bf3c ca7b ad3d 51bd f33d
000000d0: 42c0 093e a774 5cbd cebb 19bd 1050 8a3e
000000e0: 20fd cbbc aeea 9c3d b3b5 0b3e fe71 74be
000000f0: a723 5abd b720 a3bd dbd5 e1bd 46bb 8c3e
00000100: 29bb c53c 521e dbbd 98b5 713d 5a18 143c
00000110: d285 6c3c 67ff 483e c1cc e13d c08f 57bd
00000120: 77e6 67bd db04 9b3c 2698 9a3c 7626 da3d
00000130: 5058 c83d d202 2fbd 206d ff3d 8a92 dcbd
00000140: 369d bd3b cbeb 44be 7a4c 16be a482 80bd
00000150: 9599 f8bd da04 003e 2558 66bd 72c8 3bbc
00000160: 83db 1a3c 469c 103d 58e3 e4bd 1ec0 0fbe
00000170: affe 21bc b35a 873c 484a babc 306e 8fbc
00000180: d1ba 26be 0d54 b63d 1402 88bd 4f0f 80bd
00000190: 4179 d73d 4818 a03d 5384 74bd b007 d53d
000001a0: 3742 113d 7612 c73d 2bf5 073d a084 17be
000001b0: b637 84bd 9ae7 0b3d 0f8d 1bbd d29e f93d
000001c0: 78b3 19be a365 2cbe b3cd ad3d 4e6a d73d
000001d0: 10f5 afbd 42ba 2bbe b4b5 e3bd 8bd2 10bd
000001e0: a65b f2bd dce7 9c3c 7710 a03c 3a02 fbbc
000001f0: 315b f8bd 957e 7a3d 1a54 d33d 6958 99bb
00000200: f0ab d5bd 6ce3 f9bd 496d 833c 91b3 ba3b
00000210: 8ee6 2fbd 31e9 f43d 267a 233e 2e6c 2a3e
00000220: fc9d 08bd da1f 00be dfd2 b7bd bd10 573d
00000230: 57ea 3c3c 5bd8 aebc 063c 103e 8b4d 8fbd
00000240: 76b1 b1bd ef7f 75be 25c1 dcbd 0380 ed3b
00000250: ad19 00be fe1d 0c3c cb42 49be 29a2 a8bb
00000260: 49b1 0e3e f5d0 293b fc27 d3bd 28d1 2f3c
00000270: 3636 4b3d a365 43be 895b 0bbe 6b64 1fbd
00000280: 5f8b 94bd 981a 33bd 8f68 5c3e 451d b63d
00000290: 7868 82be 24b7 b43d d874 d1bd 279e 99bd
000002a0: 650f d83c 38cd 373e 154a cabb 6e61 133e
000002b0: f83a b53d 9d73 a0bd 40eb 34bc fe28 363d
000002c0: b97f a2bc 6221 c33c b625 393e fa04 95bd
000002d0: 9251 a6bd ca2f a83d cb3f 17bd 709a 8dbd
000002e0: 66f1 1cbd 7b62 833d 4627 913d d493 073b
000002f0: bbbb a6bd d15a 5abd 427d c4bc 7e24 1a3e
00000300: 1631 a73d 45e2 45bc ea35 193e d728 ac3b
00000310: 97e1 303d 4367 fcbd 80f5 debd a318 bf3d
00000320: 1967 eb3d 99c1 f3bc b6ac 4a3d 8385 2ebe
00000330: 4c31 313e 48cf 793c 86fb 36be 45d9 403e
00000340: c916 a9bd 1eb1 b83d 7a28 8ebc 1240 0ebc
00000350: 2ef7 2dbe 8108 48bd 23c0 0d3e a0d5 b43d
00000360: 53df 103e e215 45bd 0f07 f23d d1cb 1ebd
00000370: 4759 a73d 8843 063e 38e3 15be 84f7 01be
00000380: 0913 f6bd 48a7 1ebd df85 0f3e 667d 63bb
00000390: 9fba 8b3d 319b b1bd 2adc b5bd 87ba 4f3d
000003a0: 8889 e8bd 917e c43d 3f3a f9bb eda6 183e
000003b0: 31a8 1fbe 299d 0b3e 9c6c 1b3e 09dc 48bc
000003c0: 1ae6 a23d f683 6e3c 33cf 2b3e a8e4 f4bc
000003d0: f670 06bd 8c3a b8bd 94d9 cbbd 5fa4 843d
000003e0: 6f51 a6bd fbbb 68bd 956a aa3d c9a1 f53d
000003f0: 4829 29bd 0a4f 1cbe dcf9 b83d 3e0a cebd
-0.0090717925 0.124177754 -0.048485883 0.102286525 -0.01740401 -0.087510705 -0.16881678 -0.10114581
-0.11087918 -0.2671619 -0.010282831 0.10932387 0.032184105 -0.13223381 0.099714376 0.316068
0.14645608 -0.048995804 -0.10903638 0.21385188 0.028993124 0.06604828 -0.08007676 -0.032837406
0.10178845 -0.051982876 0.1231975 0.0070939246 0.03268885 -0.11927112 -0.087482 -0.0792962
0.0010890025 0.053200066 -0.12602682 -0.052323263 0.09063228 -0.25519875 -0.10033937 0.07571839
0.020187195 0.048623554 -0.1034199 0.057769697 0.07637193 -0.009122827 0.05170416 0.085846774
-0.047921736 0.023362778 0.084708765 0.119013436 0.13452247 -0.053822186 -0.03753262 0.27014208
-0.024900973 0.07661949 0.13643532 -0.2387161 -0.053256657 -0.07965224 -0.11027118 0.27486628
0.024137096 -0.106991425 0.059011072 0.009039009 0.014436202 0.19628678 0.11025382 -0.052627325
-0.056616273 0.018923214 0.018871378 0.10651867 0.09782469 -0.0427273 0.12471986 -0.107701376
0.0057865633 -0.19230573 -0.14677611 -0.06274918 -0.121386684 0.1250185 -0.056236405 -0.011461364
0.00945175 0.035305284 -0.11176175 -0.1403813 -0.009887381 0.016522741 -0.022740498 -0.017508596
-0.16282202 0.0890275 -0.06641021 -0.0625292 0.10521174 0.07817131 -0.059696507 0.10401857
0.035463538 0.09720318 0.033192795 -0.14796686 -0.064559385 0.03415642 -0.03797632 0.12188496
-0.15009868 -0.16835646 0.084865 0.10518323 -0.08591664 -0.1677027 -0.111186415 -0.03535704
-0.11833887 0.019153528 0.019539101 -0.03064071 -0.121267684 0.061155874 0.103187755 -0.0046797288
-0.10433185 -0.122015804 0.016043322 0.0056976755 -0.042944483 0.1195854 0.15964565 0.1664283
-0.03335379 -0.1251215 -0.08975767 0.052506197 0.01153048 -0.0213434 0.14085397 -0.06997212
-0.08676426 -0.23974584 -0.10779027 0.007247926 -0.12509795 0.008552073 -0.19654386 -0.005146284
0.13934816 0.0025911902 -0.10310361 0.010731019 0.049612246 -0.1908174 -0.13609137 -0.038914125
-0.072531454 -0.043726534 0.21524261 0.088923015 -0.25470328 0.08823994 -0.10227364 -0.07500868
0.026374528 0.17949378 -0.006173382 0.14392635 0.08849138 -0.078345515 -0.011042416 0.044472687
-0.019836294 0.02381963 0.18080792 -0.0727634 -0.08121027 0.0821224 -0.036926072 -0.06914222
-0.038316153 0.06415268 0.07087569 0.0020687478 -0.081412755 -0.053309266 -0.023985509 0.15052983
0.08163659 -0.012077873 0.14961973 0.005253892 0.04318389 -0.12324383 -0.10886669 0.09330871
0.11494274 -0.0297554 0.049481116 -0.17043118 0.17303962 0.015247174 -0.17869386 0.18832882
-0.08256299 0.090181574 -0.017353285 -0.008682268 -0.16988823 -0.048836235 0.13842826 0.08829808
0.14147691 -0.048116572 0.118177526 -0.038768593 0.08171325 0.13111699 -0.14637458 -0.12692076
-0.120153494 -0.03873375 0.14015912 -0.0034712194 0.068227045 -0.086721785 -0.088798836 0.050714996
-0.11354357 0.09594453 -0.0076058204 0.14907427 -0.15591504 0.1363417 0.1517815 -0.012259492
0.07954045 0.014557829 0.16778259 -0.029894188 -0.03282257 -0.08995542 -0.09953609 0.06476664
-0.08121001 -0.056819897 0.0832111 0.11993749 -0.041299134 -0.15264526 0.09032032 -0.10060547

bias f4 [25]
00000000: 4971 0a3e c2a5 d7bd 5d6f f73d 0073 a93d
00000010: 3142 f5bd cdad 3b3d 0c68 ff3d 321d a53c
00000020: cf69 9d3d dffb f13c 40fb 493d e581 b03d
00000030: 48e5 f7bd 241b 31bd 27f4 e8bc caed ef3c
00000040: 48dd 16bd 9d21 823d 01cf 763d 37be b93d
00000050: 8671 c23d 3327 04be df91 693d 4903 26bd
00000060: 7a7f 0b3e
0.13519777 -0.10529663 0.12081788 0.08273888 -0.11975516 0.045820046 0.12471017 0.020155523
0.07686197 0.029539047 0.049311876 0.086185254 -0.12104279 -0.043238774 -0.028436733 0.029288191
-0.036832124 0.063540675 0.060256008 0.09069484 0.09494309 -0.12905578 0.05702388 -0.040530477
0.13622847

weight f4 [25]
00000000: 9949 903e 6ceb de3e 158a c83e aef4 b93e
00000010: 6829 2c3f 63e4 613f fd68 653f ab44 2f3f
00000020: 33f1 153f 4673 0d3f ef47 023f 891f 383f
00000030: 4cb1 db3e 00e5 5d3f 8062 b73e 858c 373f
00000040: 19e7 093f 9092 013f bae1 b33e 8a02 523f
00000050: 9187 063f b758 613f 8597 ec3e 8e82 603f
00000060: 8dc5 eb3e
0.2818115 0.43538988 0.39167848 0.36319488 0.6725068 0.88239115 0.89613324 0.68464154
0.58571166 0.5525402 0.5089101 0.7192312 0.42908704 0.8667755 0.35817337 0.7169879
0.5386825 0.5061426 0.35133153 0.82035124 0.5255061 0.88025993 0.4620935 0.8769921
0.46049157

bias f4 [25]
00000000: b2b3 09be bee9 1cbe 5dcb d5bd 1f16 a3bd
00000010: adae 6dbe d1ce a0be 1e20 70be 5679 5ebe
00000020: 191b 0fbe 47c7 45be aca8 6abe 39b5 6abe
00000030: 7706 21be 6733 6abe 59aa f6bd 709c 2cbe
00000040: b2d5 6cbe eec5 71be 2fa2 14be 8dd9 7dbe
00000050: 64ba bebd 1409 a7be 0840 34be 2e6c 6bbe
00000060: 59df 1fbe
-0.13447455 -0.1532354 -0.10439179 -0.07963204 -0.23211165 -0.31407788 -0.23449752 -0.21725973
-0.1397518 -0.193143 -0.22915906 -0.22920693 -0.15725122 -0.22871171 -0.1204421 -0.16856551
-0.23128393 -0.2361066 -0.14514993 -0.2479002 -0.09312895 -0.32624114 -0.17602551 -0.22990486
-0.15612544

running_mean f4 [25]
00000000: 88aa 543d 4cc1 50be 8ee2 ac3d 8af1 cc3d
00000010: 2d61 b3bd 3c81 d73c c2af c23d 720f ac3b
00000020: cc82 c13e 271d ae3d c652 d23a 0f44 31be
00000030: f873 433d 13e6 2ebd eb75 94bd de20 f83d
00000040: 20df 813d c5ed 67be f165 203e 399c 6a3e
00000050: 93cd 0a3e 171f 24be 2207 26bc ccd8 f3bc
00000060: 8ef5 593d
0.051920444 -0.20386237 0.084416494 0.100070074 -0.08758769 0.026306741 0.095061794 0.0052508647
0.37795103 0.08501654 0.0016046397 -0.17311119 0.04771802 -0.042699885 -0.072490536 0.12115644
0.06341386 -0.22649296 0.15663888 0.22911157 0.13554983 -0.16027485 -0.0101335365 -0.029766463
0.053212695

running_var f4 [25]
00000000: 68b6 a440 0516 2d40 aa14 2d41 cabc ad40
00000010: aa04 4a40 270b 3840 ff16 8f40 9058 3740
00000020: 3ac1 0341 4ec7 f63f 9e61 1440 b9fa 4540
00000030: 968b 6440 cfd9 4040 3359 6440 2ebd 4140
00000040: 9a2e b540 12af 5840 65d0 6940 51e3 b540
00000050: d4a5 8140 ce1b 1940 2102 9040 ad53 7440
00000060: cbea 2640
5.1472664 2.704469 10.817545 5.4292955 3.1565347 2.8756807 4.471557 2.8647804
8.234674 1.9279573 2.318458 3.093428 3.5710196 3.013294 3.5679443 3.0271716
5.6619387 3.3856854 3.6533444 5.6839986 4.0514927 2.392322 4.50026 3.8176072
2.6080806

weight f4 [50, 25, 1, 5]
00000000: 67b1 7dbc db49 a73d 9909 673d 3227 71bc
00000010: 100e e5bd fac3 19be 4b59 013d 8682 033d
00000020: 4f62 2e3d a2a6 a2bc 2377 1bbd 454f 833d
00000030: d590 5abe e7d9 1cbe 3e90 02be e61c 103d
00000040: 6dfc a33d dc01 333e 53ee 473e 98f8 8f3d
00000050: 416c 393d e0b8 193e 7885 55bd d319 02bc
00000060: cf4d 4d3d 2890 143e 8d2e bdbc 37ce 99bd
00000070: 1050 a9bd 5664 80bc fae9 333c 0928 9abc
00000080: c509 453d 381e bd3c 3868 733d 0622 14be
00000090: 6ba8 6a3c e061 ab3b b9e1 383d f8b6 a13d
000000a0: aae1 cabb 0d06 3e3d 88c1 d83b 6d3e 093b
000000b0: 1e5f 08bd 165e e93b 0743 d7bd b3b9 ea3c
000000c0: da01 2e3c dda0 76bb 9810 a53c fb4b 143d
000000d0: 732d 0dbb 017d 7bbd 93a6 a5bd 0ba9 f53b
000000e0: 506e efbd 57cb d6bd fa37 413d d2d8 543d
000000f0: 37ba e5bd 397f 123d 07f2 923d 0819 e6ba
00000100: be48 d1bd 76be 83bd 205c 793d 57c1 063d
00000110: 53af d63d c42a 7b3d 7082 e3bd 17a4 17be
00000120: d8e7 463d 2810 9cbd 4bf2 163d e408 14be
00000130: f56f a03c bf5c 383d b66f 103c f468 263d
00000140: bcb6 543d d72d 22bc 7441 f2bd dc2e acbd
00000150: e231 babd b3d6 92bd ce20 413d 5426 813b
00000160: d3cd eabc 8025 c5bd 5a8c f2bd 4908 6e3d
00000170: eb90 94bd 3555 efbd b077 f2bd 58de 0bbd
00000180: 7541 8abc 6973 9d3c de94 59bd ec41 20bd
00000190: f7d1 b3bd eb31 e03d 5892 a13d bb30 f03d
000001a0: a6ae 603d f9e2 cbbc 5456 95bd e197 4b3d
000001b0: 65b8 823c 3c6a 3dbd 188c 573c 5265 c5bd
000001c0: 9acb 1dbe 6524 fcbc db8a b93d 9362 2ebd
000001d0: b455 6cbb c177 853d 46e6 3e3d f4d0 983c
000001e0: 7e9f cd3b b9e8 61bd 0f5f 563d 308d e73c
000001f0: 5ac6 a5bd e610 843b f446 fd3d 6bc7 43bc
00000200: 39be 3b3c 476f b6bd ccab 5c3d 0525 c7bd
00000210: 2803 59bd d3db 4b3d 119d a0bd ddcf 393e
00000220: 5c5e 643e 056e 953d 3bbf 60bd 8934 43be
00000230: 5a3c f1bd 6f19 07be 02d1 9dbd 6703 983d
00000240: 4815 7f3d 811d e5bc b57d b13c d8d2 12bc
00000250: 0ec4 c63a cfd2 cbbc b8a7 843c 0102 023e
00000260: 65d1 f73c e834 ecbb 6ce1 2ebc b174 173d
00000270: 9a08 913d 4dce 593d beab 8b3d e91a d73c
00000280: 44d6 10bc 7aaf 02be d6df 04be b0c1 5d3d
00000290: d855 643d a799 f53c c900 c63c f8ff 243e
000002a0: 6383 9f3d 3c60 bc3b f60b efbb f6b6 26bb
000002b0: 208e b3bc 778b d4bd 531a c93d dd1f 013c
000002c0: 4e96 a8bd a192 193d 1aa6 0b3d 94e4 0ebe
000002d0: 5e1b be3b 938f a93d 8aec f43c d4f2 2abd
000002e0: 0919 b8bd 0897 823c 9361 06be 7e69 97bc
000002f0: 90d7 163e 6c58 b83d 81ef 1fba 7108 11bd
00000300: 9bf7 0d3d 2475 c4bc 3309 fc3c 1473 b83d
00000310: 32c0 e4bd 31d6 13bd 9afd 85bc 6744 aebd
00000320: 3d7d be3d 125b c7bd da6b 2dbd b7e1 203d
00000330: 50ce ed3a bb0d a83c f704 843c 6472 44bc
00000340: 1e34 14bd de6d ecbd b0fc d03b e498 5dbd
00000350: f4ad c7bd 14a3 5cbc 3777 b6bd 1920 28bb
00000360: 636a 14be 5fe6 20bc d704 8a3c 17e7 1fbe
00000370: 89c2 a9bc b8d0 58bc c354 bcbc 2d14 c23d
00000380: e815 d53c 5232 a0bc 5139 dc3c b859 9d39
00000390: 6f2f d03d ce6a b13c b0e2 87bd 0fe9 d3bd
000003a0: 6f2c a2ba b407 04bb 08af cf3d 1303 563d
000003b0: 434b e73d 2077 053d a7c1 31bd 65b4 f1bc
000003c0: d6fa 46bd f049 123c b0d5 133d c6d5 9dbd
000003d0: e825 fa3c 0470 d7bd 3beb 22be 03f4 0b3d
000003e0: 84eb 793d 05a5 073e 9198 60bd 65c8 82bd
000003f0: 98b2 293e ddbf 21be 3973 c03d 98a5 a2bd
-0.015484191 0.08168384 0.056405637 -0.014718818 -0.11184323 -0.15016165 0.031579297 0.0321069
0.042574223 -0.019854847 -0.037955415 0.06411604 -0.21344312 -0.15317498 -0.12750337 0.03518381
0.08007131 0.17481178 0.19524507 0.07029837 0.045269255 0.1501193 -0.05212924 -0.007940727
0.050123032 0.14508116 -0.023093486 -0.075100355 -0.08267224 -0.015672844 0.010981077 -0.018817918
0.04810502 0.023085698 0.059425563 -0.14466104 0.014322381 0.0052301735 0.04513714 0.07896227
-0.006191452 0.04639249 0.0066148676 0.002094175 -0.033293836 0.0071218116 -0.10510831 0.028653001
0.010620559 -0.0037632503 0.020149514 0.036205273 -0.0021541982 -0.06139851 -0.08088412 0.007496958
-0.11690962 -0.10488003 0.047172524 0.05196459 -0.11217158 0.03576586 0.07175069 -0.0017555067
-0.102189526 -0.06432812 0.060878873 0.032899227 0.10482659 0.06132008 -0.11108863 -0.14808689
0.048560947 -0.07620269 0.036852162 -0.14456517 0.019584635 0.045010325 0.008815696 0.040627435
0.05193208 -0.009898624 -0.118288904 -0.08407375 -0.09091546 -0.07169857 0.047150426 0.0039413366
-0.028662598 -0.09626293 -0.11843176 0.05811337 -0.072542034 -0.11686174 -0.11839235 -0.03414759
-0.016876915 0.01922007 -0.053120486 -0.039125368 -0.08780282 0.10947021 0.07889241 0.117280446
0.054854058 -0.024888502 -0.072918564 0.04970539 0.015957067 -0.04624389 0.01315596 -0.09638466
-0.15409699 -0.030779073 0.09059688 -0.042574476 -0.0036061825 0.06516982 0.046606325 0.018654324
0.0062751165 -0.055153582 0.05233675 0.028265566 -0.08094473 0.0040303348 0.12367049 -0.0119494
0.011458927 -0.08907943 0.053874776 -0.09723858 -0.052981526 0.049770188 -0.07842458 0.181457
0.2230162 0.07296375 -0.05486987 -0.1906301 -0.11779089 -0.13193296 -0.07705881 0.07422524
0.062276155 -0.02796817 0.021666387 -0.008961402 0.001516463 -0.024880795 0.016193256 0.12696077
0.030251214 -0.0072084554 -0.010673862 0.03697652 0.07081719 0.05317526 0.068198666 0.026257949
-0.008840147 -0.12762251 -0.12976012 0.054139793 0.05574593 0.029980494 0.024170296 0.1611327
0.07788732 0.0057487767 -0.007295127 -0.0025438643 -0.021918356 -0.10378163 0.09819474 0.007881132
-0.08231793 0.03749335 0.034093954 -0.13954383 0.0058016023 0.08279338 0.029897947 -0.041735485
-0.0898915 0.015941158 -0.13123159 -0.01848292 0.14730668 0.0900124 -0.00061010575 -0.03540844
0.034659963 -0.023981638 0.030766105 0.090063244 -0.11169471 -0.03609294 -0.016356278 -0.085091405
0.09301231 -0.09734167 -0.042339183 0.03927776 0.0018143151 0.02051436 0.016115649 -0.0119901635
-0.036182515 -0.11544393 0.006377779 -0.054100886 -0.09749976 -0.013466615 -0.08909457 -0.0025653897
-0.14493708 -0.00982055 0.016848011 -0.15615498 -0.020722644 -0.013233356 -0.022989636 0.094765045
0.026011422 -0.019555245 0.0268828 0.0003001222 0.10165297 0.021657374 -0.06635034 -0.10347187
-0.0012372861 -0.0020146193 0.101408064 0.052249026 0.11293652 0.03258431 -0.043397572 -0.029504964
-0.04857906 0.008928761 0.03609246 -0.0770679 0.030535653 -0.10519412 -0.15910046 0.034168255
0.06101562 0.13246544 -0.054833 -0.063858785 0.16572034 -0.15795846 0.09396977 -0.07941741

bias f4 [50]
00000000: 0e78 91bd f939 003d 1f85 35bd 5b53 d83c
00000010: 7105 c7bb a222 2dbd 6077 bfbc dcb0 82bd
00000020: c414 a6bd 1c67 f03c 6d46 82bc b587 583d
00000030: 2c30 493d 1900 e63c 6c62 93bd dff4 2bbd
00000040: 5645 4c3d ad45 29bd ab68 3d3c f152 0536
00000050: 0baa b8bd 8711 363d 0144 613d 088f 8b3d
00000060: 2364 86bd 1a02 75bb 1501 bbb6 b1ae f9bc
00000070: 43d8 b33d c2b0 14bd f23a 203d af38 33bd
00000080: 6312 3ebd 008a 443d 9909 b5bd 437f d6bc
00000090: c30c 0fbd 6b73 993c 768c 4fbc 72ed 80bd
000000a0: b70e a73d bb91 c1bc 4248 42bd 9240 563d
000000b0: fba3 5fbd d608 dc3d 9ce6 853d 4a7d ae3c
000000c0: 4b80 c83d 9cf6 82bd
-0.07102977 0.031305287 -0.044316407 0.026406934 -0.0060736467 -0.042269357 -0.023372352 -0.063813895
-0.081094295 0.029346041 -0.015902722 0.052863795 0.049118206 0.028076218 -0.07196507 -0.041981574
0.04987081 -0.041326214 0.011560599 1.9866823e-06 -0.09016808 0.04445031 0.054996494 0.068143904
-0.06562068 -0.0037385286 -5.5731603e-06 -0.030478807 0.08781483 -0.036301382 0.039118715 -0.04375523
-0.046404254 0.04798317 -0.08839721 -0.02618373 -0.03492428 0.018731793 -0.012667766 -0.06295289
0.081571035 -0.02362906 -0.04743219 0.052307673 -0.054599743 0.10743873 0.06538126 0.021299977
0.09790095 -0.06394693

weight f4 [50]
00000000: 9c0a bf3e 23fa 443f 2d75 473f e664 ec3e
00000010: 57bc ff3e bc7e 003f 6437 1d3f 713a 903e
00000020: d9c6 d93e a161 c93e 9cc5 993e 51ba a23e
00000030: 2875 ad3e 7b05 0c3f e561 323f a819 9c3e
00000040: d21e e93e 5424 093f 689c 0d3f 40d0 293f
00000050: 92c5 b53e 45a5 e53e d434 463f 8dc3 d33e
00000060: 56af bb3e b61e 973e bfe6 9f3e 8ffe 883e
00000070: 5b93 e33e 5519 d83e dc84 133f 5d35 8e3e
00000080: 11f0 b63e dd20 d03e b48e b53e c97b ce3e
00000090: 45ab d93e 3f87 a83e 3222 fa3e b5e9 e23e
000000a0: c103 1c3f 7218 55be ae04 aa3e 8e2c 783e
000000b0: a254 263f b64e de3e eaae ae3e 5bbd 873e
000000c0: 86e4 373f 4717 b93e
0.37312782 0.7694418 0.7791317 0.4617073 0.4994838 0.5019338 0.61412644 0.28169587
0.4253452 0.39332297 0.30033576 0.31782773 0.33878446 0.5469586 0.69680625 0.30488324
0.45531327 0.5357106 0.5531678 0.6633339 0.35502297 0.44852653 0.7742436 0.4136013
0.36657208 0.29515618 0.31230733 0.26756713 0.4444836 0.42206827 0.576246 0.27775088
0.3573003 0.40650073 0.35460436 0.40328816 0.4251348 0.32915685 0.48854214 0.4431893
0.6094323 -0.20810106 0.33206695 0.24235746 0.6497289 0.43419427 0.34117824 0.26511654
0.71833074 0.36150572

bias f4 [50]
00000000: 7a4e 03be c45a adbe b145 e7be 758a 28be
00000010: f243 5ebe 777f 51be f187 80be 37db f2bd
00000020: 27b8 55be ef93 52be 21ee 11be 2f6a d0bd
00000030: 6805 10be 8a37 99be cb1d a0be 816d 43be
00000040: ecde 41be 44f9 89be 6113 77be 1e4a a0be
00000050: 2a2d 04be 332d 21be c150 9abe a49a 35be
00000060: 389b b2bd 08a4 dbbd eb91 2bbe 0a8d 0cbe
00000070: 4c4d 29be f30b 7bbe 783d 80be b9aa d0bd
00000080: 922b 0ebe 19f2 45be 9380 11be 4f9e 2abe
00000090: 292d 63be 6f40 13be d631 03be f31b 5fbe
000000a0: cd94 4abe 1a9d babd 03a2 4abe 9fa8 90bd
000000b0: dc79 88be 204e 65be 833c 01be 25fd 0cbe
000000c0: 926d 77be b3aa 54be
-0.12822905 -0.3385831 -0.45170358 -0.16459067 -0.21705607 -0.2045878 -0.25103715 -0.11858218
-0.2087103 -0.20564245 -0.14250995 -0.10176503 -0.14064562 -0.29925185 -0.3127273 -0.19084741
-0.18932694 -0.26947987 -0.24128486 -0.31306547 -0.12907854 -0.15739898 -0.30139735 -0.17734772
-0.08721012 -0.10724646 -0.16754882 -0.13725677 -0.16533393 -0.24516277 -0.25046897 -0.10188813
-0.13883808 -0.19330634 -0.14209203 -0.16661952 -0.22185196 -0.14380048 -0.1281198 -0.21788006
-0.19783325 -0.09111996 -0.19788365 -0.07063412 -0.2665547 -0.22393084 -0.1262074 -0.13768442
-0.24162892 -0.20768242

running_mean f4 [50]
00000000: f11b 6dbd 1b63 383d 12d3 27be 79c2 68bb
00000010: 319b 22bd d3da b3bd 7dc0 2ebe a2b7 88bd
00000020: 30cc 0cbe b6f2 41bd 34f4 76bd b3fa 3e3c
00000030: 3ca2 47bd f2a6 81bd 4787 13be 1366 05be
00000040: 9719 adbc 635d 77bd 7437 783d 5a25 0bbe
00000050: f49e 01be 8647 4e3d c87f 88bd 5ca4 ea3c
00000060: 12dc f9bc a466 b4bd 7d27 7ebd ff3a 70bd
00000070: 0817 fd3d 640e acbd 7000 1fbd e087 e2bd
00000080: fbe3 b2bc 7254 193c 115d dabd f4f9 babc
00000090: 9455 a2bd db6f 4d3d 268b efba 9d4d ebbd
000000a0: 5abf 98bb 29a7 3bbd 7eb5 eabc a882 bd3c
000000b0: 0720 00be 2fc6 8c3d 80b6 f13c 86e9 673c
000000c0: 26f1 1d3d b52f f2bd
-0.057887975 0.04501639 -0.1638911 -0.0035516305 -0.039698783 -0.08781972 -0.17065616 -0.0667565
-0.13749766 -0.047350608 -0.060291484 0.011656451 -0.048738703 -0.063306704 -0.14407073 -0.1302722
-0.021130366 -0.060391795 0.06059976 -0.13588467 -0.12658292 0.05036118 -0.06664997 0.028642826
-0.030500446 -0.0880864 -0.062049378 -0.058650013 0.123579085 -0.08401182 -0.038818777 -0.11061072
-0.021837225 0.009358512 -0.10662282 -0.022824265 -0.07926479 0.0501555 -0.0018275722 -0.11489413
-0.0046614828 -0.045813713 -0.028650995 0.02313359 -0.12512217 0.06873738 0.029505968 0.014154797
0.038560055 -0.11825506

running_var f4 [50]
00000000: 99b1 733f b688 813f d84d 803f a706 7a3f
00000010: 927c 733f fd22 703f c3b4 983f 97f0 9e3f
00000020: 293e 6c3f 89a1 703f 7914 803f effc 8c3f
00000030: 27b7 813f 05e9 5c3f 2c35 903f 732a 933f
00000040: e08a 473f 2753 903f 4a0d 3a3f 0658 8a3f
00000050: a27e 673f 8ffc 6d3f eb3f 9c3f 123f 5c3f
00000060: 49d4 4f3f 2bf7 993f a444 5a3f 3a4d 823f
00000070: 3e18 7b3f 0ec7 923f c885 723f cc0c 803f
00000080: 0923 483f cfa4 6b3f 5f2a 853f 4aa1 5e3f
00000090: 42af 4d3f eec5 693f 0597 3e3f 2517 643f
000000a0: 6d7d 993f b333 9f3f 53ba 8e3f 6cd3 753f
000000b0: d26a 653f 1991 423f 0bfb 8e3f c556 643f
000000c0: 3d76 803f f1e6 7d3f
0.9519287 1.0119846 1.0023756 0.976664 0.95111954 0.9380339 1.1930164 1.2417172
0.9228235 0.93996483 1.0006248 1.1014689 1.0134019 0.8629306 1.1266227 1.149733
0.7794628 1.1275376 0.7267653 1.0808113 0.904276 0.929635 1.2207006 0.8603374
0.81183296 1.2028555 0.8526099 1.0179818 0.98083866 1.1466997 0.94735384 1.0003905
0.7817846 0.9204835 1.0403556 0.8696486 0.8034555 0.9131764 0.7444919 0.89097816
1.1991402 1.2437652 1.1150612 0.9602573 0.8961612 0.7600265 1.1170362 0.891949
1.0036083 0.99180514

weight f4 [100, 50, 1, 5]
00000000: cfd7 32bd 21e2 923d 3f09 943d 0133 04bd
00000010: 43dd 7fbd 3e3f 9c3c a9c7 a53b 2820 03bd
00000020: 7c9b 10bd 4816 1cbd a767 853d 8ba9 aa3d
00000030: 2427 aabd 234c 703d ba2a 593c d297 b43d
00000040: 2017 a93d e112 7fbd dc4a 8bbd 54a1 693c
00000050: 69fa 193d 164a e0bc a8d0 b0bc 44c5 163d
00000060: 1786 f83d fff9 b1bc 26d2 81bc 3542 a13c
00000070: 85dc 9bbd 9f87 78bc d5ad 8d3d 4bcf e4bd
00000080: 0aa9 a13b 5f89 ae3b 826e 23bd fc88 d23d
00000090: 43df 85bd 0b7e bcbc 53cb 8b3d 3b4b fcbb
000000a0: abba cabd 976c 8fbc f682 903d 7f91 153c
000000b0: b3c0 223d a182 e43c 4bb6 a6bc 6d1f 3e3d
000000c0: f2fb a63d 0443 c5bd 3342 56bd 39a6 98bd
000000d0: 120a 1bbb 0cf0 a8bd a0db 04bc 56fe db3d
000000e0: 52e0 843c 7d04 7bbd 16c1 093d c6c6 3c3d
000000f0: 8559 d8bd 927b c73d 1386 a3bc c61f 49bd
00000100: d05c bbbd 4119 0bbd dc83 4c3d 37d0 a8bd
00000110: 1b3c 75bd 4914 973c f136 1f3c dd1a f2bd
00000120: 8d09 0a3d 6375 2b3d 7f7f 63bb 09b2 c33d
00000130: 8160 8d3c d7a0 d7bc 22b5 033d a519 023d
00000140: 7200 213c 1343 e7ba 18b8 6a3d 5026 ae3d
00000150: 6a95 73bb dc5a acbb af55 b33c ba92 0c3d
00000160: b740 743d ac78 b3bd 3286 6b3d 627e cf3d
00000170: d38b ab3d 15cf 94b9 db37 2e3c 99e7 8fbd
00000180: a814 4bbd 6e5b 0c3d 1a8f 6bbd bbfe b73d
00000190: 8386 3a3d d4bb fd3c 8e62 b3bd 2152 8abd
000001a0: acc8 92bc bf66 94bd d5d7 3d3d 03f5 203d
000001b0: 25c6 6fbd 2e24 333a b8f3 4b3c 12aa e1bd
000001c0: 7119 b1bd e5ef 82bd 48a2 443c 7494 ce3d
000001d0: 0a1c b0bd 34c8 b6bd c290 9abd ad89 2b3d
000001e0: efd3 843d 0e0e 783d 70b7 a4bd b2b8 bbbc
000001f0: f021 0cbe 2eef bbbc 554f 28be a2d2 e4bd
00000200: 7c05 95bd 7aba 733d c035 353d 984f 663d
00000210: 7ae9 933c 2007 c23d 4680 e8bc 88ec 933d
00000220: faa7 863b e17b 143a fc51 8c3d 60dc 0abd
00000230: d44a ff3d 8e2c b93d 4bb5 85bd 7e4f dcbd
00000240: f997 e2bc b7ef 903b 999a ecbb f043 09bc
00000250: 18b3 76bd cf15 1cbd 8e69 7d3d ea45 0c3a
00000260: fcf8 9739 f21a 5ebb b9b1 953c 208b 03bc
00000270: f3ec aebd 8bea 6bbe c2e7 20be 495d aabd
00000280: d62d 723d 893f 8abd c37e ad3c 8ad2 b33d
00000290: 272f 3fbc 4500 7f3c b7ee 1739 5693 4a3c
000002a0: 4d46 013d e942 933c c460 e1bc 4c6c 09be
000002b0: c235 273d 1d56 f0ba 90ec 4f3d ba93 8abd
000002c0: 048b 333d 03c6 7b3d a86d 443a 298d debc
000002d0: 6108 d03d d69e 033d 752b 81bc 26df 65bb
000002e0: d4cb edbc aec6 1b3d 5873 01bd 3445 fd3c
000002f0: 6f49 c8bb aace 0b3d 791a 1b3d 67ee 0f3d
00000300: 2bc5 52bd 9192 083d 28e8 8a3d bc8f e33d
00000310: 285b 1abd dc0f d4bc 56cf 11bd 4077 c9bd
00000320: d349 fe3c d77e 75bd ab4e 55bd b4cb 04be
00000330: a787 7fbd 870e ad3d 8267 26bd c9b5 81bd
00000340: faa9 ca3d c908 ce3c f1f8 3e3d 8ddf d23a
00000350: 93b8 ec3c dbb8 8b3d 1295 99bd dc43 2bbd
00000360: aede a93d edd8 593d e600 d63c 7200 97bd
00000370: 1665 0d3d f1f8 d93d d16b 8ebc 152b afbc
00000380: 6cf4 0c3d 4f28 ae3d 3e5f 7e3c b4ca 3b3d
00000390: 693e c83d 0ac5 4fbc 899d 9e3d 500a 0c3c
000003a0: 55ca d5bd 5355 72be a27d 28be 89d0 183e
000003b0: 327a 843b 7528 0c3e 1a85 7bbc f6ff aebd
000003c0: a96f da3c 4083 c5bc 1281 283d 584f 89bb
000003d0: f186 c93c 5486 b03c ce51 d63c ca9d 943a
000003e0: 5260 883d 6525 41bd a4f0 ad3d 6cff 18bd
000003f0: 941a 49bd 1850 3a3d af7a 503d 456e 6fbd
-0.043662842 0.07172037 0.07228326 -0.032275204 -0.06246687 0.019073125 0.0050592017 -0.03201309
-0.03530453 -0.038107187 0.06513911 0.08333119 -0.08308247 0.05866636 0.013254816 0.0881802
0.08256364 -0.062273864 -0.06801388 0.014259655 0.037592325 -0.027379077 -0.02158387 0.03680922
0.121349506 -0.021725653 -0.015847277 0.01968489 -0.0761042 -0.015169053 0.069179215 -0.111723505
0.004933481 0.0053264345 -0.03990031 0.10280034 -0.065367244 -0.02300932 0.068258904 -0.007699398
-0.09898885 -0.017507834 0.07056229 0.009128927 0.039734554 0.02789432 -0.020350596 0.04641669
0.081535235 -0.09631923 -0.052309226 -0.074535795 -0.0023657125 -0.0824891 -0.008109003 0.1074187
0.016220246 -0.061283577 0.033631407 0.046088003 -0.105639495 0.09740366 -0.019961393 -0.049102567
-0.09148562 -0.03395963 0.04993044 -0.08242839 -0.059871774 0.01844229 0.009717689 -0.1182153
0.033700515 0.041859996 -0.0034713445 0.09555442 0.01725793 -0.026321812 0.032155164 0.031762738
0.009826766 -0.0017643891 0.05730447 0.08503401 -0.0037167915 -0.0052598547 0.021891443 0.034319617
0.05963203 -0.08763251 0.057501025 0.101315275 0.08376279 -0.00028383048 0.010633434 -0.070265956
-0.049580246 0.03426688 -0.05750952 0.08984133 0.045538437 0.030973352 -0.08759032 -0.06753946
-0.017917953 -0.0724616 0.04634841 0.03929616 -0.058538575 0.00068336993 0.012448244 -0.110187665
-0.08647431 -0.063934125 0.0120015815 0.10086909 -0.08599098 -0.089249045 -0.075471416 0.041879345
0.064857356 0.06056028 -0.080428004 -0.022915218 -0.13684821 -0.022941198 -0.16436513 -0.111729875
-0.07276437 0.05950401 0.044240713 0.05622825 0.018055666 0.09474015 -0.028381478 0.07222849
0.00410938 0.00056642113 0.06851575 -0.033901572 0.12465444 0.09041701 -0.065287195 -0.107573494
-0.027660357 0.0044231075 -0.007220578 -0.008378014 -0.06022939 -0.038106736 0.061868243 0.0005350994
0.00028986472 -0.0033890572 0.018273221 -0.008028775 -0.08541288 -0.2303869 -0.15713409 -0.08318574
0.059125744 -0.067503996 0.021178609 0.087803915 -0.011668957 0.015564029 0.0001448941 0.012364229
0.031561185 0.017976241 -0.027511962 -0.13420218 0.04082275 -0.0018336211 0.050762713 -0.06766458
0.043833748 0.061468136 0.00074931467 -0.02716692 0.10157848 0.0321339 -0.015767792 -0.0035075634
-0.029027857 0.038031273 -0.03160414 0.030916788 -0.0061122696 0.034132637 0.037867043 0.035139468
-0.051457565 0.0333429 0.067825615 0.111113995 -0.03768459 -0.025886469 -0.03559812 -0.09837198
0.031041062 -0.059935417 -0.052076977 -0.12968332 -0.062385228 0.084500365 -0.040626056 -0.06333501
0.09895702 0.025150673 0.046624128 0.0016088352 0.028896606 0.06822368 -0.07499136 -0.041812763
0.08294426 0.053185392 0.026123475 -0.07373132 0.03452023 0.10643185 -0.017385395 -0.021382848
0.034412786 0.08503782 0.015525637 0.04584761 0.09777529 -0.012681255 0.07744891 0.008547381
-0.104389824 -0.23665361 -0.16454175 0.149233 0.004042887 0.13687308 -0.015351558 -0.085449144
0.026664572 -0.024110436 0.041138716 -0.0041903667 0.024600478 0.021548428 0.026162054 0.0011338529
0.06658997 -0.047154803 0.08493164 -0.037352964 -0.049097613 0.04548654 0.05089825 -0.05845477

bias f4 [100]
00000000: 5e17 483d a94d 3b3d 01b1 2a3d 14d9 c43c
00000010: edde dcbc d1cc 613c 5676 763d 8557 aa39
00000020: 8e11 003d 7a38 b73c ba39 b1bb 41c4 33bd
00000030: e282 173d c817 33bc 2872 1b3d cae4 883b
00000040: 96ee 143d a313 b03c 72ef 713d da7e 2c3d
00000050: 14f3 e53c fa57 4c3d c387 753d 1fbc b6bc
00000060: 0177 72bd 79a1 633c 1540 92bd 46de 363d
00000070: 8706 36bc f890 3c3d 1c6a 1bbd 8314 293d
00000080: d277 4f3a 005f 06bd 41a8 5abc 78f1 14bd
00000090: 0c9e b73c f408 dd3c 3930 ea3b c2b9 00bc
000000a0: c169 95bc 516c 2abd b946 43bb 9740 3d3c
000000b0: ab60 523c c5c5 d6bc c209 633d aa1e 6dba
000000c0: c8f0 633d af49 783d 6e0e f93c 1c72 53bb
000000d0: e1d2 013c 4633 4bbd 7939 08bd c234 d9bc
000000e0: 4555 fa3c b485 843d 4b7b 373d 4d01 44bd
000000f0: 0485 b1bb c4cb 8bbc dfde 88bc 603b 293c
00000100: db43 dfbc 8bda 593d 7918 3ebc 51d2 78bc
00000110: f92c e0bc 0257 75ba 406f e9bc 594c c4bc
00000120: 4bd4 d23c 87f9 6b3d e4f9 683c 3137 193d
00000130: 84f7 5c3c 0331 223d 2c53 053d 8827 4c3d
00000140: a395 e43c 427c d5bc 4eaf 14bd 6525 343d
00000150: 37fd c13b f440 883c bf23 d5bc 91f1 333d
00000160: f469 a23c 441e 3ebd 5977 e3bc 549d f23c
00000170: 1107 12bb fb2a e6bc b753 98bb d0ca c43c
00000180: 2685 04bd 79ca 87bc 5f00 dc3c e21f 70bd
0.04885041 0.04572836 0.04167271 0.024029292 -0.026961768 0.013781742 0.060171448 0.00032490134
0.03126674 0.022365797 -0.005408493 -0.043888334 0.036990054 -0.010930963 0.037950665 0.0041776644
0.036360346 0.021493739 0.059066243 0.042113163 0.02807001 0.04988859 0.059943926 -0.0223065
-0.059195522 0.013893479 -0.07141129 0.04464557 -0.011109955 0.04603669 -0.03794299 0.041279327
0.0007914278 -0.032805443 -0.013345779 -0.036363095 0.02241423 0.026981808 0.007146862 -0.007856788
-0.018238904 -0.041607205 -0.0029796793 0.011551044 0.01284043 -0.02621735 0.055429228 -0.0009045402
0.05564955 0.060617145 0.030402388 -0.003226406 0.007923813 -0.049609445 -0.033257935 -0.026514415
0.030558238 0.06470814 0.044795316 -0.047852803 -0.005417468 -0.017064936 -0.016707836 0.0103290975
-0.027254036 0.053186934 -0.011602514 -0.015186862 -0.027365195 -0.00093589735 -0.028495431 -0.023962187
0.025735995 0.057611015 0.014219735 0.03740615 0.013486747 0.039597522 0.032550022 0.049842387
0.027903384 -0.026060227 -0.036299996 0.043980975 0.005920078 0.016632535 -0.026018022 0.043931548
0.019825913 -0.046415582 -0.02776687 0.029616036 -0.0022282044 -0.028096667 -0.0046486515 0.02402249
-0.032353543 -0.016576039 0.026855646 -0.058624156

weight f4 [100]
00000000: 3d00 d43e 9317 fa3e 55d9 bb3e 4f87 993e
00000010: 382d e13e 74ce 8f3e 501d 4a3f ea88 243f
00000020: 499a d83e 7356 bc3e 1927 123f 195d 8a3e
00000030: 5db4 583f 841c ff3e ae8a 0c3f a9ed fb3e
00000040: b93e 133f 7078 c23e 4096 da3e a898 063f
00000050: 9c8f 083f ad79 913e 8cc5 3b3f aff2 1e3f
00000060: bc11 c23e 291c a33e 2b38 f13e f62e 933e
00000070: 8b88 033f 905a 033f 4403 bb3e f14b f93e
00000080: 27b4 003f 8469 1e3f 478d 493f fe33 d63e
00000090: d2cd 943e dbb7 a13e 4131 343f f2bd 1a3f
000000a0: b23d a13e a6ed c73e 15e7 143f e9a9 093f
000000b0: e66d b73e 5f97 8f3e be00 aa3e edcf bc3e
000000c0: 9aa9 b43e 451a 4c3f 4e1a ec3e 995f d43e
000000d0: 9f68 013f cbe3 a93e fcdb 3f3f 32c4 f53e
000000e0: aefa e23e 2763 343f 6fb9 ee3e 5cfa b03e
000000f0: 0d31 ce3e ff63 363f ae68 f83e c5b4 bc3e
00000100: ae0b f73e 89b1 bf3e 7714 e43e f4f7 273f
00000110: 6ba0 273f c5ed 9f3e 12ed 053f 1c40 113f
00000120: 10e2 093f 500f a13e 5467 1e3f ab51 c83e
00000130: d7eb e73e dd00 903e 3bd3 1e3f 0148 803e
00000140: 6ecb e83e 7fd9 0f3f 8146 e33e 4227 f63e
00000150: 4cc5 3c3f feb1 a73e 661d 0c3f fe85 683e
00000160: 4a2d 233f 6009 c33e 7e9d c83e d76b 843e
00000170: 2a1b 97be 6091 df3e 0d05 353f 8a82 ba3e
00000180: d42f 983e c49c de3e 467b 313f bff8 073f
0.41406432 0.4884611 0.3668925 0.29986045 0.43979812 0.280872 0.7895098 0.64271414
0.4230521 0.36784706 0.5709091 0.27024153 0.8465021 0.49826443 0.5489911 0.49204758
0.5751758 0.37982512 0.42692757 0.52576685 0.5334413 0.28413144 0.7334831 0.62089056
0.37904155 0.31857422 0.47113165 0.28746766 0.51380223 0.5131006 0.3652593 0.4869075
0.5027489 0.61879754 0.787312 0.41836542 0.29063278 0.31585583 0.70387655 0.60446084
0.31492382 0.390485 0.58165103 0.5377489 0.35826033 0.28045174 0.3320369 0.36877385
0.35285646 0.79727584 0.4611382 0.41479185 0.50550264 0.33181605 0.74945045 0.48001248
0.44331878 0.70463794 0.4662585 0.3456601 0.40271798 0.7124633 0.48517364 0.36856666
0.48251098 0.37440136 0.44546863 0.6561272 0.65479153 0.3123609 0.52314866 0.5673845
0.5386057 0.31456995 0.61876416 0.39124808 0.4529712 0.2812566 0.6204106 0.25054935
0.45467705 0.5619125 0.44389728 0.48076826 0.7373855 0.32752985 0.5473236 0.22707364
0.6374098 0.3809309 0.39182657 0.25863525 -0.29512912 0.436656 0.7071083 0.36427718
0.2972399 0.43478978 0.69328725 0.5311393

bias f4 [100]
00000000: fdd7 04be 1ac7 5abe 0a98 0ebe 4196 d3bd
00000010: 0fb8 43be cb46 03be 03d2 b4be 0f8d a5be
00000020: 6ced 03be 73c3 09be f179 82be 1938 f0bd
00000030: b34b 9ebe 7b2e 4cbe c70f 8fbe b2d8 15be
00000040: c608 9fbe 6a5a 22be a4fc 72be af94 62be
00000050: 567e 80be d9bc e3bd de3e b5be abc7 a6be
00000060: c430 2ebe 5bf0 44be 6432 4ebe 636b b7bd
00000070: 0cb9 6cbe bfdf 6fbe 0d97 2bbe 3281 51be
00000080: 8654 3bbe 6372 7bbe 92f3 bebe 5e51 25be
00000090: 6c1e 04be c8d1 fcbd 71e4 b1be 9514 6dbe
000000a0: b98b c8bd f17d 2ebe 2ffc 91be 7a07 8dbe
000000b0: 16b1 1fbe 7343 e9bd 2f45 16be c712 28be
000000c0: c188 d4bd 1d68 c4be 81ec 71be 0f55 41be
000000d0: 2064 61be 9572 0fbe f6d8 b6be d0c0 52be
000000e0: f9c1 19be 1507 b0be 647e 7abe 2c53 0cbe
000000f0: a1f1 13be 827f 96be 8763 55be d8c2 11be
00000100: 4441 4fbe 4994 1abe 625f 3dbe d4d3 abbe
00000110: 3613 a9be 0d7a ffbd 23ac 99be 0acb 95be
00000120: 3756 46be f9ef 0ebe 92dd 85be dc1e 38be
00000130: 6c9f 5dbe cf2d c7bd 1a2a a8be ba64 d2bd
00000140: 62f7 82be e3be 96be 968f 79be 23bd 40be
00000150: 2321 bcbe eca0 21be f274 6ebe 2a9d c7bd
00000160: cc9f a7be 14a7 4cbe 1c4e 98bd 0944 cebd
00000170: d0a6 20be 430c 20be 1842 c6be fe1c 3fbe
00000180: 9231 8abd 026d 5ebe 6b99 c1be 9b1f 64be
-0.12973018 -0.21365014 -0.13925186 -0.10331393 -0.19113182 -0.12819974 -0.35316476 -0.32334182
-0.12883538 -0.13453464 -0.2548366 -0.1172945 -0.3091713 -0.19939606 -0.27941725 -0.14633444
-0.3106138 -0.15854803 -0.23729187 -0.22127031 -0.25096387 -0.11120004 -0.35399526 -0.3257421
-0.1701079 -0.19232313 -0.2013641 -0.08956029 -0.23117465 -0.23425196 -0.1675684 -0.2045944
-0.18293962 -0.24555354 -0.37295204 -0.1614432 -0.1290223 -0.123447 -0.347446 -0.23152383
-0.09792275 -0.1704023 -0.28512713 -0.27544767 -0.15594897 -0.11389818 -0.14674829 -0.16413413
-0.10377646 -0.38360682 -0.23625375 -0.18880104 -0.22010851 -0.14008553 -0.35712403 -0.20581365
-0.15015401 -0.34380403 -0.24462277 -0.13703603 -0.14447643 -0.29394156 -0.20838748 -0.14234483
-0.2023974 -0.15095629 -0.18493417 -0.3356005 -0.3302247 -0.12474451 -0.30014142 -0.2925647
-0.19368826 -0.1395873 -0.26145607 -0.17980522 -0.21642846 -0.09725534 -0.3284462 -0.10273118
-0.25579363 -0.2944251 -0.2437118 -0.1882215 -0.3674403 -0.15784043 -0.23286799 -0.097467735
-0.32739103 -0.1998561 -0.07436773 -0.100715704 -0.15688634 -0.15629677 -0.387223 -0.18663403
-0.06747736 -0.2172127 -0.3781236 -0.22277682

running_mean f4 [100]
00000000: 95c0 043d 5800 0b3d 502e b9bc 368a e13d
00000010: 9809 90bd 2e1a 4a3b 1256 67be da63 0cbd
00000020: c6c4 fb3c 8df5 ed3d b2ac f9bb 5305 ebbd
00000030: e81b 2cbd f1fc 26be 75f7 97bb 9a89 4fbd
00000040: 7291 13be d023 9ebd bbee 11bd a2ce 36bc
00000050: 2771 cbbc 842c fa3c e5de 953c 4547 28be
00000060: 8a6a 60bd 347c cd3d f243 43be 90d8 4e3e
00000070: 9d8f 9abd d3a8 c4bd 8c41 a4bd 036d 06be
00000080: 21b2 f4bd 4eea 25bd e78e 26be 2195 00be
00000090: 791b f73d f15b 823c 7843 663b bc66 57bd
000000a0: 02e3 023d 97a2 d7bd 27bc dcbd 2294 65bd
000000b0: f266 b4bd 6072 173c 2949 bb3c 6bf9 3f3a
000000c0: 025e c93c 8c0c 98be 4d40 df3b ec95 a3bd
000000d0: 1d4e 4d3c dad7 cfbd 25a9 8abe 86d0 43bc
000000e0: c4f2 0d3d 80ef adbd 1479 6cbc b9f7 10bd
000000f0: 943f 12bd 58af 78bc 3072 87bd b137 e0bd
00000100: c281 a1bd 2dc5 5c3d f3f6 2ebd ceae 09be
00000110: c19c 21bd 0305 383c 0991 64bd d474 f0bd
00000120: 5b77 32bd 4221 db3c 1866 9bbc 78a8 c43c
00000130: 10da 6e3d 7ea2 c53d 018a 02bd e8ed 093e
00000140: d287 cebd e7f6 d1bd 8dc0 74bd fc43 573c
00000150: 6882 37be d5ff 03be 3048 86bd aad6 cbbd
00000160: 0052 2abd fd56 8fbd 4f75 4c3d 1a60 b73d
00000170: 1339 363d e058 dbbc d336 a8bd 32af 063d
00000180: 2289 02b9 a768 05be 22e0 1dbe b7e8 f2bd
0.032410223 0.033935875 -0.022605091 0.1101269 -0.0703308 0.0030838358 -0.22591427 -0.034274913
0.030733477 0.11619101 -0.007619464 -0.11475625 -0.0420188 -0.16307427 -0.0046376535 -0.050668336
-0.14410952 -0.077216744 -0.03562806 -0.011157664 -0.024834229 0.030538805 0.018294761 -0.16433437
-0.054789104 0.100334555 -0.19068888 0.201998 -0.07546923 -0.09602513 -0.080203146 -0.13127522
-0.11948038 -0.040506653 -0.1626545 -0.12556888 0.12065787 0.015912982 0.003513543 -0.05258821
0.031954773 -0.105290584 -0.10778075 -0.056049474 -0.08808698 0.009243578 0.022862034 0.0007323238
0.02458096 -0.29697073 0.006813085 -0.0798758 0.012530831 -0.10148592 -0.27082172 -0.011951571
0.034655347 -0.084929466 -0.014433164 -0.035392497 -0.035705164 -0.015178524 -0.066135764 -0.10948122
-0.078860775 0.05389898 -0.042715978 -0.13445589 -0.039456133 0.011231664 -0.05580238 -0.11741033
-0.043570857 0.026749257 -0.01896958 0.024006113 0.05831343 0.096501336 -0.031869892 0.1346966
-0.100844994 -0.10252171 -0.059753943 0.013138767 -0.1792084 -0.12890561 -0.065567374 -0.09953053
-0.041582108 -0.069990136 0.04991656 0.08953877 0.044488024 -0.026775777 -0.08213582 0.032881923
-0.00012448852 -0.13028203 -0.15417531 -0.11860793

running_var f4 [100]
00000000: 5842 603f 10b4 403f d391 2f3f 7281 233f
00000010: ec11 4c3f ecd0 303f d551 813f 517a 563f
00000020: 0089 293f 5f07 0f3f f432 f83e 796b 603f
00000030: e8b4 623f 69cd 6c3f 49e0 3e3f cb72 3a3f
00000040: eed9 403f 4f65 653f f561 073f 6530 2c3f
00000050: 319b 5c3f 4737 463f 9c95 1d3f 86f5 463f
00000060: 7ddd 563f 5e31 283f 3824 273f c890 fc3e
00000070: d30e 063f 0393 2c3f 3168 153f 6a0d 7a3f
00000080: 9e72 593f 627c 3a3f bb0b 753f fd4b 773f
00000090: 327e 363f 5312 5d3f e673 2c3f 0c89 473f
000000a0: d0c9 4b3f 1334 6f3f e032 433f ae81 4e3f
000000b0: 200b 893f 8d34 343f dcb5 303f 8d5a 193f
000000c0: 6167 283f b761 a13f e955 1b3f 6c0f 563f
000000d0: e117 443f c2f1 163f fd2d 773f 15b1 223f
000000e0: c792 5e3f 4f62 563f b8f3 1c3f b874 6c3f
000000f0: 1d5f 2d3f 7c28 433f 2cd7 293f 5234 303f
00000100: 5562 543f b56c 023f fe17 e03e d862 183f
00000110: c786 073f 833d 343f f2f2 363f 89c4 333f
00000120: 2a79 603f 49bc 673f 16b1 773f 42cb 423f
00000130: a425 2b3f 35f7 463f 0cf7 1f3f ae14 203f
00000140: 0ea3 3d3f 4d86 213f 7d19 333f ebb5 473f
00000150: df73 773f 774d 883f 5911 343f 288e 5d3f
00000160: 9af8 3f3f 31f4 313f d58c 0b3f ac21 8b3f
00000170: e2cc 8a3f c5a5 633f 04d3 543f dd63 2a3f
00000180: 51d3 223f d5ab 4f3f d351 363f ea98 633f
0.8760123 0.75274754 0.68581885 0.6386939 0.79714847 0.6906879 1.0103098 0.8378039
0.6622467 0.5587062 0.48476374 0.8766399 0.8855729 0.9250093 0.7456098 0.7283141
0.75332534 0.8960771 0.52883846 0.67261344 0.86174303 0.77428097 0.6155641 0.7771839
0.83931714 0.6570033 0.6528964 0.4932921 0.5236637 0.6741182 0.5836211 0.9767672
0.84940517 0.72846043 0.95721024 0.96600324 0.7128631 0.86356086 0.67364347 0.7794349
0.79604816 0.93438834 0.76249504 0.80666625 1.070652 0.70392686 0.69027495 0.59903795
0.65782744 1.2607945 0.60677963 0.8361728 0.76598936 0.58962643 0.9655455 0.63551456
0.86942714 0.83743757 0.61309385 0.923656 0.67723256 0.7623365 0.6634395 0.68829834
0.8296254 0.50947124 0.43768305 0.59525824 0.5294003 0.7040636 0.71464455 0.70221764
0.8768488 0.90521675 0.96754587 0.76091397 0.6685431 0.7772096 0.6248634 0.62531555
0.74076927 0.6309555 0.6996077 0.7801196 0.9666118 1.064864 0.7033897 0.8654504
0.7498871 0.6951323 0.5451177 1.0869651 1.0843775 0.8892482 0.83134484 0.6655863
0.63603693 0.8112157 0.71218604 0.88905203

weight f4 [200, 100, 1, 5]
00000000: 7f0e fd3b 78e3 98bd 8ed0 d8bb 2ab3 4b3d
00000010: 37dc acbd ab1d fdbc 0560 b1bd cd93 dabc
00000020: aea4 acbd 773d 3e3b af99 febc 6165 a23b
00000030: fc8c 50bb 330e 14bc 44b8 63bd 15f8 4b3d
00000040: ba30 c13d 722c 78bd 52c8 9fbd c7f0 0a3b
00000050: 0893 013e 2416 e4bc 82f7 523d d9d1 ba3d
00000060: b17c e6bc 0899 cd3b a044 cf3b 5b52 bd3d
00000070: 27ab 253c 6d12 963c cd2d 81bd 8e70 b83c
00000080: 0918 af3b ee73 20bd acbc 613b f440 86bd
00000090: b27c 653c 5e7b 04bd 9318 27bc 1a72 ac3d
000000a0: 3368 5d3d a29e a1bd 36ed 273d a2b1 6d3c
000000b0: 758f 1ebe c3d8 3e3a 25a2 98bd d21e 9a3c
000000c0: e257 673b 4a03 0ebe 4afa 2ebd d4af 9bbc
000000d0: 0d3c 243d 4a92 acbc bf43 cc39 253b ebbd
000000e0: 8e21 813d 0f63 823d e977 5e3d 484a debc
000000f0: 9e40 c9bc 67cd 09bb 9fd9 d1bc 7650 0dbd
00000100: cfcd 0f3d 702c d1bc 8b97 6cbd f997 5abd
00000110: 253f 11bd 300e 32ba c74e e0bc b7c2 2b3c
00000120: 89c3 9739 5649 2ebb 6fc4 983d 58aa 6b3d
00000130: 75bd c5bd 418f 863d 6c22 1c3d 3ea9 13be
00000140: dbe6 d2bc 49c2 1bbc 605a 46bc 0f05 853c
00000150: 0533 68bd 15f8 023e ef79 8a3d b12f e83c
00000160: 395b db3b 8123 433d 2120 b8bc 016d 983c
00000170: cefc 3bbc 70bc 7cbd 5962 283c acf4 923d
00000180: 7a48 6d3d 3203 953d f1cb 4abd 66d4 aebd
00000190: b0f4 48bd 0fd1 cabc 09d3 543d 6add 4f3d
000001a0: cabd 8c3c 5e0c 713d 9955 c1bd a5ac 683d
000001b0: 5759 84bd 1114 50be 2c07 5a3d c4c4 73bc
000001c0: dd93 583d c629 173d 9c66 43bd 8480 44bd
000001d0: efee 403d d77d b9bc 60ea d93b a2f6 363a
000001e0: b132 b43d 1d9e d3bd f9dd 7ebd 0279 e4bc
000001f0: c5e4 30bc 844d febd a330 ad3d aa2a 0b3e
00000200: 9efe 363c 77dc c0bc cda0 9cbd 4561 92bd
00000210: b942 383d 3ab4 82bd 05d5 4dbb e678 7bbd
00000220: 71b8 efbc 2fc7 1ebd 8f36 1d3d bb72 21bd
00000230: 4225 17bb 158e d5bc cf22 ab3d 7788 8abc
00000240: 1963 e33a 32bc b0bd 4487 7fbd 01af e13b
00000250: 21b9 493b d973 75bd d216 afbd ce95 ff3c
00000260: 6774 dabc 268e bcbd 04cb 6dbc afda 14bc
00000270: 74e5 823d 81c6 66ba d48a 06bc 0986 f73c
00000280: c126 76bd 8962 083d bf2b 59bd b316 f0bd
00000290: c8f3 a93d 45a6 4cbc eb36 5dbd 2000 9b3d
000002a0: 2749 c8bb c079 bcbd 3be3 d83c 74d7 76bc
000002b0: fb7e d5bc 6167 923d 6dcf 1bbd 0dc1 cdbd
000002c0: 5ebe a33c 90a3 58bd 25a4 51bd c217 db3c
000002d0: af3d 1cbc 759b babd 0910 66bc eef5 e4bb
000002e0: f099 d2bd ff06 ec3b 4593 13bd b1fe b1bb
000002f0: 1fd2 82bd ab1d 86bd 267e 2bbd fd3e 49bd
00000300: d77e 703c 5feb 2abc 7b14 43bd 3ebc e23d
00000310: b8c6 d2b9 9ec0 dabc 3e3e afbd a862 03be
00000320: 42e1 d13d 5ea5 4ebc cf05 3dbd 1d6e e83a
00000330: f5bc a73d e2b4 17be d9df 38bc 8dca 7f3d
00000340: 1570 adbd 735a 82bd f19d 563c a436 6cbd
00000350: 198f 623d 2d62 8dbd 4fbc be3b 0594 55bd
00000360: 5efc 11bd 7e5d 32bd 6148 633d 8c54 c6bd
00000370: d635 2fbe b5c5 05bd e9d6 d5bd 8aba afbc
00000380: 9678 50bd 4a46 a33b dd3d 01bd 833c 2c3c
00000390: bac2 153d f058 ac3c 0779 b8bd 7670 0ebd
000003a0: 8453 a8bc 0722 dabd f698 08be 1d5c 21be
000003b0: 383e 6b3d 4be1 af3c 8016 6abd 17ac bc3c
000003c0: f462 40bd 80fe 1f3d bfbe 743c 3ac9 71bd
000003d0: 8fdf 01be fb55 02bc 4779 433d 354e 3dbb
000003e0: 7aad dabd bb54 b4bc 0fa3 083d 4f0a 1ebd
000003f0: 985f e73c 0ce1 9c3d f4a5 3ebd d706 8c3c
0.0077226753 -0.07465261 -0.0066166585 0.04973141 -0.0844044 -0.030897936 -0.086608924 -0.026681805
-0.08429848 0.0029028335 -0.031079141 0.004955933 -0.0031822314 -0.0090365885 -0.05559565 0.049797136
0.09433122 -0.06058926 -0.0780188 0.0021200643 0.12653744 -0.027842589 0.051505573 0.091220565
-0.02813563 0.0062743463 0.0063253194 0.09244224 0.010111607 0.018319333 -0.06307564 0.022514608
0.0053434414 -0.03917306 0.0034444733 -0.065553576 0.01400678 -0.032344215 -0.01019873 0.08420201
0.05405445 -0.07891585 0.040997706 0.014507683 -0.15484412 0.0007280225 -0.074528016 0.018813524
0.0035300185 -0.13868442 -0.042719163 -0.01900474 0.04009633 -0.02106585 0.00038960387 -0.1148589
0.06305228 0.0636655 0.054313574 -0.02713503 -0.024566945 -0.002102697 -0.025616465 -0.03450056
0.035108384 -0.025533885 -0.05776171 -0.05336759 -0.03546061 -0.0006792275 -0.027381314 0.010483435
0.0002894665 -0.0026594005 0.07459342 0.0575355 -0.09655277 0.06570292 0.038118765 -0.1442003
-0.025744846 -0.00950677 -0.012106508 0.016237764 -0.05668928 0.12789948 0.06761538 0.028343054
0.006694224 0.04764128 -0.022476258 0.018606665 -0.011473848 -0.061703146 0.010277354 0.07175574
0.057930447 0.07276 -0.0495109 -0.085366055 -0.049061477 -0.02475789 0.05195907 0.050748266
0.017180342 0.058849685 -0.094401546 0.05680527 -0.06462353 -0.20320155 0.053229496 -0.014878456
0.05287539 0.036905073 -0.047705278 -0.047974125 0.047102865 -0.022643013 0.006650254 0.00069795
0.08798731 -0.10332892 -0.06222341 -0.027889732 -0.01079673 -0.12417129 0.08456542 0.13590494
0.011169104 -0.023542626 -0.07647858 -0.07147459 0.044985507 -0.06382032 -0.0031407487 -0.061394595
-0.029262753 -0.038764175 0.03838211 -0.039416056 -0.002306298 -0.026068727 0.083562486 -0.016910775
0.0017348259 -0.086296454 -0.06238486 0.006887317 0.0030780511 -0.059924934 -0.085492745 0.031199362
-0.026666833 -0.092068 -0.014513735 -0.009085341 0.06391421 -0.0008803383 -0.00821181 0.03021528
-0.060095552 0.033297095 -0.053020235 -0.117230795 0.08298451 -0.012490814 -0.054007452 0.07568383
-0.006112236 -0.092029095 0.02647554 -0.015066016 -0.026061526 0.07148624 -0.038039614 -0.10046587
0.019988235 -0.05289036 -0.05118193 0.026744727 -0.009536191 -0.09111682 -0.014041909 -0.006987325
-0.102832675 0.0072029824 -0.03602912 -0.005431973 -0.06387734 -0.065486275 -0.04186835 -0.049132336
0.0146786785 -0.010432093 -0.047626954 0.110710606 -0.00040202378 -0.026703175 -0.08556794 -0.12830603
0.10248043 -0.012612669 -0.046148118 0.0017733012 0.081903376 -0.14815095 -0.011283838 0.062449027
-0.084686436 -0.06364908 0.01309918 -0.057669297 0.05531225 -0.06903491 0.005820788 -0.052143116
-0.035641067 -0.043546192 0.055488948 -0.09684095 -0.1711038 -0.03265925 -0.104413815 -0.021451253
-0.05089625 0.0049827443 -0.031553138 0.010512474 0.03656266 0.021038502 -0.09007459 -0.03477522
-0.020547636 -0.106510215 -0.133396 -0.15757795 0.057432383 0.021469733 -0.057150364 0.023031278
-0.04696937 0.03906107 0.014938056 -0.059029795 -0.12682937 -0.00795507 0.04772308 -0.0028885726
-0.10677619 -0.022013059 0.03335863 -0.03858405 0.028243825 0.07660112 -0.046544984 0.017093105
