HW2/LeakyReLU_EEGNet.pkl (torch_old, 99821 bytes, 17 tensors)

weight f4 [16, 1, 1, 51]
0.19656354 -0.06517899 -0.11778588 -0.06856283 0.16975118 0.00085228594 -0.08583969 -0.16063713
-0.0022121295 0.19913462 0.11468992 -0.11263329 -0.12812042 -0.08960836 0.22581357 0.04723755
-0.1511782 -0.18969363 0.07987554 0.2508637 0.016066326 -0.1052398 -0.1478047 0.07138522
0.1733211 -0.11466716 -0.05501279 -0.042722274 -0.039178483 0.19385073 0.09293352 -0.2089583
-0.035141904 0.13144693 0.09551864 -0.047100943 -0.04413807 -0.11360273 -0.049790904 0.20166966
-0.024237787 0.010755288 -0.121882886 0.036748417 0.068755426 0.071643725 -0.12905434 -0.03130168
-0.06891225 0.13811408 -0.02364985 0.074962005 -0.08327657 -0.0683838 -0.12642513 -0.12629774
-0.10490311 -0.05800927 0.101148896 0.0920715 0.18487784 0.1900179 -0.03221718 0.008031764
-0.07825717 -0.20744795 -0.19133553 0.060317636 0.08625353 -0.026285158 0.056551017 0.1800047
0.18710656 0.1734118 -0.0534405 -0.07526176 -0.10560872 -0.18324655 -0.08003512 -0.014432507
0.028172538 0.10822208 0.0065039117 6.431063e-05 0.11485665 0.14727081 -0.0010091799 -0.052723803
-0.04319078 -0.096894614 -0.1745152 -0.10194639 0.036472566 0.015077516 0.055579554 0.1708338
0.22487281 0.19601926 0.14867976 0.025871074 -0.20895697 -0.1568944 -0.15511379 -0.06309484
-0.018286198 -0.10084865 -0.036223724 0.13207945 -0.05586964 0.08370091 -0.028120419 0.00065429485
0.029849017 0.1565366 0.18600193 0.18527348 -0.029685065 0.030101199 0.21120606 0.07174443
0.13082117 0.1353322 0.11316547 0.16860549 0.09947684 0.33309197 0.18860254 0.19969977
0.19046278 0.15696475 0.13852489 0.20505022 0.07878873 0.1125096 -0.09612422 -0.00798672
0.030718882 0.10884186 -0.057922766 -0.028597534 -0.0002997501 0.051987536 0.015773514 0.1540471
0.10233872 -0.022958195 -0.13710152 -0.0016828242 0.023069013 0.117270686 -0.10023198 -0.060139894
-0.076760925 0.22701341 0.25417894 0.008564586 0.039423905 0.16789187 0.052616585 0.2244306
0.023420364 0.10633111 -0.054927442 0.086995944 0.18644363 -0.033002775 0.08467545 0.09233203
0.037592903 -0.03096245 -0.10091931 0.043916117 -0.20944862 -0.2419458 -0.02331731 -0.070296764
-0.14571512 -0.19247384 -0.1311984 -0.16397618 -0.12902613 -0.125313 -0.008006749 -0.20361505
-0.02811358 -0.012147565 0.07414795 -0.03689963 -0.03527773 -0.039073564 0.12128855 -0.013849257
0.109611705 -0.09275415 -0.047812417 0.0021305105 0.081092834 -0.0028673175 -0.030890405 0.035184816
0.048432883 0.1572365 0.0066797794 0.13523817 -0.114896856 0.077188954 -0.10611867 0.06419789
-0.07849321 0.045452524 0.13002458 0.031117046 0.123671696 0.074159786 0.10758306 0.16632088
-0.029010437 -0.13016504 -0.1671452 -0.124632806 -0.107737646 -0.22303106 -0.07171374 -0.0133879995
-0.05601368 -0.15601037 0.066257544 -0.025178911 0.083797656 0.20518136 -0.053106442 0.008970199
0.052652027 -0.084808946 -0.10322771 -0.08124607 -0.098947905 -0.010951129 -0.081121586 0.15723284
0.22690977 -0.00049212447 0.2720291 -0.0015222807 0.10612759 0.030238379 0.11644602 -0.0029073802
0.033659507 -0.05912532 -0.14636551 -0.16744177 -0.030296514 -0.09152976 -0.12635405 0.059883885
00000000: f447 493e 907c 85bd b939 f1bd ab6a 8cbd
00000010: 41d3 2d3e f16b 5f3a b8cc afbd 0f7e 24be
00000020: 60f9 10bb f2e9 4b3e 8ce2 ea3d 48ac e6bd
00000030: 0032 03be 9684 b7bd ac3b 673e 297c 413d
00000040: 75ce 1abe 0c3f 42be ca95 a33d 3571 803e
00000050: 879d 833c f787 d7bd 1e5a 17be 6a32 923d
00000060: 167b 313e 9ed6 eabd 1755 61bd 8dfd 2ebd
00000070: 9e79 20bd ce80 463e ee53 be3d 2af9 55be
00000080: f5f0 0fbd 069a 063e 479f c33d ebec 40bd
00000090: 1fca 34bd 8ca8 e8bd 8cf1 4bbd 7e82 4e3e
000000a0: 538e c6bc f336 303c bc9d f9bd 8285 163d
000000b0: a5cf 8c3d f2b9 923d d226 04be 3136 00bd
000000c0: de21 8dbd c76d 0d3e 55bd c1bc ae85 993d
000000d0: e88c aabd ce0c 8cbd 9775 01be 3254 01be
000000e0: 71d7 d6bd 219b 6dbd 2727 cf3d fc8f bc3d
000000f0: 9e50 3d3e 0d94 423e 29f6 03bd a997 033c
00000100: 4c45 a0bd 3c6d 54be 76ed 43be a00f 773d
00000110: b1a5 b03d f953 d7bc 0aa2 673d 2753 383e
00000120: dd98 3f3e dd92 313e 6de4 5abd d622 9abd
00000130: 6249 d8bd fca4 3bbe 74e9 a3bd 5276 6cbc
00000140: 18ca e63c 8aa3 dd3d c41e d53b 82de 8638
00000150: f739 eb3d 29ce 163e 7546 84ba eaf4 57bd
00000160: d1e8 30bd af70 c6bd 1db4 32be 45c9 d0bd
00000170: 4264 153d b007 773c 63a7 633d 0eef 2e3e
00000180: 0f45 663e 46b9 483e 823f 183e 93ef d33c
00000190: d1f8 55be eda8 20be 26d6 1ebe de37 81bd
000001a0: f0cc 95bc bd89 cebd 545f 14bd d63f 073e
000001b0: 90d7 64bd 626b ab3d cb5c e6bc fc84 2b3a
000001c0: ed85 f43c 214b 203e 4a77 3e3e 55b8 3d3e
000001d0: 182e f3bc ca96 f63c 6746 583e beee 923d
000001e0: fcf5 053e 8694 0a3e 4cc3 e73d eba6 2c3e
000001f0: 83ba cb3d 088b aa3e 0621 413e 197e 4c3e
00000200: ad08 433e 5ebb 203e 78d9 0d3e aff8 513e
00000210: fc5b a13d 6f6b e63d c6dc c4bd bbda 02bc
00000220: 2aa6 fb3c 7be8 de3d 6c40 6dbd 6045 eabc
00000230: c727 9db9 e2f0 543d 7537 813c 86be 1d3e
00000240: f696 d13d d312 bcbc 5764 0cbe 3692 dcba
00000250: 3afb bc3c 9d2b f03d 6d46 cdbd 4055 76bd
00000260: d534 9dbd 3476 683e be23 823e 7a52 0c3c
00000270: f67a 213d d9eb 2b3e 7d84 573d 23d1 653e
00000280: 10dc bf3c 20c4 d93d 99fb 60bd ee2a b23d
00000290: 14eb 3e3e eb2d 07bd 536a ad3d 9318 bd3d
000002a0: 04fb 193d f7a4 fdbc c8ae cebd 63e1 333d
000002b0: b379 56be a4c0 77be f103 bfbc c0f7 8fbd
000002c0: 5836 15be dd17 45be e058 06be 5fe9 27be
000002d0: 6d1f 04be 0d52 00be bd2e 03bc 7780 50be
000002e0: 734e e6bc 9506 47bc e1da 973d 1124 17bd
000002f0: 627f 10bd 9a0b 20bd 2266 f83d fee7 62bc
00000300: 1a7c e03d e3f5 bdbd f4d6 43bd 09a0 0b3b
00000310: 0014 a63d 9be9 3bbb e00d fdbc f41d 103d
00000320: 8f61 463d 9b02 213e 0de2 da3b e07b 0a3e
00000330: 0b4f ebbd 3e15 9e3d bf54 d9bd 2f7a 833d
00000340: 0cc1 a0bd 6d2c 3a3d 2a25 053e 2de9 fe3c
00000350: 9647 fd3d 16e1 973d 8254 dc3d 0550 2a3e
00000360: 4ca7 edbc fc49 05be 1c28 2bbe 7c3f ffbd
00000370: 8ea5 dcbd 4162 64be a7de 92bd 5759 5bbc
00000380: 9a6e 65bd 2fc1 1fbe 09b2 873d 0144 cebc
00000390: 1b9e ab3d 101b 523e 2486 59bd bef7 123c
000003a0: a7a9 573d 50b0 adbd 0d69 d3bd 5764 a6bd
000003b0: 33a5 cabd 5d6c 33bc 1323 a6bd a501 213e
000003c0: 095b 683e ea01 01ba 6647 8b3e 4487 c7ba
000003d0: 6c59 d93d 7ab6 f73c 407b ee3d bf89 3ebb
000003e0: 8dde 093d 642d 72bd d7e0 15be db75 2bbe
000003f0: 6530 f8bc f473 bbbd f562 01be ce48 753d

weight f4 [16]
0.5340168 1.1590507 0.16148435 0.08322243 0.7325282 0.027657377 0.39310575 0.68477917
0.03736102 0.44778305 0.69963396 0.20499268 0.44671136 0.1422337 0.55295664 0.3024193
00000000: 53b5 083f c65b 943f 275c 253e 8570 aa3d
00000010: f886 3b3f b991 e23c 2845 c93e b04d 2f3f
00000020: de07 193d d243 e53e 361b 333f 9ae9 513e
00000030: 5ab7 e43e b6a5 113e 918e 0d3f b4d6 9a3e

bias f4 [16]
0.037969247 0.02136012 0.08893254 -0.09544551 -0.0010057571 -0.10242052 -0.057617612 0.005153718
-0.14741328 0.014221279 -0.028369257 0.06986201 0.03542286 0.013906193 0.004988885 0.018121079
00000000: a485 1b3d 6bfb ae3c 4322 b63d f078 c3bd
00000010: 9cd3 83ba d9c1 d1bd 7200 6cbd 85e0 a83b
00000020: 82f3 16be 5e00 693c a566 e8bc d013 8f3d
00000030: 9017 113d cdd6 633c cd79 a33b a872 943c

running_mean f4 [16]
-0.00067524257 -0.016946184 -0.13416912 -0.03330635 0.02603852 -0.08223264 0.0021728456 0.0027828317
-0.1519167 -0.060336675 0.029412562 -0.20555438 -0.0800184 -0.08613151 -0.010930691 -0.0008432532
00000000: c302 31ba b9d2 8abc a163 09be 3d6c 08bd
00000010: bc4e d53c 9669 a8bd 4d66 0e3b 2b60 363b
00000020: 0d90 1bbe 9723 77bd 9df2 f03c d97c 52be
00000030: b0e0 a3bd b865 b0bd a416 33bc c40d 5dba

running_var f4 [16]
4.8579707 64.21829 205.53969 57.88926 46.48314 142.27357 6.826135 30.742762
128.60437 21.636332 45.36012 282.49863 82.04719 33.744503 10.409706 3.264977
00000000: 7f74 9b40 c46f 8042 298a 4d43 9a8e 6742
00000010: bcee 3942 0946 0e43 b36f da40 2df1 f541
00000020: b89a 0043 3517 ad41 c370 3542 d33f 8d43
00000030: 2918 a442 5ffa 0642 288e 2641 62f5 5040

weight f4 [32, 1, 2, 1]
-0.026573775 -0.77373517 -0.3544417 0.069164425 -0.14874098 0.22091174 -0.036355518 0.818285
0.73519367 -0.013210846 -0.22145551 0.516366 -0.24848342 0.3668308 0.6441472 -0.55923355
0.4934933 0.24020855 0.55893296 -0.4462483 0.5391891 -0.6235447 0.042309497 -0.8411678
-0.06418887 0.20267348 -0.51355845 0.16864255 0.7460728 0.6051299 -0.70598865 -0.52933866
0.4246368 0.46499574 0.3668066 0.03513542 -0.22300033 0.0861438 0.6104575 0.34106323
0.6316683 0.03790748 -0.42255887 0.20817192 -0.75845236 -0.3202006 0.7429754 0.08331587
0.08038244 0.64880085 0.446177 -0.35859156 0.03764823 -0.4045925 -0.13342468 0.6350946
0.36039323 -0.8167488 0.6567526 0.6755761 0.18482368 -0.6550173 0.16245045 -0.8702692
00000000: 3fb1 d9bc 8213 46bf 6279 b5be 14a6 8d3d
00000010: 8e4f 18be b036 623e 86e9 14bd 207b 513f
00000020: a735 3c3f 4e72 58bc 3cc5 62be 9030 043f
00000030: 7072 7ebe 3fd1 bb3e d5e6 243f ee29 0fbf
00000040: 27ab fc3e 3bf9 753e 3b16 0f3f a87a e4be
00000050: 4c08 0a3f a0a0 1fbf b94c 2d3d c656 57bf
00000060: 7475 83bd a389 4f3e 9178 03bf a2b0 2c3e
00000070: a1fe 3e3f cbe9 1a3f acbb 34bf bd82 07bf
00000080: ff69 d93e ec13 ee3e 13ce bb3e 28ea 0f3d
00000090: 335a 64be 296c b03d f146 1c3f d79f ae3e
000000a0: 04b5 213f e044 1b3d a359 d8be 052b 553e
000000b0: ef29 42bf 55f1 a3be a333 3e3f 83a1 aa3d
000000c0: 8c9f a43d d017 263f 5071 e43e 5099 b7be
000000d0: 0835 1a3d c026 cfbe 7ba0 08be 8f95 223f
000000e0: 7685 b83e 7316 51bf f020 283f 8ef2 2c3f
000000f0: 6b42 3d3e 37af 27bf 6959 263e f6c9 5ebf

weight f4 [32]
0.60685647 0.44303077 0.38607195 0.51185346 0.32249168 0.22813606 0.43959588 0.39348286
0.51824516 0.65836763 0.41759613 0.16923495 0.82087535 0.49408367 0.4272179 0.559978
0.27778623 0.5070473 0.43072903 0.33030137 0.48552936 0.38373825 0.20298614 0.39347965
0.16968492 0.53695244 0.37380254 0.41105732 0.39001855 0.5786103 0.27039263 0.34888506
00000000: f25a 1b3f eed4 e23e 39ab c53e d408 033f
00000010: a11d a53e 809c 693e b612 e13e 9676 c93e
00000020: b7ab 043f c88a 283f 29cf d53e ed4b 2d3e
00000030: e324 523f 89f8 fc3e 4ebc da3e b85a 0f3f
00000040: ff39 8e3e dacd 013f 8488 dc3e 431d a93e
00000050: 4e97 f83e 5779 c43e 99db 4f3e 2a76 c93e
00000060: e2c1 2d3e b775 093f 0c63 bf3e 1b76 d23e
00000070: 83b0 c73e ce1f 143f e770 8a3e 10a1 b23e

bias f4 [32]
-0.26042747 -0.27913308 -0.206704 -0.37189296 0.014187435 0.028894868 -0.1608488 -0.101202354
-0.2672533 -0.28589058 0.12162275 0.029517844 -0.5737692 -0.34455335 -0.13225602 -0.27653593
-0.13060772 -0.30613476 -0.16989739 -0.09301675 -0.20458111 -0.19568229 0.020222321 0.0038516598
-0.18674901 -0.26839355 -0.028900286 -0.045175064 -0.15967716 -0.3288182 -0.12454548 -0.1549501
00000000: c056 85be 88ea 8ebe 37aa 53be c168 bebe
00000010: 6a72 683c eeb4 ec3c 8cb5 24be 2e43 cfbd
00000020: 6dd5 88be 4060 92be 5915 f93d 68cf f13c
00000030: 8ae2 12bf 4c69 b0be 1f6e 07be 1e96 8dbe
00000040: 08be 05be b2bd 9cbe 95f9 2dbe 917f bebd
00000050: b67d 51be f060 48be 48a9 a53c 216c 7c3b
00000060: 223b 3fbe e16a 89be 4bc0 ecbc 7d09 39bd
00000070: 6982 23be dc5a a8be b311 ffbd 3dab 1ebe

running_mean f4 [32]
-0.030515313 -0.010958765 0.001575195 0.016540196 0.064838275 0.026342593 -0.011269624 -0.007714573
-0.0005518014 -0.00031844238 0.009002933 0.08154306 -0.007924124 0.019625433 0.007252114 -0.0066286363
-0.13225207 -0.05969164 -0.0021178795 0.013567418 -0.018468495 0.0057423594 -0.073789075 0.056661736
0.026053801 0.0033434022 -0.0048564845 0.0065491856 -0.0019332275 0.0055767423 -0.008095729 -0.012235651
00000000: 40fb f9bc 648c 33bc c676 ce3a 4e7f 873c
00000010: eec9 843d 6ccc d73c 3ba4 38bc 87ca fcbb
00000020: c4a6 10ba 9df4 a6b9 0a81 133c 0c00 a73d
00000030: 2fd4 01bc 84c5 a03c 24a3 ed3b 0835 d9bb
00000040: 166d 07be 397f 74bd 1fcc 0abb e049 5e3c
00000050: 3e4b 97bc 672a bc3b ba1e 97bd 2316 683d
00000060: c86e d53c fb1c 5b3b 2523 9fbb 8d9a d63b
00000070: 5a64 fdba 1bbd b63b f3a3 04bc 0a78 48bc

running_var f4 [32]
0.18093298 0.029893972 0.03287411 0.844736 0.013740427 0.0043487377 0.00043226653 0.0013759013
0.26141486 0.08248176 0.00018336784 0.0005286151 0.0055013746 0.033998974 0.7391765 0.6204261
0.0008835643 0.000208619 0.006931052 0.14731401 0.20192379 0.045668103 0.041369006 0.026721112
0.09268628 0.020082343 0.0030819904 0.006737177 0.14779636 0.430657 0.034030076 0.06253612
00000000: 7f46 393e 34e4 f43c 01a7 063d 9e40 583f
00000010: 871f 613c db7f 8e3b d5a1 e239 9657 b43a
00000020: 2bd8 853e 32ec a83d 6e46 4039 c292 0a3a
00000030: e044 b43b 8242 0b3d ac3a 3d3f 3fd4 1e3f
00000040: ff9e 673a bdc0 5a39 e11d e33b 7cd9 163e
00000050: 1cc5 4e3e 7a0e 3b3d 8c72 293d 3ce6 da3c
00000060: 4ed2 bd3d ba83 a43c 38fb 493b 89c3 dc3b
00000070: ee57 173e 137f dc3e 1f63 0b3d f012 803d

weight f4 [32, 32, 1, 15]
-0.025937969 -0.049054712 0.013966563 -0.01519857 0.09959189 0.048689462 -0.021661025 -0.019750029
-0.07999805 -0.047456957 -0.07035809 0.014121469 0.044325877 0.071664095 0.00097563915 0.12920518
0.045847468 -0.046011433 -0.16171458 -0.2153769 -0.120153956 -0.22952636 -0.21255794 -0.030828055
-0.015166273 0.13055556 0.18785158 0.3013474 0.2121056 0.30312622 0.12773634 0.070758834
0.043104373 0.07943216 0.0569926 -0.016754705 -0.008183645 -0.033413365 -0.049939424 -0.053809628
-0.055299014 -0.1383946 -0.0958225 -0.034899797 -0.08323451 0.07586863 0.017148936 -0.04287152
0.04459737 0.10052048 0.009922404 0.093394764 0.092558466 0.10755629 0.18049982 0.15825477
0.104390085 0.071444094 -0.006225438 -0.0026857774 0.10455593 0.13429677 0.060567576 0.031535953
0.055020425 0.055625454 -0.013895414 -0.07097398 -0.105556704 -0.06705125 -0.0639274 -0.07750454
-0.042796567 -0.022683358 -0.006846604 0.027902339 0.05660482 0.057872716 -0.046900567 -0.1171952
-0.19703364 -0.18106085 -0.26530567 -0.19495313 -0.16773498 -0.03898914 -0.013804514 0.016986921
0.04348477 -0.006557842 0.14477584 0.0201489 -0.005674842 -0.010463283 0.029631555 0.05198544
0.02450258 0.025031632 0.019001426 0.03615247 0.01807884 0.009998363 0.073468655 0.014909575
0.03282283 0.028524937 0.062936835 0.106131874 0.07488121 0.05883067 0.074150614 0.034334734
-0.025236486 0.009633475 0.069005765 0.10740089 0.064234056 -0.07375016 -0.113067314 -0.09298725
0.10875322 0.10196549 -0.010617719 0.05009587 0.018503828 -0.001635012 -0.115488485 -0.08200914
-0.061681937 -0.15337217 -0.1495092 -0.14093058 0.06399899 -0.0065426803 -0.0011614304 -0.09730099
-0.094378844 -0.013453791 -0.030394422 -0.0668608 -0.08626582 -0.0845131 -0.11364572 -0.029364502
-0.034513723 -0.094797134 -0.007220028 -0.03204233 -0.037607815 0.032439873 0.08162749 0.038037617
0.0075727943 -0.012941337 0.007873564 -0.014366573 -0.019430326 -0.019473132 -0.036359053 -0.07448455
-0.007696537 0.013012351 0.015590809 0.083392344 0.052750036 0.1581648 0.11194317 0.094414786
0.060334966 0.0905861 0.0032904511 -0.033269353 0.016620843 -0.02074022 -0.02043073 0.041324742
0.037979234 0.014308768 0.09826148 0.106048614 -0.108091414 -0.114090316 -0.09754674 -0.0737188
0.020744698 0.026790118 0.07139499 -0.06260652 -0.107939295 -0.006971409 -0.010049999 0.04622171
-0.011369467 -0.0038175085 -0.05113086 0.14625621 -0.056438893 0.011874235 -0.071959406 0.024697198
0.12732472 0.15417066 0.14483292 0.09322387 0.27694696 0.19595043 0.26246828 0.27846584
0.2853152 0.2900247 -0.011897023 0.0031205511 -0.0014716535 -0.0071324883 0.009435069 -0.050649624
-0.036575567 -0.11249538 -0.009319182 -0.041780703 -0.016975738 0.025340622 0.015770251 0.019551769
0.11502538 -0.031459372 0.06227078 -0.026958408 -0.009750702 0.00043280658 -0.029555706 -0.047492288
-0.05285668 0.039173003 -0.05761671 -0.09360549 0.02117434 -0.0013470345 0.07378739 0.006390931
0.05910596 -0.03351363 -0.08109681 -0.10353001 -0.054562215 -0.08375194 -0.08515189 -0.0060675438
0.031042943 0.0053223614 0.023355734 0.07793785 0.0010702251 0.06793042 0.091501236 0.0819653
00000000: dd7b d4bc 98ed 48bd 03d4 643c 6c03 79bc
00000010: d5f6 cb3d 9a6e 473d 7672 b1bc d0ca a1bc
00000020: 05d6 a3bd 3a62 42bd e717 90bd bc5d 673c
00000030: 0d8f 353d a0c4 923d 09c2 7f3a 5d4e 043e
00000040: 8eca 3b3d 7c76 3cbd 8298 25be c38b 5cbe
00000050: 4713 f6bd f508 6bbe caa8 59be 1e8b fcbc
00000060: f67b 78bc 5bb0 053e 2a5c 403e 354a 9a3e
00000070: 3632 593e 5c33 9b3e 51cd 023e 02ea 903d
00000080: 368e 303d 54ad a23d 1371 693d 2a41 89bc
00000090: b214 06bc 74dc 08bd 488d 4cbd 7c67 5cbd
000000a0: 3881 62bd 50b7 0dbe 963e c4bd 17f3 0ebd
000000b0: db76 aabd 0361 9b3d ed7b 8c3c 0c9a 2fbd
000000c0: bbab 363d aedd cd3d 9491 223c c145 bf3d
000000d0: 4b8f bd3d 7946 dc3d f2d4 383e 8a0d 223e
000000e0: 78ca d53d 4851 923d c2fe cbbb de03 30bb
000000f0: 6b21 d63d 1885 093e b515 783d d82b 013d
00000100: 195d 613d 84d7 633d 97a9 63bc ce5a 91bd
00000110: 1d2e d8bd 2a52 89bd 5eec 82bd b3ba 9ebd
00000120: 744b 2fbd 73d2 b9bc 7a59 e0bb 7293 e43c
00000130: 75da 673d f10b 6d3d cf1a 40bd 0904 f0bd
00000140: 30c3 49be 0468 39be 25d6 87be cba1 47be
00000150: b8c2 2bbe 14b3 1fbd 542c 62bc 2828 8b3c
00000160: 161d 323d 2ae3 d6bb 1e40 143e 4e0f a53c
00000170: 06f4 b9bb 316e 2bbc e0bd f23c afee 543d
00000180: a2b9 c83c 230f cd3c e1a8 9b3c 9d14 143d
00000190: 131a 943c 2dd0 233c bc76 963d 4a47 743c
000001a0: 3b71 063d 21ad e93c 07e5 803d ab5b d93d
000001b0: 525b 993d 6ef8 703d 47dc 973d 94a2 0c3d
000001c0: bfbc cebc b9d5 1d3c e552 8d3d fff4 db3d
000001d0: 258d 833d 530a 97bd d68f e7bd 1970 bebd
000001e0: 02ba de3d 48d3 d03d f1f5 2dbc 5431 4d3d
000001f0: 5795 973c e64d d6ba 3a85 ecbd 68f4 a7bd
00000200: 33a6 7cbd 980d 1dbe f118 19be 1b50 10be
00000210: e711 833d fb63 d6bb 233b 98ba be45 c7bd
00000220: b249 c1bd 4a6d 5cbc b9fd f8bc 51ee 88bd
00000230: 22ac b0bd 3415 adbd 16bf e8bd d38d f0bc
00000240: 435e 0dbd 0025 c2bd fc95 ecbb d13e 03bd
00000250: a70a 1abd acdf 043d 502c a73d 55cd 1b3d
00000260: 3425 f83b e707 54bc 1f00 013c c661 6bbc
00000270: 592c 9fbc 1e86 9fbc 3bed 14bd 5b8b 98bd
00000280: 3b33 fcbb c131 553c 9870 7f3c 9bc9 aa3d
00000290: 6c10 583d f4f5 213e 7642 e53d 8a5c c13d
000002a0: cc21 773d 3585 b93d 9ca4 573b 7245 08bd
000002b0: 6f28 883c 65e7 a9bc 595e a7bc 2244 293d
000002c0: 1d90 1b3d 536f 6a3c 513d c93d 0430 d93d
000002d0: 085f ddbd 2fa8 e9bd 96c6 c7bd e2f9 96bd
000002e0: c9f0 a93c f376 db3c 8937 923d d937 80bd
000002f0: 470f ddbd 6b70 e4bb c0a8 24bc fa52 3d3d
00000300: 0047 3abc 2a2f 7abb 986e 51bd 30c4 153e
00000310: 782c 67bd 278c 423c 745f 93bd c751 ca3c
00000320: 6961 023e eade 1d3e 154f 143e 28ec be3d
00000330: fecb 8d3e 3ba7 483e 3e62 863e 1393 8e3e
00000340: d514 923e 1e7e 943e bbeb 42bc 2982 4c3b
00000350: 7fe4 c0ba a6b7 e9bb 8c95 1a3c fb75 4fbd
00000360: 43d0 15bd fa63 e6bd 7baf 18bc 3e22 2bbd
00000370: b410 8bbc 2397 cf3c 9d30 813c 082b a03c
00000380: 6d92 eb3d 8bdb 00bd a50f 7f3d e1d7 dcbc
00000390: 69c1 1fbc 51ea e239 cf1e f2bc 4687 42bd
000003a0: 3f80 58bd df73 203d 80ff 6bbd 3cb4 bfbd
000003b0: cf75 ad3c fa8e b0ba d81d 973d 046b d13b
000003c0: 1719 723d 9745 09bd 1616 a6bd 8b07 d4bd
000003d0: a17c 5fbd 2386 abbd 1d64 aebd 3fd2 c6bb
000003e0: c54d fe3c 3467 ae3b 8654 bf3c e19d 9f3d
000003f0: cc46 8c3a 1b1f 8b3d 0065 bb3d 6cdd a73d

weight f4 [32]
0.79460526 1.1525109 0.60769665 1.0292885 1.0401816 1.4740646 1.1293122 1.1672945
0.6887521 0.9522633 1.1676121 0.99707353 1.0778477 0.6058592 0.91610813 1.0328833
0.68750095 1.132529 0.8462332 0.9176836 1.3568265 1.0813215 1.1345018 0.84750485
1.4061977 0.92258143 1.2946814 0.9249934 1.1723968 1.1792033 1.0206088 0.81952244
00000000: 406b 4b3f 7a85 933f 0292 1b3f babf 833f
00000010: ac24 853f 26ae bc3f 4d8d 903f e869 953f
00000020: 0f52 303f 87c7 733f 5074 953f 3640 7f3f
00000030: eaf6 893f 9719 1b3f 1086 6a3f 8535 843f
00000040: 1000 303f b6f6 903f bda2 583f 50ed 6a3f
00000050: 7eac ad3f be68 8a3f 5b37 913f 14f6 583f
00000060: 49fe b33f 4c2e 6c3f 1fb8 a53f 5ecc 6c3f
00000070: 1911 963f 22f0 963f 4fa3 823f 39cc 513f

bias f4 [32]
-0.17829242 -0.24901737 -0.06580657 -0.060118467 -0.10990908 -0.37218195 -0.10640758 -0.058995787
-0.16145565 -0.15752845 -0.17950925 -0.11762276 -0.19456588 -0.31543133 -0.05321872 -0.19634834
-0.013507018 -0.29562688 -0.10111667 -0.17231396 -0.23326969 -0.32162166 -0.14618489 -0.052517444
-0.28966537 -0.12780762 -0.16545907 -0.05157749 -0.21780935 -0.27418745 -0.19915533 -0.16889091
00000000: 4a92 36be 69fe 7ebe 98c5 86bd c83e 76bd
00000010: 0318 e1bd a28e bebe 38ec d9bd 91a5 71bd
00000020: a154 25be 234f 21be 46d1 37be 34e4 f0bd
00000030: 473c 47be 3780 a1be dffb 59bd 8a0f 49be
00000040: 8a4c 5dbc 685c 97be 4216 cfbd 1273 30be
00000050: 40de 6ebe 98ab a4be 7eb1 15be 881c 57bd
00000060: 054f 94be 00e0 02be 1a6e 29be eb42 53bd
00000070: 6a09 5fbe 4c62 8cbe 60ef 4bbe bdf1 2cbe

running_mean f4 [32]
-0.26841643 -0.13599226 -0.18119831 0.103410475 0.41018566 -0.3415943 -0.08999718 -0.77667254
-0.17397363 -0.50477326 -0.47474104 -0.39496672 0.045015693 0.51201534 -0.72606605 -0.6734813
0.3209823 -0.29482138 -0.34382263 -0.67723835 -0.21003997 -0.3282546 -0.35404888 -0.32172704
-0.43978915 -0.22902776 -0.41561294 -0.5532524 -0.43013194 -0.7616261 -0.48540264 -0.32906553
00000000: e16d 89be 8e41 0bbe 0d8c 39be dfc8 d33d
00000010: db03 d23e 73e5 aebe 7150 b8bd 03d4 46bf
00000020: 2526 32be d238 01bf 4211 f3be 1439 cabe
00000030: 6062 383d 7013 033f 77df 39bf 4569 2cbf
00000040: cb57 a43e d4f2 96be 8509 b0be 7e5f 2dbf
00000050: b814 57be fd10 a8be e545 b5be 68b9 a4be
00000060: 0b2c e1be 4186 6abe 38cb d4be f3a1 0dbf
00000070: 413a dcbe eef9 42bf b286 f8be 477b a8be

running_var f4 [32]
0.33195046 0.25087517 0.4068328 0.26618588 0.44204408 0.30920735 0.25293374 0.45567834
0.59594226 0.69199026 0.42110407 0.38535857 0.37159285 0.54548866 0.49164104 0.4490386
0.39844415 0.38112584 0.42301166 0.6191614 0.4853839 0.47332615 0.38976368 0.53577363
0.31698453 0.37086383 0.32123974 0.37904528 0.30007237 0.52743053 0.55071044 0.5459347
00000000: 69f5 a93e b672 803e 644c d03e 8449 883e
00000010: 9a53 e23e 6d50 9e3e 8880 813e ac4e e93e
00000020: ac8f 183f 4626 313f f49a d73e b84d c53e
00000030: 6b41 be3e 25a5 0b3f 60b8 fb3e 63e8 e53e
00000040: df00 cc3e ed22 c33e fc94 d83e 5d81 1e3f
00000050: 3d84 f83e ce57 f23e 1b8f c73e 7628 093f
00000060: cc4b a23e dde1 bd3e 8979 a43e 3912 c23e
00000070: 16a3 993e b005 073f 5cfb 0c3f 60c2 0b3f

weight f4 [2, 736]
0.12766545 0.07361832 0.34028655 0.03026157 0.03778433 -0.13325047 0.038751487 0.007395033
-0.071868695 -0.11809758 -0.18584071 -0.17808442 0.039980195 0.112257116 0.0015612557 -0.0019753969
0.07732185 -0.36768708 0.054630503 -0.036864825 -0.10219287 -0.020716969 -0.4805841 -0.15401636
0.0026004864 -0.21395716 -0.0126532735 0.1871133 0.10103324 0.06357111 0.074389935 0.188612
0.016170792 0.01706802 0.122213826 0.17067918 -0.27797887 0.011950298 0.13953076 0.16332617
-0.093800806 0.199727 -0.084758945 0.034910284 -0.035840992 0.042093717 0.21105771 0.12118924
0.11901917 0.36079833 -0.033951078 0.034792528 0.08290535 0.27158818 0.3022824 0.21648994
0.24269241 0.10157662 0.09110104 0.33755192 0.08847723 -0.02667484 -0.1554211 0.09289183
0.17783488 -0.017445307 0.019920433 0.07134616 -0.23591162 0.07925399 -0.13895296 -0.13820273
0.05019463 -0.37065142 -0.07124586 -0.31644896 -0.16567756 -0.030724147 -0.24633594 -0.29587638
-0.3516241 -0.2675699 0.07795068 -0.054504458 -0.007008219 -0.048719063 -0.062624685 0.0048108282
-0.022505065 0.01145267 -0.019285038 0.016527798 0.08615203 -0.10819865 -0.25731575 -0.22056662
-0.23449998 -0.2600477 -0.30100936 -0.22874868 -0.16461089 -0.37910032 -0.29087317 -0.24417764
-0.27447578 0.03264541 0.032906342 0.025734035 0.062659174 -0.009180909 -0.022789488 0.0067909663
0.04259921 0.029330222 0.035306633 0.049682457 0.27535257 0.06800606 0.1017122 -0.21145155
0.18736868 0.00860088 -0.15160027 0.009601368 -0.2373574 -0.05528153 -0.13309534 -0.095645644
0.2914391 -0.103091575 0.014867266 0.08955345 -0.10224245 -0.12587292 -0.09500467 -0.27696222
-0.0181491 0.056708433 0.14559725 -0.009466701 0.051800467 -0.061558776 -0.23994182 0.021718947
-0.1924826 -0.16670938 0.16279215 0.14065492 0.041400712 0.19208157 -0.41293463 0.16922948
-0.06240762 0.082174905 0.054280583 -0.037036747 0.07633247 0.08421975 -0.00939711 -0.045662485
0.17431079 0.17107877 0.05684625 0.059958003 0.045065105 0.030668832 0.10244253 0.016069949
0.013964861 -0.03644156 0.020619692 0.04329745 -0.006030324 -0.04691993 -0.17788868 0.23064624
0.13945343 0.29424408 -0.0029936745 0.24544258 0.045065526 0.11823649 -0.085541956 0.00861187
-0.34738502 -0.1632781 -0.37480715 -0.1736687 0.07301927 0.10284756 0.44122154 0.14645323
0.2468919 0.28690192 -0.24736659 0.09967439 -0.056562684 0.031965785 -0.21418227 0.08086845
-0.015601092 0.20423134 0.12930344 -0.18671477 0.19745795 0.040317804 -0.050154053 -0.23614012
0.12969658 0.010136815 -0.1418138 -0.022913292 0.011385918 0.08371082 0.086395614 0.14223309
0.047679428 0.18524839 -0.028926285 0.16702604 0.16399735 0.16329695 0.038548004 -0.044090725
-0.26360172 -0.16744037 -0.22148967 -0.0071479413 -0.1716519 -0.1027619 0.28668055 0.27909964
0.19088174 0.26545697 -0.068485886 0.20061041 0.021976579 0.037510004 0.107666664 -0.038154464
-0.05856861 -0.10860278 0.091217 0.10956253 0.0027704376 -0.11240552 -0.03430659 -0.008251719
0.047953293 0.044974 0.041308917 -0.016732257 -0.23118447 0.24357553 0.36574048 0.03762572
00000000: bbba 023e 34c5 963d 0a3a ae3e 1de7 f73c
00000010: bec3 1a3d d072 08be e1b9 1e3d 0852 f23b
00000020: e52f 93bd 25dd f1bd 074d 3ebe c35b 36be
00000030: 46c2 233d 0fe7 e53d 0ca3 cc3a a975 01bb
00000040: eb5a 9e3d 7b41 bcbe 3cc4 5f3d 92ff 16bd
00000050: 7f4a d1bd a2b6 a9bc 1f0f f6be 77b6 1dbe
00000060: ec6c 2a3b 9617 5bbe ad4f 4fbc a19a 3f3e
00000070: 84ea ce3d 9231 823d c059 983d 8123 413e
00000080: 9c78 843c 3bd2 8b3c 3e4b fa3d 86c6 2e3e
00000090: 3f53 8ebe 2fcb 433c 27e1 0e3e fa3e 273e
000000a0: a31a c0bd 3c85 4c3e 1996 adbd 16fe 0e3d
000000b0: 01ce 12bd 766a 2c3d 831f 583e 1032 f83d
000000c0: 53c0 f33d 8fba b83e 4910 0bbd 9c82 0e3d
000000d0: 48ca a93d 9b0d 8b3e c2c4 9a3e 8aaf 5d3e
000000e0: 5c84 783e 6707 d03d 2f93 ba3d 9bd3 ac3e
000000f0: 8d33 b53d 3285 dabc b526 1fbe 123e be3d
00000100: 591a 363e 76e9 8ebc 2d30 a33c ef1d 923d
00000110: d192 71be ea4f a23d af49 0ebe 0485 0dbe
00000120: e298 4d3d 06c6 bdbe 59e9 91bd 9905 a2be
00000130: 61a7 29be 35b1 fbbc 7d3f 7cbe 1c7d 97be
00000140: 1308 b4be ecfe 88be 9ba4 9f3d 1140 5fbd
00000150: 34a5 e5bb a48d 47bd 5f41 80bd 27a4 9d3b
00000160: 8b5c b8bc fba3 3b3c a8fb 9dbc 4e65 873c
00000170: 7a70 b03d 4197 ddbd e4be 83be 37dc 61be
00000180: c320 70be f924 85be e61d 9abe 183d 6abe
00000190: c28f 28be 7019 c2be 54ed 94be b409 7abe
000001a0: 1788 8cbe 32b7 053d cdc8 063d 2fd0 d23c
000001b0: 7453 803d 866b 16bc 05b1 babc c186 de3b
000001c0: 827c 2e3d ef45 f03c b09d 103d d57f 4b3d
000001d0: 03fb 8c3e c346 8b3d 7c4e d03d c186 58be
000001e0: 93dd 3f3e b5ea 0c3c 1a3d 1bbe 0e4f 1d3c
000001f0: d10d 73be e36e 62bd 254a 08be dde1 c3bd
00000200: 8137 953e ad21 d3bd d595 733c cd67 b73d
00000210: 7d64 d1bd d5e4 00be cf91 c2bd fecd 8dbe
00000220: 6cad 94bc 1a47 683d 7217 153e 391a 1bbc
00000230: ba2c 543d 0e25 7cbd 4fb3 75be efeb b13c
00000240: 291a 45be ddb5 2abe fcb2 263e d807 103e
00000250: cb93 293d 08b1 443e 2b6c d3be 7e4a 2d3e
00000260: 229f 7fbd 514b a83d 5155 5e3d d8b3 17bd
00000270: 3354 9c3d 677b ac3d 56f6 19bc 9608 3bbd
00000280: 877e 323e 462f 2f3e 9dd7 683d 8696 753d
00000290: 3096 383d 343d fb3c 64cd d13d 20a5 833c
000002a0: dfcc 643c bf43 15bd a1ea a83c ab58 313d
000002b0: 069a c5bb 1d2f 40bd 7328 36be 872e 6c3e
000002c0: e1cc 0e3e 29a7 963e 8631 44bb 4d55 7b3e
000002d0: a196 383d f925 f23d 9f30 afbd cd18 0d3c
000002e0: 73dc b1be 6032 27be b9e6 bfbe 35d6 31be
000002f0: 218b 953d bea1 d23d cae7 e13e d6f7 153e
00000300: 3bd1 7c3e cfe4 923e ab4d 7dbe 1622 cc3d
00000310: 46ae 67bd 8eee 023d 9952 5bbe 5c9e a53d
00000320: b99b 7fbc 0522 513e 1f68 043e 2832 3fbe
00000330: 6b32 4a3e 4824 253d 566e 4dbd b7ce 71be
00000340: 2ecf 043e e214 263c a337 11be a8b4 bbbc
00000350: 008c 3a3c 9470 ab3d 2ff0 b03d 8da5 113e
00000360: 814b 433d c1b1 3d3e d1f6 ecbc e008 2b3e
00000370: ecee 273e 5137 273e 83e4 1d3d 7a98 34bd
00000380: cef6 86be 7d75 2bbe 30ce 62be 4739 eabb
00000390: 84c5 2fbe d574 d2bd cbc7 923e 26e6 8e3e
000003a0: 8176 433e fae9 873e 5442 8cbd d16c 4d3e
000003b0: 3a08 b43c 17a4 193d 5780 dc3d db47 1cbd
000003c0: a4e5 6fbd 226b debd facf ba3d 5262 e03d
000003d0: 3b90 353b de34 e6bd 1185 0cbd 3832 07bc
000003e0: ac6a 443d a836 383d 8a33 293d 1612 89bc
000003f0: 9fbb 6cbe dd6b 793e 5642 bb3e 6d1d 1a3d

bias f4 [2]
0.019374251 0.021616949
00000000: c0b6 9e3c 0716 b13c
