HW2/LeakyReLU_DeepConvNet.pkl (torch_old, 637611 bytes, 28 tensors)

weight f4 [25, 1, 1, 5]
00000000: 6f81 d43e 1673 a7be eede dbbe 963e b6bd
00000010: 97a2 2abe 4c40 e5be 7163 033e 3620 c33e
00000020: 0984 733e 5d31 d7be 64eb 4bbe 3240 bd3e
00000030: 1152 e53e c030 19be 5d97 8abe 5460 93be
00000040: fe45 89bd 5f17 5ebe 0367 95be 45df f83d
00000050: 28eb 123e ff18 7bbe 5a69 943e e491 9a3e
00000060: 0311 2c3e ca57 b33e 42ca 6dbe 896b 9e3d
00000070: 0b1b c0bd 057e 2cbe 2045 c83e 50c2 ab3e
00000080: 9868 5a3e 6d3c 41be 2c37 c03e 1d10 fa3d
00000090: 7818 81be 7d11 943e bd0f 1ebe 5e82 bfbd
000000a0: a3c3 ce3e 9537 863d 0e01 c4be 37d0 cf3d
000000b0: a6ae 3abd 12bd 013e 2c33 af3e 3ca6 923d
000000c0: b390 683e adb1 1dbe 54e5 7d3e c9f1 4abe
000000d0: b869 adbe d536 d0be d1fc 463e 6fcb da3d
000000e0: 9674 c23c eb8f 88bc aa87 063e 7167 de3d
000000f0: 40c2 ce3e 15a2 363e 9b95 b53e bcb1 c3be
00000100: 9124 e43e e344 cb3e aa34 593d 592a bbbe
00000110: 59ca 203e 3519 b73d 9f12 c33d 4cff fa3d
00000120: 16b5 d4be c937 9bbe d9fa 543e 3298 a5be
00000130: 3973 b43e 75a7 933d 08e3 35be 9e1c ad3d
00000140: 9354 6c3e 638b f7bd baf5 44be e33a c6bc
00000150: a779 2ebe e167 163e c4b0 203e f9e6 a1be
00000160: 1371 4c3e ea3e c6be 1b0b 86bd 1f51 c53e
00000170: 84fd bb3e 3a5f 83be 2065 b9be 177a ef3d
00000180: 8a27 863e 0bbf 8abe cd96 b63e 3a81 b2be
00000190: 6347 293e 0f5e 883e fc46 f7bd 1950 ff3d
000001a0: d968 a63e b3f6 203d 5707 1bbb 2c24 ab3e
000001b0: 03e3 16bd a677 6f3e a8fa a53d 896e d4bd
000001c0: 5c02 bcbe 1037 86be f684 623e 0ed6 55bd
000001d0: 55d8 41bd 0f37 91bd 4d6b a1bd ab5f 303e
000001e0: a8da 8e3d 2d39 8bbe 4162 8c3d 9ec3 5f3e
000001f0: a7f0 3b3e
0.41505 -0.3270499 -0.4294352 -0.08898656 -0.16663586 -0.44775617 0.12830903 0.38110512
0.23780836 -0.4202985 -0.19914013 0.3696304 0.44789174 -0.14960003 -0.27068606 -0.2878443
-0.06702803 -0.21688603 -0.29180154 0.1215196 0.14347517 -0.24521254 0.28986627 0.3018943
0.16803364 0.35027915 -0.23221686 0.077353545 -0.09380158 -0.16844948 0.39115238 0.33546686
0.21328962 -0.18870707 0.37542093 0.122101046 -0.2521398 0.28919592 -0.15435691 -0.093510374
0.40383634 0.0655357 -0.38282055 0.10147136 -0.045576714 0.12669781 0.3421873 0.07160613
0.22711448 -0.15399809 0.24794513 -0.19818796 -0.3386972 -0.40666834 0.1943238 0.10683333
0.023737233 -0.016670188 0.13137689 0.10859574 0.40382576 0.17835267 0.35465702 -0.38221538
0.44559148 0.39700994 0.05302874 -0.36555746 0.1570219 0.08940355 0.09525036 0.12255725
-0.41544408 -0.30315998 0.20798816 -0.32342678 0.35244158 0.07209674 -0.17762387 0.08452724
0.23079138 -0.12087133 -0.19234362 -0.024198001 -0.17038594 0.14688064 0.1569243 -0.3162153
0.1996501 -0.38719875 -0.06545087 0.38538453 0.36716855 -0.2565859 -0.36209965 0.11693209
0.2620204 -0.2709888 0.35661927 -0.34864217 0.16531138 0.2663426 -0.12074086 0.12466449
0.32501867 0.03929777 -0.0023655498 0.33426034 -0.03683759 0.23385486 0.081044495 -0.103726454
-0.3672055 -0.26213884 0.22121033 -0.05220609 -0.04732545 -0.0709058 -0.07881794 0.17223994
0.06975299 -0.2719206 0.06854678 0.21851966 0.1835352

bias f4 [25]
00000000: 1ad1 0d3e 76b9 a9be 2143 ba3e c2c5 823e
00000010: 71ee 97be ae31 a43e 6db3 353e 2b68 66bc
00000020: 7c72 01be d010 bd3c 23d2 943d 31e9 04be
00000030: 43c9 af3e ec0c 8cbe 3384 44bd 8452 213e
00000040: b9e4 e0bd d0e1 47be 7e77 90bd 2eaa 373d
00000050: 75f3 523e 4f50 973e e2b6 47be 3cbb d9bd
00000060: 9c00 64be
0.13849297 -0.33149308 0.3637934 0.25541502 -0.29674104 0.32069153 0.17744227 -0.0140629215
-0.12641329 0.023079306 0.07266643 -0.1297958 0.34333238 -0.2735361 -0.047977637 0.15754133
-0.109811254 -0.19519734 -0.07054041 0.04484003 0.20600684 0.29553458 -0.19503358 -0.10631415
-0.22265857

weight f4 [25, 25, 2, 1]
00000000: e44b 20be 066d 563c a97a 6f3e 1485 913b
00000010: d448 253c 9613 2abd 4478 0e3d 8c7c 5d3d
00000020: 00dd 97bd 93e3 163d acac c2bd 47c3 88bd
00000030: 1f84 67bd 26c6 983d fdc5 fe3d 52c3 273e
00000040: 0c14 73bd 1527 df3d dcc9 a6bd 364d b9bc
00000050: 8ce1 80bd 9994 c23d 3dd1 e93d 1ff9 c23c
00000060: 11fb ccbd 122d 4cbd 63c8 67be de21 dabb
00000070: 0cab 093c bc08 15bd 80b2 d23d bba2 2a3d
00000080: 1b22 003d 4945 13bd 4c84 f03d 71a5 6bbc
00000090: a728 143e ccaf c0bd 1910 e23d cf7b bfbd
000000a0: 406a 1bbd b73b fb3d c790 f33d f7f9 fb3d
000000b0: bdfb 08be 4b6b a6bd 3034 f2bc 4954 b93d
000000c0: 780a 9fbd 835f 06be 47ba 043e ade6 94bc
000000d0: aa13 ba3d 49d6 1b3d 7bd7 e13d 2fc9 2abb
000000e0: a1ec f73c f3eb 7c3b bc76 873d 73c1 3abd
000000f0: e56c 8abc 8cad 8bbb 1490 41bd 7872 18be
00000100: 8ba7 c2ba c4c3 eb3d c989 323d 8930 b33d
00000110: 5525 d63c 7816 28be 2428 8fbd 4685 163e
00000120: cc00 75bd b58f cf3c de2a b43d a563 1bbe
00000130: b107 093e ca0e d1bd c749 88bd 832a c7bd
00000140: 531b 9c3d 5ed5 32bc 804a 45bd 8a20 163e
00000150: f6ec bb3c 427a bbbd 315a 4a3b 05ca 95bd
00000160: f319 3f3d beff 6c3d 78bd fb3d af5c 0b3c
00000170: 504c e03d 49f6 eebd 4c90 a93a 9452 2b3e
00000180: b041 0abc 56ef 7ebc a540 abbd ec83 e73d
00000190: 2308 fcbd c4b6 5b3d d46c c83d ef59 c2bd
000001a0: 0920 663c 609b 893d 8d8c 013e 3c67 383e
000001b0: 3791 30bd 1e86 37be ce2c 28bd 55fd 193d
000001c0: dfd8 83bd c840 7e3d 2741 b23c abf6 23bc
000001d0: 8814 09be 3e89 1cbe 835f 24bd e3c0 d03b
000001e0: dbfb f1bd fa3f a43d 7756 b2bc c6db f33c
000001f0: fac0 8f3d 6134 ff3c 2ce6 c93d 666c 11bd
00000200: 866d eabd e750 f43c 42a9 c5bd ed85 3b3e
00000210: 7991 023e 8779 3dbd cf41 613b 76b6 a7bc
00000220: ef50 273d 2944 5d3d 0131 a6bd 5196 0cbe
00000230: 9c43 5d3d c05c ee3d 1d7f dd3d 17b6 d1bd
00000240: 82b3 d13d c823 2c3e a34f 313d fefe ab3d
00000250: 3c3d 1b3c bbad 1cbe 6158 e4bd d8a0 1d3e
00000260: d97f bfbd 730d 0e3e 78c7 7d3d 35b6 08bd
00000270: a9a5 643b d844 973d d51a 303e 85ce dcbd
00000280: 3125 2cbd 67fa 983d 67a2 a9bc b9e2 15bd
00000290: 3ed1 e0bd 73cc 4bbd d685 23bd d3bc 12bd
000002a0: be80 bb3d 33b3 e1bd 0df6 073d 69d1 0b3d
000002b0: e809 31bd c0e5 08be e509 373e 35f4 c3bc
000002c0: 1c90 bd3d 8360 75bc 061e bdbc bc43 1cbe
000002d0: ec57 92bd bb97 8fbd f102 27be 27bd 99bd
000002e0: e6e5 09be d21b 323d dbe9 103b 12c1 eabd
000002f0: 5a1a 073e 0ab9 a7bc 1f49 68bd 8908 09be
00000300: a08a 48bb 4f4c 8abd 9778 c23d c3fe cbbd
00000310: bbb8 26bc 9da3 e23b 416e ec3d 9b3b edbd
00000320: b799 143e a8a8 eabd b8a3 f03d a0cd 273e
00000330: e54d c53d 4145 ff3a 1538 2fbc 4893 bd3d
00000340: baf5 43bd 21b7 15bd ebae 1e3e f663 6cbd
00000350: b791 063d 0993 d5bd c4dc 513e eb11 77bd
00000360: 6b1c 163e 9ea4 91bd 76bb 183e a45b efbd
00000370: 5c0d d4bd 635b ad3c e4ce eabd 6b2e d2bd
00000380: c5bc 883d a578 723b 9ef5 733c 2ba7 473d
00000390: 6716 c03d f082 b1bd 29d7 5fbe eaac 93bd
000003a0: f6ed c43d cf65 e43d 30b4 043e f2db 1bbd
000003b0: 2b4a 743c 5b44 93bd 1ffc 3bbb 07d9 64bd
000003c0: 1249 0c3d 38fd 49bd 9e8d 23be 65b7 f63c
000003d0: fca1 b13d 37c1 1bbe 713b 1bbe 8e9e b83c
000003e0: 54d6 9c3d d30b fc3d efbe b93d 60e6 88bd
000003f0: da43 293e 2310 08be 2596 7d3b 020c e4bd
-0.1565395 0.013087517 0.23386635 0.004440913 0.010088164 -0.041522585 0.034782663 0.054073855
-0.07415199 0.036838125 -0.09505591 -0.06677871 -0.056522485 0.07459669 0.12440107 0.16383103
-0.05934529 0.10896126 -0.0814397 -0.022619825 -0.0629302 0.09500999 0.11416862 0.02380043
-0.100088246 -0.04984767 -0.22635035 -0.0066568693 0.008402597 -0.036385283 0.102879524 0.041659098
0.031282526 -0.035954747 0.117439836 -0.014382706 0.14468633 -0.094085306 0.11038227 -0.093497865
-0.037943125 0.12267249 0.118928485 0.123035364 -0.1337728 -0.08125933 -0.0295659 0.09049279
-0.07765669 -0.13122372 0.12961684 -0.018176401 0.09085782 0.038046155 0.11027428 -0.0026059856
0.0302642 0.0038592785 0.06614444 -0.045594644 -0.016897628 -0.0042626318 -0.047256544 -0.14887416
-0.0014850957 0.11511949 0.043588433 0.08749492 0.026140848 -0.16414821 -0.06990078 0.14699277
-0.059815213 0.02533708 0.08797239 -0.1517473 0.1338184 -0.10207899 -0.06654697 -0.09724905
0.07622399 -0.0109151285 -0.04816675 0.1466085 0.02294014 -0.09154178 0.0030876512 -0.07313923
0.046655606 0.057861082 0.12291998 0.008505984 0.109520555 -0.11668069 0.001293668 0.1673072
-0.008438513 -0.015559992 -0.08361939 0.11304459 -0.123062395 0.053641096 0.09786382 -0.0948981
0.014045724 0.067190886 0.12651272 0.18008131 -0.043107238 -0.17922255 -0.041058354 0.037595112
-0.06437849 0.0620735 0.021759583 -0.010007541 -0.13386738 -0.15286729 -0.04013015 0.00637065
-0.11815616 0.08020015 -0.021769745 0.029767882 0.07019229 0.031152906 0.09858355 -0.035503767
-0.11446671 0.029823733 -0.09651424 0.18312807 0.12750806 -0.046258476 0.00343715 -0.020472746
0.04084867 0.05402008 -0.081148155 -0.13729216 0.054019555 0.116387844 0.108152606 -0.10239809
0.102393165 0.16810524 0.043288838 0.08398245 0.009475049 -0.15300648 -0.111496694 0.15393388
-0.09350557 0.13872318 0.061957806 -0.03337689 0.003488878 0.07386178 0.17197736 -0.10781578
-0.042027656 0.074696355 -0.020707322 -0.036593173 -0.1097741 -0.049755525 -0.039922558 -0.035824608
0.09155415 -0.11020508 0.033193637 0.034135256 -0.043222338 -0.13368893 0.17874868 -0.023920158
0.09256002 -0.0149766235 -0.023085605 -0.15260214 -0.07145676 -0.07011362 -0.16309716 -0.07506781
-0.13466606 0.043483563 0.0022112045 -0.114626065 0.13193646 -0.020473976 -0.05671036 -0.13382162
-0.0030600205 -0.06752836 0.09495657 -0.09960701 -0.010175879 0.006916477 0.11544467 -0.115836345
0.14511763 -0.1145795 0.11749977 0.16387033 0.09633998 0.0019475595 -0.010694523 0.09256607
-0.047841765 -0.0365516 0.15496413 -0.057712518 0.03285381 -0.10428435 0.20494372 -0.060319822
0.14659278 -0.07111476 0.1491526 -0.11687401 -0.103541106 0.02116174 -0.114652425 -0.1026276
0.0667663 0.003699818 0.014890103 0.04874341 0.09379273 -0.086675525 -0.21859421 -0.07210715
0.096157 0.11152231 0.12959361 -0.038051553 0.014910261 -0.07190772 -0.0028684211 -0.055871036
0.034249373 -0.049313754 -0.15971991 0.030116746 0.08673474 -0.15210424 -0.15159394 0.022536542
0.07658067 0.12306943 0.09069621 -0.066845655 0.1652979 -0.13287406 0.003869423 -0.11135103

bias f4 [25]
00000000: 5c76 dcbd f7ca 0a3e e962 923d bd76 6ebd
00000010: 7ef9 cfbc b5ca 083e 115c 973b 3879 98bd
00000020: 1a2d 52bd fdf9 073d ea7e 33bd 2fb1 dbbc
00000030: 405c e0bd d165 54bd 7980 edbd a32c af3d
00000040: 3dab dc3b 0405 97bd 9903 cd3c c6bb 80bd
00000050: 8cf3 83bd b0dc df3c d596 a6bd 4953 90bd
00000060: 51d3 c83d
-0.10764763 0.13553987 0.07147772 -0.058218706 -0.025387522 0.13358577 0.0046191295 -0.07444996
-0.051312543 0.03319739 -0.043822207 -0.026817886 -0.10955095 -0.051854912 -0.1159677 0.08553436
0.0067342804 -0.073740035 0.02502613 -0.06285815 -0.06442937 0.027326912 -0.08134238 -0.070471354
0.098059304

weight f4 [25]
00000000: 06d8 ce3e 2137 073f 7ef5 f13e a3ad 4b3f
00000010: 9fde b43e b276 f83e f5ca bd3e d4ba 133f
00000020: 99eb 043f 244f 1a3f 8be6 313f d985 413f
00000030: 8410 033f 7fb7 a73e a4f1 623e dc3b d53e
00000040: 23b1 8c3e b07c 0d3f 0985 793e db41 fc3e
00000050: ab6a c23e bb2f 1d3f b67f 0a3f 97dd 4c3f
00000060: 308a c83e
0.40399188 0.52818495 0.47257608 0.79561824 0.35326096 0.48528057 0.37068906 0.5770695
0.51921993 0.6027701 0.69492406 0.7559486 0.51197076 0.32757184 0.22162491 0.41647232
0.27478895 0.55268383 0.24367155 0.49268994 0.37972006 0.61400956 0.5410112 0.8002562
0.3916793

bias f4 [25]
00000000: ecdb 12be ddde 7bbe 95fb 8abd f313 cfbd
00000010: b6ef 11be 9e87 d0bd bd56 d3bd 5003 2ebe
00000020: 29f2 17be 6de6 98be 2ac0 12be 8751 82be
00000030: a50a 51bd c0b0 9abd bb57 fdbc 07e1 87be
00000040: 63b5 25be 6312 afbe e0ea 9dbd 8619 28be
00000050: 7433 e3bd 96c7 36be e865 1cbe 72c3 9dbe
00000060: 9221 17be
-0.14341706 -0.24596734 -0.06786267 -0.10111227 -0.14251599 -0.10182117 -0.103192784 -0.16993451
-0.1483847 -0.298633 -0.14331117 -0.25452825 -0.051035542 -0.07553244 -0.030925622 -0.2653887
-0.16182475 -0.34193715 -0.077108145 -0.16415986 -0.11093798 -0.17849573 -0.15273249 -0.30813175
-0.147589

running_mean f4 [25]
00000000: a37b a0bd 165a dc3d 5c4e 963e aec8 743c
00000010: cdd5 07be 7fd1 ea3c 945d 933e 1069 55be
00000020: 2b7d c2be 0570 c2bd ec92 d0bc 02ec 38be
00000030: 6bbe 063d 305b ecbd 976e d4bc bf08 ad3d
00000040: 2dda 0bbe 152e 033d 33a3 703d aa15 07bd
00000050: a009 d63a 5e7f dd3c a0d8 27bd 8fb1 5bbe
00000060: cdda 243e
-0.07836082 0.1075937 0.29356658 0.014940424 -0.13265152 0.028664349 0.28782332 -0.2084086
-0.3798612 -0.09494022 -0.025460683 -0.1805878 0.03289644 -0.1154083 -0.02593164 0.08448934
-0.13657446 0.03202637 0.05874939 -0.032979645 0.0016329773 0.027038272 -0.040978074 -0.21454452
0.16099091

running_var f4 [25]
00000000: 1873 3140 d37a 1d41 d1f6 8540 b7ec c140
00000010: 0aea 6e40 2fc3 1c40 26e5 2b40 e41a bc40
00000020: 3864 0640 35f6 8140 7213 3141 bfeb 5c41
00000030: 1417 6d40 cfc4 2640 e622 e43f 2f23 f63f
00000040: 0dac 3840 3ae7 1c40 601b 8940 58f2 be40
00000050: 35f5 8c40 7da6 0941 ec26 0041 3e1e 2440
00000060: cdd0 fa41
2.7726498 9.842486 4.186379 6.060146 3.7330346 2.449413 2.685861 5.8782825
2.0998669 4.0613046 11.067247 13.807555 3.7045336 2.6057622 1.782315 1.9229487
2.8855011 2.451613 4.2845917 5.967083 4.4049325 8.603147 8.009502 2.5643458
31.351954

weight f4 [50, 25, 1, 5]
00000000: 3211 b9bc 388f cc3c 48b4 673c 1ce8 00bc
00000010: d50f 3dbc 71f0 17bc 0832 823d 831a 123e
00000020: ddbb 1abd 86ba 053e e70b 923d c4b9 663d
00000030: 4c8d b73c 4655 9c3c c505 e93b 0e96 263d
00000040: 0fca cd3d 9929 973d 2c06 e6bc 1752 8e3c
00000050: 76c2 79bd 3557 1f3d adb5 ea3b 7d5c 7e3d
00000060: 043a 94bc 3b96 5dbc fb2d ecbd 3974 1dbe
00000070: a6cd 16bd 7a78 c9bd 1a34 c8bd d6b4 febd
00000080: 2825 63bd 69f3 c33a 866f 68bc 335d 923b
00000090: e8b0 66bb f6bb 35bc d5de 393c af7b 3b3d
000000a0: 056a 963b c767 a93c 4b3a 733d bfbe a53d
000000b0: 7744 8c3d 8fa7 e43c b3e3 563d 08f6 653c
000000c0: d2dc a9bc 5255 283b 6e2e 55bd c28c c0bc
000000d0: 54ee 793c 9c56 373d e2ee 163d 51fd 073d
000000e0: 797d c43c 0ed9 923c 3a19 cb3d 4c7b 9fbc
000000f0: 091c e73b 7ed1 c43d b319 943d dd26 493d
00000100: 7a37 633c 795f f3bb 0e35 843d 29a5 d83d
00000110: a1b4 193d 871b bf3c fa81 a6bd 7b2c 1abe
00000120: 493b af3a 2aaf f1bb 1451 113d 2456 d6bc
00000130: 53db 143d 3282 d7bc d196 2bbd f83f 5dbd
00000140: e1c7 9b3c 5017 28bd 8ecc 0bbc 38f8 373c
00000150: f233 80bd 4825 03bd ddde 03bd af7f c5bd
00000160: 68c0 6dbd cc0b a4bd ab07 833c 42c5 59bd
00000170: bb70 bdbc f7b8 18bd c35f 8fbc 129c f9bc
00000180: cfce 65bc 0ef0 6bbd 4774 93bd c97b b1bc
00000190: a6a6 8cbd e46e 96bd 6b16 963d 66d1 9b3d
000001a0: ccff 53bb 2fdc 103e f536 0d3e 8895 043d
000001b0: 70e4 d43d 431e bfbc c35f df3c 395e cd3d
000001c0: a504 0d3c 9194 963c 3eb9 e43a 7632 adbc
000001d0: c0b9 f93c d364 393b 90fd e8bc ff69 613c
000001e0: b677 e13d 61b7 b83d 1c81 b13d 6d00 d03d
000001f0: f7c8 97bc a2b2 d73d d2c7 8cbc 53c2 6e3d
00000200: e22c 183c 5b2f 1ebc 7336 d7ba 5607 c0bd
00000210: be0a 46bd c860 fdbc 6d53 06bd 9437 66bd
00000220: 3db0 b6bd 0fd6 2fbc 21c1 d33c 43cf 87bb
00000230: 5685 babd 1c51 e3bd decc aebc fafc 82bd
00000240: 7e7c f9bb 757d 54bc 0e03 6abc 57df 563d
00000250: 9d11 3dbd a5ee a33c 0ce9 cf3d 3be7 42bd
00000260: 7026 033e cca6 e73d a1f8 263d 068b 11bd
00000270: db93 4e3d e40c b53b 192e 8a3d b45b a03d
00000280: 2c98 0bbd 0ec9 403d 21ce 96bc 4270 ae3d
00000290: ff3c ab3d 7551 92bd 3aa3 f3bd 6f0e edbd
000002a0: b835 3fbd 8fa8 20bd eede 8fbd e281 0abc
000002b0: 63ed a4bc bd72 d9bc 4092 7bbc a39c 8c3c
000002c0: 777f 093b ef2b be3c 7974 d23d 1a1a 3b3d
000002d0: 02cf 2d3d d491 da3c 54dc 4d3c a898 0c3c
000002e0: 5308 b23d a2b3 99bd cdfa 68bc 99f0 8bbd
000002f0: f3f0 82bd b86d 13bc 3820 f0bd 7b02 f8bd
00000300: 3947 23bd 45d2 56bd f451 a1bd 2d15 c3bd
00000310: 7602 3bbc 1b50 253c 3526 b5bc bb55 883d
00000320: 8acc 69bc 0e7a 1dbd 4c58 81bc a03a 11bd
00000330: 7074 b0bd 7894 bdbd 541b 4a3c ec26 183c
00000340: 1dfa 1cbd 49e6 83bd a0ad f9bc e3ed c6bc
00000350: 82e2 2cbd 17c2 27bd d337 acbd c95c fc39
00000360: 09f3 de3b 2960 3abd 1b3b 233e 70f6 503d
00000370: 8e9c a43c b861 a7bb 0375 fe3d 40ed f13d
00000380: 1553 e4bc b2c9 b9bd fd7c 14be b8fe 88bd
00000390: 86a5 82bd 93cc 7c3b d51d 26bd cabb 52bd
000003a0: 157c 4fbd fdea 89bc a1c1 2e3d 7aad 223b
000003b0: 5927 a73d 8a53 84bd d024 143c 735d 1f3d
000003c0: 053c 46bd 0da8 3ebd c105 c6bc d310 4cbd
000003d0: 05df 84bd b21c 9abc c706 8abd 97fa 84bd
000003e0: 03ce 9abc e394 ddbb 2b69 b6bc ecd2 88bd
000003f0: ca18 f7bc c2c2 c3bd ffd9 a3bd 37e8 73bd
-0.022591207 0.024970636 0.0141421035 -0.007867839 -0.011539419 -0.009273634 0.06357199 0.14267926
-0.037776817 0.13059434 0.071311764 0.056329504 0.022406243 0.01908363 0.0071112835 0.040670447
0.10048305 0.07380981 -0.028079115 0.017373128 -0.060976468 0.038901526 0.0071627707 0.062099922
-0.01809407 -0.013524587 -0.115322076 -0.15376367 -0.036817215 -0.09837432 -0.097755626 -0.124368355
-0.055455357 0.0014949861 -0.0141867455 0.0044666766 -0.003520066 -0.011092177 0.011344631 0.04577225
0.004590275 0.020679368 0.059381764 0.080930226 0.06848996 0.02791193 0.052463245 0.014035709
-0.020735178 0.002568562 -0.052046232 -0.023504619 0.015254576 0.04476033 0.03684891 0.033200566
0.023985611 0.017925765 0.09916921 -0.019467972 0.0070529026 0.0961027 0.07231464 0.04910933
0.013868207 -0.0074271527 0.06455432 0.10578377 0.037525777 0.023328556 -0.0813026 -0.1505603
0.0013369109 -0.0073756175 0.035477713 -0.026164122 0.036341976 -0.0263072 -0.041891877 -0.054016083
0.019016208 -0.041037858 -0.008532656 0.011228614 -0.06259908 -0.032017976 -0.03219496 -0.09643494
-0.05804482 -0.080100626 0.015994867 -0.053166635 -0.023125043 -0.03728577 -0.017501717 -0.030469928
-0.014026358 -0.05760198 -0.071999125 -0.02166547 -0.06867723 -0.073453695 0.07328495 0.07608299
-0.0032348512 0.14146493 0.13790496 0.032369167 0.103951335 -0.02332986 0.027267342 0.10027737
0.008607064 0.018381389 0.0017450226 -0.021142226 0.03048408 0.0028288856 -0.02844122 0.013758182
0.11009161 0.09019352 0.08667204 0.10156331 -0.018528445 0.105321184 -0.017185125 0.05829079
0.009288045 -0.009654845 -0.0016419425 -0.09376399 -0.04835009 -0.030929938 -0.032794405 -0.056205347
-0.089203335 -0.010732188 0.025848927 -0.0041445806 -0.09107463 -0.11099455 -0.021337923 -0.06395908
-0.0076137176 -0.012969364 -0.014282955 0.052459087 -0.046159375 0.020011256 0.10151872 -0.0475838
0.12807631 0.11311111 0.040764455 -0.035532974 0.050433975 0.0055252183 0.06747074 0.07829991
-0.03408067 0.04706674 -0.018408837 0.08517505 0.083612435 -0.07144443 -0.11896367 -0.115750186
-0.04668209 -0.03922325 -0.07024942 -0.008453818 -0.020132726 -0.02654397 -0.015354693 0.017164534
0.0020980516 0.023214309 0.10276122 0.04567919 0.042433746 0.026680864 0.012564737 0.008581318
0.08692994 -0.07504965 -0.014219952 -0.06833 -0.06393614 -0.008998327 -0.11724895 -0.12109848
-0.039862845 -0.052446622 -0.078769594 -0.09525523 -0.011414161 0.010089899 -0.022112945 0.06656977
-0.014269957 -0.03844648 -0.015789174 -0.0354563 -0.08615959 -0.09256834 0.012335617 0.009286623
-0.038324464 -0.06440408 -0.030478299 -0.024283355 -0.042208202 -0.040956583 -0.08409085 0.00048134316
0.0068038744 -0.04550186 0.15940516 0.05101627 0.020094182 -0.0051080845 0.12424662 0.1181283
-0.027871648 -0.090716735 -0.14500804 -0.06689209 -0.06379227 0.0038574084 -0.040555794 -0.05144862
-0.050655443 -0.016835684 0.042665128 0.0024822638 0.08161802 -0.06461246 0.00904198 0.03890748
-0.048397083 -0.046546984 -0.024172666 -0.049820732 -0.0648785 -0.018812511 -0.06739574 -0.06493109
-0.018897062 -0.0067621334 -0.022266945 -0.06680855 -0.030163188 -0.095586315 -0.08000564 -0.05954763

bias f4 [50]
00000000: 4a72 753c 4c84 82bd e7bc 69bd 4e35 70bd
00000010: 712a b0bc 8c44 8c3d 69cf 8e3c ae4c 4d3c
00000020: 3d74 a13d 8975 1cbd 55d8 5bbd ccfc 493d
00000030: db20 a5bd f7dc 973d 9c8d 133d 8533 0bbd
00000040: 307b 85bd 0ccb 8cbd 36ad 873d a816 58bd
00000050: ff41 733c b342 de3c b895 0ebd 4926 96bd
00000060: 1936 d5bb 98ac aabc ba22 a7bb d025 b23d
00000070: 2142 043d ec5a 4a3d 09f8 813b 4fac 353c
00000080: ee2c f5bc a2e4 94bb feb0 7a3d 9ec8 713c
00000090: c699 fbbb 9867 993c 89b7 923d 81e7 893a
000000a0: d6dc 25bc 2f75 67bc e6d3 6e3d 03b8 4bbd
000000b0: aa1b ddbc 32e5 8c3d 31a1 aabc 2e2f 843d
000000c0: 5a01 34bd e72d 093d
0.014980862 -0.0637289 -0.057064917 -0.058644585 -0.021504613 0.06849012 0.017432885 0.012530489
0.07883499 -0.038198028 -0.053673107 0.04931335 -0.08062907 0.074151926 0.03602372 -0.03398468
-0.06517637 -0.068746656 0.06624834 -0.05275598 0.014847278 0.027131414 -0.03481075 -0.07331521
-0.006506693 -0.020834252 -0.0051005753 0.086986184 0.032289628 0.049403116 0.0039663357 0.011088445
-0.02992865 -0.0045438567 0.06120395 0.0147573035 -0.0076782433 0.018726155 0.07163913 0.0010521264
-0.010123452 -0.01412706 0.05830755 -0.049736034 -0.02699073 0.06879653 -0.020828815 0.06454311
-0.0439466 0.03349104

weight f4 [50]
00000000: ea90 4f3f 08e1 473f b22b 893e 8240 133f
00000010: de9c 753f 0979 f73e ea62 113f e2fc 943e
00000020: c58e 9a3e b60a 3d3f 7c32 373f 75e3 353f
00000030: 2a82 943e 4ec5 a83e 22cc 1e3f 8f01 3c3f
00000040: 0380 c43e e76b 0c3f c001 e63e 6347 383f
00000050: cb34 893e 5766 623f c201 003f c709 503f
00000060: bdae b93e 0d31 123f 7623 0a3f d348 103f
00000070: 61b8 db3e 098e 893e 865b 1c3f 809d 443f
00000080: e367 193f 9607 1a3f f7d3 c53e 89fb 193f
00000090: dc6d 593f f480 143f 0e93 803e 2647 1f3f
000000a0: 3061 ae3e 7c7a e13e da17 403f fe8c 733f
000000b0: e64e 4d3f 5626 503f 5e5a 633f 1734 583f
000000c0: 1f15 863e 27b8 8e3e
0.81080496 0.78077745 0.2679115 0.57520306 0.95942485 0.4833453 0.56791556 0.29099184
0.3018705 0.7384447 0.7156141 0.71050197 0.29005557 0.32963032 0.6203023 0.7343988
0.38378915 0.54852146 0.4492321 0.7198393 0.2679809 0.8843741 0.5000268 0.8126492
0.36266127 0.57106096 0.5396036 0.5636112 0.42914107 0.26866177 0.61077154 0.76802826
0.59924144 0.60167825 0.3863828 0.6014944 0.8493326 0.58009267 0.25112194 0.6221794
0.34058523 0.4403876 0.75036395 0.9513701 0.80198514 0.81308496 0.88809764 0.8445448
0.2618799 0.27874872

bias f4 [50]
00000000: 07fa 21be d406 1dbe 147e 5fbd e56f d2bd
00000010: fd30 63be f2e2 a3bd dae2 39be 6dc9 a7bb
00000020: 2333 bf3c ed22 babd 4b81 19be bf93 8fbe
00000030: 27f3 973d 5d66 37ba 8297 10be 8c9c d9bd
00000040: 92f1 87bd 329e a7bd cc45 cdbb a38e d3bd
00000050: 181d 7dbd 051c b7be 463a f2bc 78d8 12be
00000060: 7d50 14bd 4b09 b5bd ab5e 25bd fe8b cebc
00000070: 7944 b6bc 5937 2bbc 1d0d 6dbd 841b 25be
00000080: faaa b5bd 1e76 cbbd 05df aabd 0332 2dbe
00000090: ec05 00be 9558 c2bd 6f5f 1e3d 9d2e 19be
000000a0: 63ba 93bc 69de 31bc b3b5 8fbd 72b9 50be
000000b0: 6867 04be 2c12 4bbe cb24 4bbe 2f70 1abe
000000c0: 19b1 f13c a81a cc3c
-0.15818034 -0.15334636 -0.054563597 -0.102752484 -0.22186656 -0.08002271 -0.18152943 -0.0051204474
0.023339814 -0.09088693 -0.14990728 -0.2804241 0.074194245 -0.00069961493 -0.14120296 -0.10625562
-0.06637873 -0.0818447 -0.006264424 -0.1032994 -0.061795324 -0.35763565 -0.029568803 -0.14340389
-0.036209572 -0.08839663 -0.040373486 -0.025213238 -0.022249447 -0.010450208 -0.057873834 -0.16123778
-0.08870502 -0.099346384 -0.08343319 -0.16913609 -0.12502259 -0.09489552 0.03866523 -0.14959188
-0.018033212 -0.010856249 -0.07017078 -0.20383242 -0.12930071 -0.19831151 -0.19838254 -0.15081857
0.029503392 0.024915054

running_mean f4 [50]
00000000: edcf 5d3e 919b a3be 6f01 87be d4de 5bbe
00000010: 580d 14bf c200 babe 209e 75be d96c 36bb
00000020: f41a 673d 3f95 26be a98c 96bd cdf7 59be
00000030: 2f16 e5bd 4d1b 95bd a6f7 80bd fc02 1bbe
00000040: 6650 cdbd 1081 943e 695d b83e 2346 56be
00000050: fc02 09be 8fdc f3bd 7c1e 6b3b aa96 a9be
00000060: 2d5b d0bc fbc4 5d3e 6d75 bc3e 4673 843e
00000070: 4696 a83d 5d95 78bd 7c6f 25bd 4e2d a5bd
00000080: f6d6 5abe 42b1 cfbe 4039 c2bd e5eb 09be
00000090: a0c9 98be d971 fe3c a9fe 1c3e e119 50be
000000a0: d42e 0c3e 9583 b53e efd3 4abe a880 3dbe
000000b0: e257 34be dee6 efbd ba65 8abe b0f6 97be
000000c0: 036b c2bc 572e 353c
0.21661349 -0.31954625 -0.2636828 -0.21471721 -0.5783286 -0.36328703 -0.23986101 -0.0027835874
0.05642219 -0.1626787 -0.073510475 -0.21285935 -0.11185872 -0.07280598 -0.06297235 -0.15137857
-0.100251004 0.29004717 0.36008766 -0.20925193 -0.13380045 -0.119073026 0.0035876324 -0.3312276
-0.025434101 0.21657173 0.3680834 0.25869197 0.082317874 -0.06068932 -0.040389523 -0.08065282
-0.21371064 -0.40564924 -0.09483576 -0.13468893 -0.29841328 0.031060146 0.1533152 -0.20322372
0.13689739 0.35451952 -0.19807409 -0.1850611 -0.1761165 -0.11713956 -0.27030736 -0.29680395
-0.023732668 0.011058412

running_var f4 [50]
00000000: d536 023f 72c6 d83e 17cc 4b3e 6c98 503e
00000010: e58f 253f eae5 df3e ee36 5d3e e4e3 c83e
00000020: acbe 6b3e 8d28 ab3e 6af9 753e 7f97 843e
00000030: 9cf0 c93e 9abf 703e f187 1f3e 3ebd a33e
00000040: 423c 2d3e 75ae 503e ad26 903e 316e 853e
00000050: 2a7e 4a3e b367 623e 6ce4 6a3e 1ea1 bf3e
00000060: db84 ad3e c3bf 2d3e d78a 763e 3222 993e
00000070: 2491 b73e 7fc8 213e 3b79 c13e 0785 293e
00000080: 5bc4 7e3e 99b8 093f d98a 153e ea9a 523e
00000090: fc8d 253f fd66 973e ee70 513e ebaa 2d3e
000000a0: 0d77 903e c752 c03e a5cb d93e 5b2d e83e
000000b0: 8d37 bd3e ec00 8b3e 5782 cf3e 6686 283f
000000c0: 1d99 103e 2f50 c93e
0.5086492 0.42338902 0.19902073 0.20370644 0.6467269 0.43730098 0.21602985 0.39236367
0.23021954 0.33429375 0.24020925 0.25896832 0.39441383 0.2351059 0.15579201 0.31980318
0.16917518 0.2037905 0.28154507 0.26060632 0.1977469 0.2210987 0.22938699 0.3742761
0.33890423 0.16967683 0.240764 0.299089 0.3585292 0.1579914 0.37787804 0.16554652
0.24879591 0.537973 0.14603747 0.20566908 0.64669776 0.2957076 0.20453236 0.16959731
0.2821583 0.37563154 0.4253818 0.45347103 0.36956444 0.2714914 0.4052913 0.65830076
0.14120908 0.39318988

weight f4 [100, 50, 1, 5]
00000000: 7ffd 9cbc abb4 fb3c 7354 cbbc 6008 62bd
00000010: 90bb 1dbd 0a5a 2bbd e878 1c3b c215 363c
00000020: 1717 b63b 2e3b e53c 6f0c 3b3d becc 44bd
00000030: f429 d0bb f670 4e3b cd70 593d 07b2 073d
00000040: 68c7 c7bb e2f3 3f3d 1cfa 23b9 969e 133d
00000050: ef92 8bbd 89f5 d6bd 8166 bebd 35bc 0bbd
00000060: 3867 893c 7240 c3bd 1e38 cbbd cd74 aebd
00000070: c2dc f3bc c219 0dbd 415c 08bd d17f d83a
00000080: 5fd6 b2bc 6398 18bd ed5d 823b cf7b 3a3d
00000090: 4cec b43d 628a 6c3d cb77 c23c 2cab d53b
000000a0: 3178 78bd d934 8abd 4fe7 05bd 6779 86bd
000000b0: 549d 82bd d5e1 f0bc a410 63bc a7e3 19bd
000000c0: 9bdc 55bc 1694 a03c e62b 853d f67f 4f3d
000000d0: 3845 5c3c cd82 813c 6b36 9ebd d625 b8bd
000000e0: 8f53 75bc da1e 8cbd f094 e6b9 04a3 6a3c
000000f0: 3a2d 973d a014 6d3b eb2b 553d 2ed4 103d
00000100: b3ad 4e3d 9877 aabc 5f87 fdbd 00db efbd
00000110: ec9e 6239 6334 913a ab29 e23c 1855 063d
00000120: 1ae1 4a3d 8424 6c3d b948 923c 8d21 4fbd
00000130: a15f babd 2f51 66bd 9e43 71bd a62c 94bc
00000140: 95f3 dcbd b756 3fbd 9610 71bd 983c 24be
00000150: 2d92 82bd f9f9 c3bb f04d 4bbd 03fb 37bc
00000160: 612d 27bd b673 fd3c 61e2 c5bd c207 95bd
00000170: 1ea3 0bbd 1384 143d 857e 97bc ea3e b5bd
00000180: 528d b3bd fd54 c4bd 6cdb 33bd c47b 0cbc
00000190: 3b11 223d aa00 133d fa74 9abc 67d8 563d
000001a0: 4129 f4bc 5014 97bc e1b7 71bc 27fb 85bd
000001b0: b2de 25bd 633a b3bc f315 853a 9686 48bc
000001c0: 0409 2fbd 5ca3 84bd 2e57 5dbd c08c 09bc
000001d0: 56df d4bc 8689 0cbe 834d 3ebd fd32 b3bd
000001e0: cc6c e33d 4130 543d 5551 4c3d ee51 b63d
000001f0: aa2c 7b3d 95c7 b4bb a801 cf3c 2840 39bd
00000200: 90f7 323c 1c21 3d3c 5a20 86bd c4c3 56bd
00000210: 8ec0 2cbd 7f48 063d d330 6e3d 83be 24bd
00000220: 7876 90bd 4fd3 c73c c2c4 f5bc 60a0 313d
00000230: a0aa 943d 42c2 513a ee4b d5bc a6ff c53d
00000240: 463c 763c e471 9b3c 4ade 3b3d 8892 8c3d
00000250: f4ef b83d 8751 50bc 1fb9 d73d 69d3 4b3d
00000260: d020 353d 58ca f73c de8a 3dbc e4c0 76bc
00000270: 212b 1abd e2e8 9dbd 875c f2bc a749 5a3b
00000280: b03f 093d 9e32 123d 62fe b23d 0d3b 4ebc
00000290: 64d3 223d 9d2c 81bd 4345 b5bd 0225 fdbc
000002a0: 73a3 7fbd 5f97 56bd 0822 a43c 835b d2bb
000002b0: 7cd1 223d 0e1b c4bc 33cb 323d c62c 493d
000002c0: df9b be3d 8af1 163c 15f5 04bd 1e30 40bc
000002d0: 4e70 fd3c 93a5 13bd 3599 84bd 2135 e5bd
000002e0: f9fe c33c 8231 a0bc b726 02bd 3f8c 4a3b
000002f0: 5a52 293d e9ee 123d e3fd a73c 915c aa3d
00000300: 182c 2dbc dcd9 f539 92f8 8a3d 8716 10bd
00000310: 085e b93c f6e1 173d c6b6 97bd a226 493d
00000320: 8994 8fbc 639a 133d ecb6 403b 3dbf 433d
00000330: 0b6d 5e3c dd0a 8bbd 2db2 67bd c550 dfbd
00000340: f420 f43c eb07 13bc 312c a8bc 9ca0 b1bd
00000350: aa01 b7bd ad07 38bd 7658 01bc 0643 d43c
00000360: d504 a53d 1f8d 833d 63c4 9d3d 8dcb 923d
00000370: c672 bd3c 08c4 d6bc c150 51bc d27c 26bd
00000380: 4f12 67bd 9ae6 7ebd a6a3 41bd 4d7d 66bd
00000390: b0a9 6dbd d767 d1bc df2b 62bb b14d 4b3d
000003a0: d1a7 8f3d 2148 943d 4f5f 8abc 13d0 c1bc
000003b0: 1bf2 c7bc e785 603c 40f0 4b3d 60d3 273d
000003c0: 7d95 50bd 780c 2c3d 9757 afbd 02d3 cd3d
000003d0: a73f 1c3d cf7b 03be 552d 37bd 38c4 8cbd
000003e0: d189 8ebd e78f c1bc bd93 7ebd f05e 13bd
000003f0: afc3 0d3d 3bea 0cbd efbe 4dbd 4a1c 92bd
-0.019163845 0.030725798 -0.024820542 -0.05518377 -0.03850895 -0.041833915 0.0023875777 0.011113586
0.0055569517 0.02798232 0.045666154 -0.04804682 -0.0063526575 0.0031500435 0.05308609 0.033128764
-0.006096769 0.046863444 -0.00015638064 0.03603991 -0.06815135 -0.10496051 -0.09296895 -0.034115035
0.016772851 -0.09533776 -0.09922813 -0.08518372 -0.029768351 -0.034448393 -0.033291105 0.0016517584
-0.021830736 -0.037254702 0.003978482 0.04552823 0.088341326 0.05774916 0.023738762 0.0065206494
-0.0606615 -0.06748361 -0.032691296 -0.065661244 -0.06377664 -0.02940456 -0.013858948 -0.03757062
-0.013053085 0.019601863 0.065025136 0.050659142 0.013444237 0.015809441 -0.07725223 -0.08991592
-0.014973535 -0.06841822 -0.00043979986 0.0143210925 0.07381673 0.0036175624 0.052043837 0.0353586
0.05045862 -0.02080898 -0.123793356 -0.11711693 0.00021612243 0.0011078235 0.02760776 0.032795995
0.04953108 0.05765201 0.017856942 -0.050569106 -0.09100271 -0.056229766 -0.058902375 -0.018087696
-0.10788647 -0.046713557 -0.05885371 -0.1603874 -0.06375537 -0.005980727 -0.049634874 -0.011229279
-0.04081476 0.030938964 -0.09662319 -0.0727687 -0.034091108 0.03625877 -0.018492946 -0.088498905
-0.08767189 -0.09586523 -0.04391043 -0.00857443 0.039567214 0.035889305 -0.018854607 0.05245247
-0.029804828 -0.018442303 -0.014753313 -0.06542044 -0.040495582 -0.021878427 0.0010153636 -0.012239119
-0.042733207 -0.06476471 -0.05403822 -0.008395374 -0.025985401 -0.13724336 -0.04646064 -0.087499596
0.11104736 0.05180383 0.04988225 0.089023456 0.06132189 -0.005516956 0.025269344 -0.0452272
0.010923281 0.011543538 -0.06549139 -0.05243279 -0.042175822 0.03278398 0.05815203 -0.04022075
-0.07053846 0.024392752 -0.030001048 0.043365836 0.07259107 0.0008001664 -0.026037183 0.09667902
0.015029019 0.018975206 0.04586629 0.06863886 0.090301424 -0.01271475 0.10533356 0.049762163
0.044220746 0.030247852 -0.011568753 -0.015060637 -0.037638787 -0.077104345 -0.029585136 0.003330806
0.033508003 0.035692804 0.08739926 -0.012587321 0.03975238 -0.063073374 -0.08851101 -0.030901436
-0.062411737 -0.052390452 0.020035759 -0.0064196005 0.03975056 -0.023938682 0.043650817 0.049114965
0.09307074 0.009212861 -0.03246029 -0.011730222 0.03093734 -0.036046576 -0.064745344 -0.11191774
0.023925291 -0.019554857 -0.031775203 0.0030906347 0.041338302 0.035872374 0.020506805 0.08318437
-0.010569595 0.0004689236 0.06785692 -0.035177734 0.022627845 0.037080728 -0.07407908 0.04910911
-0.017526882 0.036035907 0.0029405905 0.0477898 0.013575803 -0.067891814 -0.056566406 -0.109040774
0.02980087 -0.008974056 -0.020528885 -0.08673212 -0.08935864 -0.044929195 -0.007894626 0.025910866
0.08057562 0.06423401 0.077034734 0.071677305 0.023126017 -0.026216522 -0.012775601 -0.04064638
-0.056413945 -0.062231638 -0.047275208 -0.05627184 -0.058023155 -0.02556221 -0.0034511012 0.04963464
0.0701443 0.0724032 -0.01689115 -0.023658788 -0.024407437 0.0137038 0.049789667 0.040973067
-0.050923813 0.04200408 -0.08561628 0.10050012 0.03814664 -0.12840198 -0.044720966 -0.06873363
-0.0695988 -0.023628188 -0.062152613 -0.03597921 0.034610447 -0.034403067 -0.050230917 -0.07134302

bias f4 [100]
00000000: b9c0 83bb 8d5b 23bd 694a 633d 8214 1abc
00000010: 54f3 3d3c 2dee 00bd 1f44 ccbc d44a 55bd
00000020: 3d5d 223c 4922 47bd 8974 62bd 33a2 403d
00000030: 6013 69bd 754b 67bc 3f14 b2bc 8c2f 62bd
00000040: f521 f1bb 8e31 673d cd96 c2bb bb33 233b
00000050: 95ac 983c 189e 30bd c3dd 80bd 2336 09bd
00000060: a582 663d 4375 55bd 9185 1fbd 821a b9bb
00000070: 505b aabc cfcb 93bc 30a1 fdbc 59b9 873c
00000080: eaae 243d aa30 87bc ab56 efbc 7afc 7dbc
00000090: 950f 4e3c 4a6a 15bc feea 433d fc0d fcbc
000000a0: a97b 40bd fecf 873b 97c5 0e3d c2c7 f33c
000000b0: 58a6 00bd 989b 683c 2d0e 43bd a443 2bbd
000000c0: 8c82 20bb ebc9 14bb 5b71 5fbd 9455 fcbb
000000d0: 8aba 10bc 0130 5ebd 9694 31bd fda1 23bd
000000e0: 14e3 d83c 5bd9 cabb 00e8 5d3d 8da3 fa3c
000000f0: 2904 5b3d 82e0 b3bc e668 523d c4fb 793d
00000100: 03e1 6bbb 379e 533d 9d62 8cbd 3497 473d
00000110: f330 c8bc 31a3 2cbd 7566 313d 01e6 593d
00000120: 96e3 c7bc 3ecf 04bd 91f6 3cbd f7b9 383d
00000130: f727 b23c f994 993c cc56 063d 6a2d 473d
00000140: e9b3 9dbc 8733 29bd 038f f53b 20c3 9f3c
00000150: ed9f 593d 4c07 1a39 1f9e 49bc 3dcf 8dbb
00000160: 6adf 06bd 8541 82bd ecc2 44bc 2ce7 2fbc
00000170: 6b00 023d 1d00 333d 2eaf 213c 7ac9 96bb
00000180: 0da9 14bd b92c 323d b041 283d 83e5 70bd
-0.004020777 -0.03988223 0.055490885 -0.0094043035 0.0115936585 -0.031477142 -0.024934826 -0.052073315
0.009909925 -0.04861668 -0.055286918 0.047029685 -0.056903243 -0.014117111 -0.02173817 -0.055221125
-0.0073587843 0.056443743 -0.005938387 0.002490266 0.018636981 -0.04311952 -0.06292298 -0.033498894
0.056276936 -0.052113783 -0.03894574 -0.005648912 -0.020795494 -0.01804152 -0.03096065 0.016567873
0.040205874 -0.016502697 -0.029216131 -0.01550209 0.012576957 -0.00911958 0.047831528 -0.030768387
-0.04699293 0.0041446676 0.034856405 0.029758338 -0.031408638 0.014197253 -0.04762094 -0.041812554
-0.0024491875 -0.002270336 -0.054551464 -0.0077006314 -0.008833537 -0.054245 -0.043354593 -0.039949406
0.026475467 -0.0061904616 0.05417633 0.030595565 0.053470764 -0.02195764 0.05136957 0.061031118
-0.0035992272 0.051664557 -0.068547465 0.048728183 -0.024437403 -0.04214782 0.0433106 0.053197864
-0.024400514 -0.032424204 -0.04613358 0.045099225 0.021747572 0.018747794 0.03279762 0.048627295
-0.019250827 -0.041308906 0.007493855 0.019502223 0.053131033 0.00014689303 -0.012305765 -0.0043276832
-0.032927908 -0.06360153 -0.012009364 -0.010736268 0.03173868 0.04370128 0.009868426 -0.0046016546
-0.036294032 0.043499682 0.04107827 -0.05881263

weight f4 [100]
00000000: 7096 423f 18ce f63e df45 fb3e e7ee d13e
00000010: 416b 033f 2e8a 483e 5d3f 543f 9306 883e
00000020: f725 143f 67f5 d63e 1d60 003f e7fe 183f
00000030: 4e69 123f 8f5e 283f 9fa6 623f 35f5 ef3e
00000040: 1fc2 803e 7490 ea3e 74ac 273f 37a5 0a3f
00000050: a0b0 523e d441 283f cfde 183d 2eac 033f
00000060: d411 973e fb22 f03e d50b ca3e 27ae ef3e
00000070: d8bf 643f 5908 4f3f ab6d 663f c1e0 5e3f
00000080: 7f6b 4d3f ded2 5c3f c600 093f 1a4c 823e
00000090: c66c 113f e0f7 cd3e 33ba 583f b523 163f
000000a0: f61b 423f 21de 6b3e f105 653f a1a5 433f
000000b0: 662d b73e 04a5 f23e 7fec 1d3f 6bcf 153f
000000c0: 3b35 123f 6400 403f 093c 9d3e f3e6 363f
000000d0: 153b 8b3e 85fa 823e c157 b63e 778a 033f
000000e0: 6af3 913e 8a4e 803e 9a33 1e3f 6374 283f
000000f0: 929b dd3e e944 483f 4f3a 0c3f aa1c 553f
00000100: 08f8 033f bc8f d83e eff0 093f 8e76 003f
00000110: 0436 373f 6031 f43e 3710 763e 7e7a c33e
00000120: 7e4b f93e ea5a 8c3e 60bc 423f 0e52 fe3e
00000130: f82f 423e f9fb cf3e fe3a ff3e 1cf3 683f
00000140: 2cb8 023f e2b9 563e 97ef 3b3f 584d b83e
00000150: 3daf 543f cf23 093f 05fd ce3e 5345 f53e
00000160: ed8a 913e 20e8 263f 8e9c ac3e df66 ef3e
00000170: 7e45 cd3e ebaf cf3e 4dc2 2f3f f195 023f
00000180: 5017 e83e d1c6 ad3e 8560 873e 22f6 af3e
0.760108 0.48204112 0.49076745 0.4100258 0.5133553 0.19583961 0.82909185 0.26567516
0.5787043 0.41984102 0.5014666 0.5976395 0.5719193 0.65769285 0.88535494 0.46866766
0.25148103 0.45813334 0.6549752 0.5415835 0.2057519 0.65725446 0.03732186 0.514346
0.2950579 0.46901688 0.39462152 0.46812555 0.8935523 0.8087211 0.9001109 0.870617
0.8024215 0.8625926 0.53516805 0.25448686 0.568066 0.40228176 0.8465912 0.58648235
0.75823915 0.23033954 0.8946219 0.76424605 0.35776824 0.47391522 0.6168899 0.5851962
0.57112473 0.75000596 0.30709866 0.7144615 0.27193514 0.25581756 0.35613826 0.51383156
0.28506023 0.2505992 0.6179749 0.6580259 0.43282753 0.7823015 0.5477647 0.8324686
0.5155034 0.4229716 0.5388326 0.501809 0.71566796 0.4769392 0.24029623 0.38179392
0.48690408 0.27413112 0.7606869 0.49671978 0.18963611 0.40621927 0.49849695 0.90995955
0.51062274 0.20969346 0.7341246 0.3599651 0.8307989 0.53570265 0.40427414 0.47904453
0.28426304 0.65197945 0.33713192 0.46758172 0.4009208 0.40563902 0.68655854 0.5101004
0.45330286 0.33940747 0.26440826 0.34367472

bias f4 [100]
00000000: 0766 07be 0d46 0ebd 235c e6bd 91a7 77bb
00000010: b96e 45bd ea45 53bc f848 6bbe 6060 4dbd
00000020: 0750 b4bd 9341 4abd b796 8bbd f671 e7bd
00000030: 3d0d a8bd 96ed 75bd 7c1f 58be a4ae 29bd
00000040: 0728 48bd 9016 79bd ceff 06be 70ea 71bd
00000050: 79b4 7a3d b8e0 0cbe 01d3 b3bc 32ab dfbd
00000060: 53be dd3c 5f17 2bbd a101 82bd db5e eebc
00000070: 8768 63be 20a7 31be 9ee6 22be 5333 fabd
00000080: 3001 0dbe c585 e4bd 53d4 ebbd 1167 6c3d
00000090: 2503 19be 482e 97bd 2227 83be 0d96 ecbc
000000a0: 744b 12be 6326 5c3c 3e4d 62be ab41 aabd
000000b0: 07ff 49bd 4b6c a5bd 900c ecbd ab10 c3bd
000000c0: 6926 4fbc c9ad 40be fa8b 73bc b326 c4bd
000000d0: eed9 393c 8c23 bebc 4290 93bc bb0c b1bd
000000e0: 8123 2d3d b1dd d2bd 2611 c2bd ee79 b7bd
000000f0: 3914 11bd 3426 c9bd d563 0cbe 94ca 11be
00000100: 3204 d0bd 8cf1 7ebd 8441 a8bd 1035 0cbd
00000110: 5b6b 0ebe e4fe b6bd 338a abbc ad65 dabc
00000120: 9cdf 80bd 60be c9bb 6498 c2bd 92f2 77bd
00000130: 1982 163c 3382 afbd 225b fabd aa08 61be
00000140: 1598 efbc 010c ab3c 0fb0 02be 1f6a 9fbc
00000150: cfee 58be aa2f c1bd 65bf 923b 195e a9bd
00000160: 33a0 91bb 7239 1abe 8094 84bc d68f 69bd
00000170: b30c 80bd 1067 6fbd 2436 3cbe ea0b c5bd
00000180: 936f b1bd 2de8 2b3c 6fde f9bc 31d2 893c
-0.13222514 -0.034734774 -0.112480424 -0.0037789086 -0.048201296 -0.012895087 -0.22977054 -0.05014074
-0.088043265 -0.049378943 -0.06815856 -0.11301033 -0.0820565 -0.060041033 -0.2110576 -0.041426316
-0.048866298 -0.060812533 -0.13183519 -0.059061468 0.06120727 -0.13757598 -0.0219512 -0.10921325
0.027068293 -0.041770335 -0.06347967 -0.029097965 -0.22207843 -0.1734891 -0.15908286 -0.122168206
-0.13769984 -0.11158327 -0.11515107 0.05771548 -0.14942606 -0.07381874 -0.25615793 -0.028880144
-0.14286596 0.0134368865 -0.22099778 -0.083133064 -0.04931548 -0.08077296 -0.115258336 -0.095246635
-0.012643435 -0.18816294 -0.014864916 -0.09577694 0.011343462 -0.02321031 -0.018013123 -0.08645006
0.042270187 -0.102961905 -0.09475927 -0.08958803 -0.035419676 -0.0982174 -0.13709958 -0.14237434
-0.1015705 -0.062242076 -0.08215621 -0.03423029 -0.1390814 -0.08935335 -0.020939922 -0.02665981
-0.0629265 -0.0061567277 -0.095017225 -0.060534067 0.009186291 -0.085697554 -0.122244135 -0.21975961
-0.029247323 0.020879747 -0.12762474 -0.019459782 -0.21184848 -0.09432919 0.0044783824 -0.08269901
-0.004444146 -0.15060976 -0.016184092 -0.05702194 -0.06252422 -0.058447897 -0.18380028 -0.09621413
-0.08663859 0.010492367 -0.030501572 0.01682386

running_mean f4 [100]
00000000: b5c9 18bf c2c6 b7be f4be 3d3f ea5a 20be
00000010: 0530 d7be 41d6 303f 6bfc 10bc 68a4 efbe
00000020: 7ea9 c6be 2817 3dbf 9acd e23d 90ba 8dbe
00000030: fb79 8e3d cd0d 41be cffd 8dbf 31ea 24bf
00000040: e75c 67bf de6f 46bf a299 34bf f96a 7fbf
00000050: 5ce2 aa3e dee6 c6be d551 96bb dc61 50bf
00000060: 89fa ddbe e704 a83d b750 c73d 7742 8abe
00000070: 2b7e babe 1b55 c4be cec6 4fbf a594 153d
00000080: 798c 9abd 0dee 9ebe 60c7 ba3e 432f 06bf
00000090: 2bee 333f 37fd 21bf c4cc 4fbf 6d32 2ebd
000000a0: eddc b8be c795 5fbf 330d 91bf 069d 0ebd
000000b0: 9c53 47be 0cc2 443e 91d9 2e3d 6224 27bf
000000c0: 2579 0f3e b4f5 70bf c2f1 7c3e 67d1 443f
000000d0: 2da8 23bf b530 bb3d fe4e 9e3e a3df b03c
000000e0: 51f8 c8be 0025 f73e 79bc 063e 6ba2 d3be
000000f0: 5a1a 02bf c86a 63be b98c 7dbf e945 96be
00000100: c828 913c 655d 28bf 28a7 833c 4dc6 2abd
00000110: d124 393f 6334 10bf 69c5 e6bd 8837 e8bd
00000120: 6b9b 113f 3435 d6bd c6ee 05bf 0f70 26be
00000130: eb88 353e e777 353e a6a3 d83e 4179 65bf
00000140: 822f f53d 5fd8 76be 9ca3 80bf 6f49 bc3d
00000150: a59b d3be 1b7c 14be fe47 01bc c792 a4be
00000160: a3f5 9abb bf15 30bf 26ee 5cbe 9650 f63d
00000170: 75ae 9e3e bae2 e3bc 4bb1 fb3e ae1a 69bf
00000180: 201e 023e 452c 6e3e e397 5b3e 61a4 6abf
-0.5968278 -0.35893828 0.74119496 -0.15659681 -0.42028823 0.69076926 -0.008849244 -0.4680512
-0.38801187 -0.7386346 0.11074372 -0.27681398 0.0695686 -0.18852921 -1.1093081 -0.6441985
-0.9037613 -0.77514446 -0.70546925 -0.997726 0.33375823 -0.38848013 -0.004587392 -0.8139932
-0.43355206 0.0820406 0.09732192 -0.27003834 -0.36424384 -0.3834618 -0.81162727 0.03651871
-0.07546324 -0.31040993 0.36480236 -0.52415866 0.7028529 -0.63277 -0.8117182 -0.04252856
-0.36106053 -0.8733792 -1.1332153 -0.034817718 -0.19465488 0.19214648 0.042687956 -0.6528989
0.14011057 -0.94124913 0.24701598 0.7688202 -0.6392849 0.091401495 0.3091964 0.021591013
-0.3925195 0.48270416 0.13157834 -0.41334853 -0.5082146 -0.22208703 -0.9904285 -0.29350212
0.017719641 -0.6576751 0.016070917 -0.04169302 0.723218 -0.56329936 -0.11268122 -0.11338717
0.56877774 -0.104593664 -0.52317464 -0.16253684 0.17728011 0.1772152 0.42312354 -0.89638144
0.11971952 -0.24105977 -1.004993 0.09193694 -0.41329685 -0.14500467 -0.007890699 -0.32143232
-0.004728989 -0.6878318 -0.21575221 0.12027089 0.30992475 -0.027818073 0.491587 -0.91056335
0.12706804 0.23259075 0.21444659 -0.9165707

running_var f4 [100]
00000000: 7c1c bf3f 8431 143f 96cd 2a3f 5089 953f
00000010: 7f03 2c3f 5964 643f 6945 393f 9938 ec3e
00000020: e7aa 893f 9759 953f ffdd 0d3f e905 243f
00000030: e182 103f 5b4e 9a3f 07d4 d13f 229a 1c3f
00000040: 658a 8f3f 0c77 3a3f a623 463f 8cc0 683f
00000050: cb28 243f 9bee 0d3f 27fe 173f 6c11 423f
00000060: 62f0 1f3f 5b93 233f 2af3 1f3f 6c1f 173f
00000070: 910c 9c3f 275c 463f 0913 9d3f 54c3 a33f
00000080: 0c6e 563f ae4b 283f 64f6 683f 6409 343f
00000090: 3664 8e3f 726c 513f cd07 423f cd60 563f
000000a0: 1c9c 8e3f 32e3 7c3f 9d47 b53f c966 823f
000000b0: 3c44 1e3f abfc e73e 7bd4 de3e 83e7 0a3f
000000c0: 5f5b fb3e 8a14 4f3f d37e 003f c953 833f
000000d0: 4fa9 b03f b359 553f f6ea 1f3f 7c0f cc3e
000000e0: 941c 3e3f f8bc b63f af12 d83e 1900 993f
000000f0: cc27 5a3f 5f51 4c3f 712e 583f 827f 2a3f
00000100: 06e2 653f b1be 403f 5ae0 db3e 2dd7 f13e
00000110: dc3e 523f ff77 463f 31df 0a3f f419 ff3e
00000120: cfbc 753f 2ac5 213f 4416 993f 5248 333f
00000130: ffd8 f03e d8de 233f 0778 293f 4c3f c63f
00000140: 2ddb 2d3f 8f46 543f e04f 523f 3281 2d3f
00000150: 280d 843f 84fd 753f 4ff4 073f c34b 653f
00000160: 39e5 0e3f 970d 583f 99a2 233f 7aca 5d3f
00000170: 461c cc3e 7153 0f3f 3f54 9f3f b65c 4a3f
00000180: ded0 a73e 232c 363f 8ae5 513f beae 3f3f
1.4930568 0.57888055 0.6671995 1.168253 0.67192835 0.8921562 0.72371536 0.4613693
1.075528 1.1667966 0.55416864 0.6407152 0.56449705 1.2055162 1.6392831 0.6117269
1.121411 0.728379 0.77398145 0.90918803 0.64124745 0.5544221 0.5937218 0.75807834
0.6247617 0.6389672 0.62480414 0.5903232 1.2191335 0.77484363 1.2271434 1.2793984
0.8376167 0.6574048 0.9100096 0.7032683 1.1124332 0.818061 0.75793153 0.83741456
1.1141391 0.9878417 1.416248 1.0187618 0.6182287 0.45309958 0.43521485 0.5425951
0.49093148 0.80890715 0.5019352 1.0259944 1.3801669 0.83339995 0.62467897 0.39855564
0.74262357 1.4276419 0.42201754 1.1953155 0.85216975 0.7981166 0.84445864 0.6660081
0.8979801 0.7529097 0.42944604 0.4723448 0.82127166 0.7752685 0.54246813 0.49824488
0.95991224 0.63191473 1.195992 0.7003223 0.47040555 0.6401191 0.6619877 1.5488067
0.6791256 0.82920164 0.8215313 0.6777526 1.0316515 0.9608996 0.5310716 0.8956873
0.55818516 0.84395736 0.6391998 0.8663708 0.3986532 0.55986696 1.2447585 0.79047716
0.3277654 0.711611 0.81990874 0.7487601

weight f4 [200, 100, 1, 5]
00000000: 813c fdbd da1b afbd 40cf 023d 4d59 e53c
00000010: f07f e93d a8d3 8ebd 2fd4 52bd c2b8 16bd
00000020: 312a 0fbd 6652 86bd a19a 6b3d 6795 11bd
00000030: 5c38 9f3b 3488 e73c 63dd 563d a9ec 61bd
00000040: eeab 233d 28a8 c7bd 75c1 84bd 74b4 a3bc
00000050: 9353 743d 6e77 193d 13f2 323d cbdf 623d
00000060: bfa9 8f3d 78f8 943c eb74 0b3e fa0c 263d
00000070: 2b85 653d b6a9 7a3c 721b 82bd 4ccb e83c
00000080: 5360 82bc 33c8 b4ba 6901 c0bc 7668 49bd
00000090: 49a7 4239 6167 1a3b a03d e7bc 91e0 87bd
000000a0: d234 84bd 439a 603c 5b90 a4bd 9352 2ebb
000000b0: 7920 1d3c 70be 68bd b9b8 9a3d 5923 073c
000000c0: dd6d c73b 6853 b2bc 7b9b 27bd 8c14 0d3c
000000d0: d37f fb3d 5e56 07bd 125c b1ba 7dba 59bd
000000e0: 8b85 42bd 65ce d5bc ffe3 d3bc 374e 01bd
000000f0: 7217 683c 9faf 613d 3b5d 5ebb 16de ce3d
00000100: 7aeb 0e3d ed8e e4bb 23d1 e3bd 8f62 a8bd
00000110: f0a5 5b3d 6e6b b23d fa5c aabd 1632 abbd
00000120: 5ff0 e5bd 2c20 96bc 12f0 ddbc 8432 253c
00000130: beda 78bd 310f a63b 83d5 af3a def8 b33c
00000140: 2f29 86bc 5368 82bc 76fb 41bd 07dc 6c3d
00000150: a7c7 07bc 8504 40bc 4d43 aabc 247e dabd
00000160: 28ab 28bd c1fa c4bd b004 013d 4f68 18bc
00000170: 0928 aa3b edfe c2bc 790d 873c d3f0 b73d
00000180: 821b ae3c f6fe 1c3d fde7 053d 1b77 a5bd
00000190: 6290 da3d a683 42bc 9a2f 4ebd ad4c d03c
000001a0: 1f6d 143e 9a4a f03c 7e64 d93c c375 40bd
000001b0: 8f3e 2a3d bc60 b43c a395 143d 52bf e63d
000001c0: 6e25 abbc d16d 9bbc f533 4ebd 1944 d7bd
000001d0: 2f4f c53c 8a1c d4bc 4e32 b8bc ff9f a3ba
000001e0: 81e0 b33d a9f9 edb8 a62a 9ebd 6a7e 18bd
000001f0: 7e38 cabd 700b 9c3d e170 b03d 8687 b03d
00000200: 89b8 aa3c fe7e fe3b f093 8cba 6555 2c3d
00000210: d732 383d ee90 5a3c 1973 8d3d 4018 afbd
00000220: 901d b0bc 7d81 c6bc d3a0 76bc f8b3 603d
00000230: 85a6 22be 90e1 febd d617 c0bd c2fa fdbc
00000240: 532d a93d 34a4 d03c cad5 97bd 5e92 e3ba
00000250: f207 653d 7763 233b 56ad 95bd f4c4 b2bd
00000260: e70c 103d 7c60 a3bc 7073 253c 6bea 3e3d
00000270: 65ba 24bb 8d30 cabc e497 c83d 0d9c 6a3c
00000280: 3371 d8bc 1b22 2abc a38a 8bbb 3c41 803d
00000290: b130 d43c f233 dd3d d4fe 0cbd 633d 14bd
000002a0: af58 10bb 7042 0abd fa50 9b3c 1e14 e1bc
000002b0: 9226 43bd 6d2d b53c 911a 7939 8075 f63c
000002c0: a82e 143d fe5c 5f3d ac0e 6c3d 467b f63b
000002d0: 727d b13c fbbe 643c 425f e93b 89f8 ae3c
000002e0: 5cc4 9cbc 01c4 2cbd 95e2 473d 1e04 ccbc
000002f0: 6bb2 8bbd 12b6 493c c08a c1bc cbd3 0abc
00000300: 43c8 fb3c 12bd b93c 0a58 86bc 379c 733d
00000310: 970d ecbc debe 9dbd e874 8e3d 5ba8 28bc
00000320: 655a d83d 296f 263d b347 98bc e5d2 413d
00000330: 4ddb 033d 732a b3bd 8495 0abc 8dcb 6cbd
00000340: c9b9 9b3d 6bd6 39bd 9be3 38bd 81bd c1bb
00000350: 8eb1 c9bc f910 62bc b083 e3bb 80dd febc
00000360: 2565 aabd de3b acbd 0b35 a83c 9230 8a3d
00000370: ee22 f7bd a898 31be 66f7 933c 06b7 19bd
00000380: cc8a 0bbd ca07 6abc 7f3e 263d 2bbb 81bd
00000390: ef4c 7b3c af82 cd3c 660a 9ebc f3df 4fbd
000003a0: 9f57 f93c d003 63bc 264b 3b3c 815f e23d
000003b0: 8b7d 443d 2488 4cbb 888e 4e3d 398f 063c
000003c0: b6e7 34bd 9985 5bbd 7cac e2bc 3dbf d83c
000003d0: a809 4f3d e440 05be 77cb 973d f2e2 8ebd
000003e0: bd6e 4dbd d8d0 adbd ed9c d93c 01a2 ce3d
000003f0: 1293 18bd 34ca 0f3e 13c6 7f3d dc5a 56bd
-0.12365056 -0.08550234 0.03193593 0.027996683 0.11401355 -0.06973964 -0.051471885 -0.036797293
-0.034952346 -0.06558685 0.057520512 -0.03554287 0.0048590135 0.028263189 0.052457225 -0.055157337
0.039958887 -0.0974887 -0.064822115 -0.019983508 0.059650015 0.037467413 0.04368789 0.055389207
0.070147984 0.018184885 0.1361882 0.04053972 0.056035202 0.015299251 -0.06352891 0.028417252
-0.015915072 -0.0013792574 -0.023438172 -0.049171887 0.000185636 0.0023560154 -0.028227627 -0.066346295
-0.06455387 0.013708654 -0.08035346 -0.002659951 0.009590262 -0.05682224 0.07554764 0.008248174
0.006086095 -0.021768287 -0.040919762 0.008610856 0.1228024 -0.03304135 -0.0013531467 -0.053156365
-0.047490638 -0.026099393 -0.025865553 -0.031568732 0.014165746 0.055099126 -0.0033930081 0.10100953
0.034892537 -0.006975046 -0.11123874 -0.082219236 0.053625047 0.08711897 -0.08318515 -0.083591625
-0.11227488 -0.018325888 -0.027092014 0.010082845 -0.060755484 0.005067729 0.0013415072 0.021969255
-0.01637706 -0.015918886 -0.047358952 0.057827022 -0.008287347 -0.011719828 -0.020784045 -0.10668591
-0.041178852 -0.0961814 0.03149861 -0.009302213 0.005192761 -0.023803199 0.016485916 0.089814804
0.021253351 0.038329087 0.032691944 -0.08079358 0.1067207 -0.011872208 -0.050338365 0.025427187
0.14494751 0.029332448 0.026537176 -0.046987306 0.041563567 0.022018783 0.036275517 0.1126696
-0.020891871 -0.018973263 -0.05034252 -0.105110355 0.02408561 -0.025892515 -0.022484925 -0.0012483596
0.08783055 -0.000113475435 -0.07722978 -0.037229933 -0.09874056 0.07619369 0.0861528 0.08619599
0.020839946 0.0077666035 -0.0010725241 0.042073626 0.04497036 0.013340218 0.06906719 -0.08549547
-0.021498471 -0.024231667 -0.015052992 0.05485913 -0.15883835 -0.124453664 -0.09379546 -0.03100336
0.08260598 0.025468923 -0.07413824 -0.0017362346 0.05591578 0.0024931112 -0.07308452 -0.08728972
0.035168555 -0.019943468 0.010098323 0.046610277 -0.0025135514 -0.024681354 0.09794596 0.014319432
-0.026421165 -0.010384108 -0.00425847 0.062624425 0.025902124 0.108009234 -0.03442271 -0.036191355
-0.0022025516 -0.033754766 0.018959511 -0.027475413 -0.047644205 0.022116387 0.00023756387 0.030085325
0.036177307 0.054532044 0.05763118 0.0075220196 0.021666262 0.013961549 0.0071219513 0.021358745
-0.0191366 -0.04217911 0.04880007 -0.024904307 -0.0682114 0.012311475 -0.023625731 -0.008473347
0.03073514 0.022673164 -0.016399402 0.05947515 -0.028815074 -0.07702421 0.06955892 -0.010294045
0.105641164 0.040633354 -0.018588876 0.047320265 0.032191563 -0.08748331 -0.008458499 -0.05781131
0.07603795 -0.0453705 -0.045138936 -0.005912483 -0.024620797 -0.013797992 -0.0069431886 -0.031111479
-0.08320073 -0.08409856 0.020533105 0.06747545 -0.12067209 -0.1734339 0.018062305 -0.03752806
-0.034067914 -0.014284084 0.040586945 -0.063345276 0.015338167 0.025086729 -0.019292068 -0.050750684
0.030437289 -0.013855889 0.011431491 0.11053372 0.04797129 -0.0031209076 0.050428897 0.008212858
-0.04416629 -0.053594206 -0.027670138 0.026458377 0.05054632 -0.13013035 0.07411855 -0.0697688
-0.050154436 -0.084870994 0.026564086 0.100894935 -0.037249632 0.14041978 0.062444758 -0.052332744
