HW2/ReLU_EEGNet.pkl (torch_old, 99495 bytes, 17 tensors)

weight f4 [16, 1, 1, 51]
000000 56 f7 87 be 90 a9 48 be 5c 0b 40 be ea 36 99 bd
       -0.2655589 -0.19595933 -0.18754333 -0.07481177
000010 47 3b 2a 3e 83 b3 68 bc 28 4a 15 3e b9 88 81 3d
       0.16624175 -0.014202955 0.1457907 0.06324906
000020 3e 55 e9 bd 13 d9 bd bd 1c c7 49 be 27 80 8d bc
       -0.11393212 -0.09269919 -0.1970486 -0.017273022
000030 09 81 5d bd fd bd c5 3d 7c bd b0 3d 23 9a 06 bd
       -0.054078136 0.09655378 0.08629891 -0.03286184
000040 91 96 9c 3d 98 68 1d bc f5 3c df 3d 18 64 1c 3d
       0.07645906 -0.009607457 0.109002985 0.038181394
000050 53 51 82 bd d4 89 e1 bd 50 55 02 3e aa fa 5b 3e
       -0.063631676 -0.11012617 0.12727857 0.2148234
000060 09 ca 24 3e 7f fe 67 3e ee 87 c8 3d 8c 12 80 3d
       0.16092695 0.22655676 0.097915515 0.062535375
000070 ef a9 4b bd ef d4 b5 bd 68 9a 8a bb 9e ce c3 bd
       -0.04972261 -0.088785045 -0.0042298324 -0.095608935
000080 a0 3c 05 3e 90 aa 0a 3e c1 03 08 3e be a6 38 3d
       0.13011408 0.13541627 0.13282682 0.045080893
000090 35 72 47 bd 24 03 3d be 3a 50 f9 bc 9a 40 30 be
       -0.0486929 -0.1845823 -0.030433763 -0.17212144
0000a0 bf c8 4f bd 5d 27 1b 3d 15 3e 0b be 4b ec 81 bd
       -0.050728556 0.037879337 -0.13597901 -0.063438974
0000b0 15 43 73 3d f0 b0 24 3e 88 8e 8a bc e2 52 41 be
       0.059390146 0.16083121 -0.016913667 -0.18879274
0000c0 73 f7 8e be 27 d4 32 3d ba c6 33 bd 1f cc c9 3e
       -0.27923164 0.043659355 -0.043890692 0.39413545
0000d0 cc d3 95 3e c5 f3 0b 3e f2 ea 17 3e 2b c7 6e 3c
       0.2926315 0.1366721 0.14835718 0.0145738525
0000e0 b1 f7 2c 3e 3f 87 60 3e fa 3e 3a 3e 1c 3b 16 3e
       0.16891362 0.21926592 0.18188086 0.14670986
0000f0 c2 8b ca 3c b9 93 63 bb ac 61 8e 3b 6e 51 d9 3d
       0.024724845 -0.00347255 0.0043451395 0.106112346
000100 42 99 4e 3e e8 2d 0f 3e 14 3a ca 3d d6 78 c4 3c
       0.2017565 0.13982356 0.09874359 0.0239834
000110 f6 70 9e 3d 72 86 ee 3d b8 f4 bb 3d 10 07 c8 3d
       0.07736389 0.11646737 0.09177536 0.09766972
000120 96 50 e2 3c 8a 58 e9 3b b7 13 86 3d 40 07 62 3e
       0.027626317 0.0071211504 0.06546729 0.22073078
000130 4b 76 86 3e 1f 86 97 3d c0 04 89 bd b1 9d 48 3c
       0.26262125 0.073986284 -0.06690359 0.012244628
000140 09 d0 d8 3d ab 6f 0b 3e 91 f4 dd 3d 05 60 8c 3d
       0.105865546 0.13616817 0.10837663 0.06854252
000150 62 17 7f bd f3 4b e6 3c a2 bf 2e 3d d6 1c 4d 3d
       -0.06227816 0.028112387 0.042663224 0.05007633
000160 2e 26 26 3e 7c b1 d8 bb 5e 33 89 3d 9f 6d 46 3d
       0.16225502 -0.0066129547 0.06699251 0.048444387
000170 b7 e2 0f bd 0d ea e7 3d 16 05 11 bd 4b 51 b5 3d
       -0.03512832 0.113239385 -0.03540524 0.08853396
000180 d5 e2 cd 3c 81 8d 57 bd bf 84 a0 3d 48 41 40 3d
       0.025132576 -0.052625183 0.07837819 0.046937257
000190 b8 0e c5 3c 2c 2b 16 3c 71 0d e2 3d fc 45 89 3e
       0.02405487 0.009165566 0.1103772 0.26811206
0001a0 b8 0b 43 3e 5a e7 67 3e 36 75 4e 3e c2 c7 ff 3d
       0.19047439 0.22646847 0.201619 0.12489273
0001b0 62 f3 69 3d e7 fd a8 3d bb 75 be 3d 7d 6a 34 bd
       0.057116874 0.08251553 0.09299799 -0.044046868
0001c0 db fb ad bd cc 20 6a be ef dd 2a be eb 67 59 be
       -0.08495303 -0.22864074 -0.16686223 -0.21231048
0001d0 48 af 66 be 22 4b 91 be 47 d5 8d be 8d 08 3f be
       -0.22527802 -0.28377634 -0.2770178 -0.18655606
0001e0 7e ae 22 be 10 85 97 3d 8f 7a 9c bd b5 73 02 bd
       -0.15886876 0.073984265 -0.07640564 -0.031848628
0001f0 6d 38 b4 bd 4f fe 3e 3d 40 7a db bd 8b 8a 87 3d
       -0.08799825 0.046629246 -0.10716677 0.06618222
000200 d9 df 4c 3c c1 d2 d1 bd cf 42 c5 bd 75 2c 46 bc
       0.012504541 -0.10245276 -0.09631883 -0.01209556
000210 d5 16 54 bd 45 c0 98 3b 9d ab 98 bd 87 3c 37 bd
       -0.051779587 0.004661592 -0.07454608 -0.044735458
000220 66 81 86 bd ea 97 29 be 9e e5 92 bd f5 ac 03 be
       -0.065676495 -0.16561857 -0.07172702 -0.12858947
000230 e4 9d df bd 97 1e 01 3d 52 5b b7 bd d3 7a 83 bd
       -0.10918787 0.031523313 -0.08952965 -0.06419911
000240 98 7a 56 bb 7f 6e 49 3c 25 b0 78 bd ba ab a9 3b
       -0.003272688 0.012294411 -0.06071486 0.005177942
000250 f7 b7 c4 bd 2a cf 5a bd 2f 5f a9 bd 6b 43 e6 bd
       -0.09605401 -0.053420223 -0.08270108 -0.11243328
000260 12 cb c2 3c 10 8d 2a 3c 48 b1 4a 3d f5 1d 5e 3e
       0.023778472 0.0104096085 0.049485475 0.21691115
000270 53 0a a3 bd 11 a1 3d bd 2e 6a 48 3d a8 ca 0f 3b
       -0.079609536 -0.046296183 0.048929386 0.002194086
000280 8c b6 4f bd 0b 86 32 be 39 e8 1c bd c7 cf d0 bc
       -0.0507112 -0.17433946 -0.038307402 -0.025489701
000290 a0 6f ba bd 81 cb 74 3d 89 e8 f8 3d 8a 22 aa 3d
       -0.09103322 0.05976439 0.121537276 0.08307369
0002a0 7c dd 98 3d a5 d6 55 3c 3c 27 97 3d 94 d8 17 bd
       0.0746412 0.0130516635 0.0738053 -0.03707178
0002b0 3e 72 3a be 3d 9a 0c 3d 40 6d 3a be be 51 8b 3d
       -0.18207642 0.03432678 -0.18205738 0.068027005
0002c0 46 2d 2f 3e 70 87 01 3e 7e 53 9c bc c5 5a 8c 3d
       0.17107114 0.12649322 -0.01908278 0.068532504
0002d0 e5 f8 b7 bc 6f 66 39 bd 3d c8 3e 3d ea 41 09 3c
       -0.02245755 -0.045263704 0.04657768 0.008377532
0002e0 c7 4f 2f bc 8d 98 32 be d8 8b ef bd 91 41 dd bd
       -0.010700173 -0.17441006 -0.11696595 -0.108035214
0002f0 73 99 45 3e 3a 7c ff 3d 67 9f f3 3d 86 b5 8d 3c
       0.19296817 0.12474866 0.11895638 0.017298471
000300 28 1f a6 3b 96 20 ad bd a1 ff 96 be de 69 30 be
       0.005069632 -0.08453481 -0.29491904 -0.17227885
000310 fb 44 b8 bd d6 e7 ab bd d5 76 e5 3d b2 c9 76 3e
       -0.08997532 -0.083938286 0.11204306 0.24100378
000320 aa 48 14 3e bf bb 1f 3e 33 ab 00 be 65 40 62 be
       0.14480844 0.15598963 -0.12565307 -0.22094877
000330 7e 6d ef bc bb 8f 6c 3e 3e 73 ad 3d 03 7c 3c 3e
       -0.029227015 0.23101704 0.08469246 0.18406682
000340 73 7f 1e 3e 1a f0 88 3e 00 9d 86 3e 31 b8 82 3e
       0.15478306 0.26745683 0.26291656 0.25531152
000350 a1 63 db 3e fa f7 5a 3e 40 72 b3 3e 3f f6 9f 3e
       0.42849448 0.21383658 0.35048103 0.31242558
000360 c3 da 13 3e 6a 53 85 3e 08 82 2b 3e fb 2e d3 3d
       0.1443892 0.26040202 0.16748822 0.10311695
000370 8a 05 e9 3c d5 67 61 3c 15 20 c4 3b 0f af 93 3d
       0.028445024 0.013757666 0.00598527 0.07211124
000380 d4 73 12 3e be 78 01 be 37 6c 9f 3c 5d 5a 01 bb
       0.14301997 -0.12643716 0.01946078 -0.0019737699
000390 a8 a1 3d be 53 d3 a5 bd 4c 26 09 3d 7f 91 83 bc
       -0.18518698 -0.080969475 0.03348379 -0.016060589
0003a0 0a 90 95 bd bf 61 17 3c e7 88 47 be 38 20 dc bb
       -0.07302864 0.009239613 -0.19485818 -0.006717708
0003b0 56 7a 9b bd 54 23 08 be 49 7a 96 bc d3 b2 b5 bd
       -0.07591693 -0.13294727 -0.018368857 -0.08871999
0003c0 25 bb 89 bd af 5c d1 bc 7b 18 f9 bd 00 0c f2 3d
       -0.06725148 -0.02555689 -0.121628724 0.11818695
0003d0 50 d3 20 3d 78 19 a9 bd b3 73 4e 3d 0d 98 47 3d
       0.039264023 -0.08256811 0.050403308 0.04872899
0003e0 77 2f 80 3d 74 d0 4d 3d 49 5d 71 3d 2e 7b e4 3d
       0.06259053 0.050247625 0.058926854 0.11156307
0003f0 94 22 e0 bc 1b 75 d9 3d 45 ca a9 3d c5 4e 66 3e
       -0.027360238 0.10618039 0.08290533 0.22490986

weight f4 [16]
000000 9b 06 5b 3e 77 3a 81 3d 63 58 97 3e 97 d8 25 3f
       0.21389239 0.063099794 0.2955962 0.64783615
000010 45 55 5a 3e 5c e6 59 3d 56 fb ba 3e 72 e6 d8 3e
       0.2132159 0.053198203 0.3651988 0.42363316
000020 15 20 74 3f f6 26 01 3f fe aa 42 3f b1 22 95 3e
       0.95361453 0.50450075 0.76042163 0.2912803
000030 28 f5 3d 3f 2b 5d 38 3f 24 34 23 3e fa 40 71 3f
       0.74202204 0.72017163 0.15937859 0.9423977

bias f4 [16]
000000 80 37 69 bd 82 0c 28 bd eb d1 95 bd ce 22 33 bd
       -0.056937695 -0.041027553 -0.07315429 -0.043734364
000010 30 7d 06 bc 4f 92 f5 3d 8d 23 0b bd 36 b7 09 bd
       -0.008208558 0.11990797 -0.03396945 -0.03362199
000020 93 b4 c5 bd ce ad 40 3c 47 1f 2e 3d 5a e7 df bb
       -0.096535824 0.011760188 0.042510297 -0.006832999
000030 db 21 95 3d af 4d c6 3c 3a 15 7b 3d fa 8e 80 3c
       0.07281848 0.024206964 0.06129954 0.015693177

running_mean f4 [16]
000000 cd bd 18 3d 67 e6 05 be 1d 16 a6 3d 02 28 36 3c
       0.037290383 -0.13076173 0.081096865 0.011117937
000010 01 d1 bb bd 58 45 a3 bd ca 83 57 3d 44 73 a6 3d
       -0.09170724 -0.07972211 0.05261592 0.08127454
000020 62 3b 32 3c 19 16 16 3b d2 4a 58 3c eb ef e8 3a
       0.010878416 0.0022901355 0.013201432 0.0017771696
000030 9d 10 04 be 34 f2 f2 3a 6b 23 50 3b 82 71 17 3b
       -0.12896962 0.0018535317 0.0031759392 0.0023108427

running_var f4 [16]
000000 d5 c0 f5 41 6c 8a 88 43 b0 4a 13 43 64 f8 ef 41
       30.719156 273.08142 147.29175 29.996284
000010 b7 21 73 43 5f 4f 6b 42 38 92 56 42 cb a4 a0 43
       243.1317 58.82751 53.64279 321.28745
000020 f9 00 b8 41 79 51 9e 41 0c 9f 51 42 f7 4f f3 41
       23.000475 19.789782 52.40532 30.414045
000030 ac 84 66 43 59 45 67 40 a5 5e d9 40 2f 84 20 41
       230.51825 3.6136076 6.7928033 10.032271

weight f4 [32, 1, 2, 1]
000000 ad 62 b5 be b8 70 93 3e 4d ca 0b bf 79 06 d8 be
       -0.35426846 0.28796935 -0.5460556 -0.42192438
000010 8c b9 b8 3e a3 d7 0d 3f bd f4 ea bd 56 ca be 3e
       0.3607906 0.5540716 -0.114724614 0.37263745
000020 4f e2 dc 3d 58 12 1a bf e2 c7 2f bf 66 8c fd 3d
       0.107853524 -0.6018424 -0.6866437 0.123802945
000030 d1 9b 78 3d 8d 88 83 3f fd 87 9f 3d d9 cf 62 3f
       0.060695473 1.0276047 0.077896096 0.885984
000040 46 b9 82 be 95 59 8d 3e 58 ab da 3e de 99 50 bd
       -0.25531977 0.27607408 0.4270885 -0.05092799
000050 7a f2 14 be 50 f4 8d 3e cc 46 85 3d 89 7d 7d bf
       -0.14545622 0.27725458 0.06507644 -0.99019676
000060 cb d7 8c 3e ea e7 08 3f ab b3 18 be 08 45 a1 be
       0.27508387 0.5347887 -0.14912288 -0.3149798
000070 92 07 9a 3e b3 71 ce be 38 6c 07 bf d4 51 22 3f
       0.300839 -0.4032112 -0.52899504 0.6340611
000080 31 1e a0 bd 5b 77 50 bf ac 34 b1 bd ae 1a 85 3f
       -0.078182586 -0.8143212 -0.086526245 1.0398767
000090 ec c7 ae 3e 01 3c 6f bf bc 98 3d bf 46 b1 82 3d
       0.34136903 -0.93450934 -0.7406118 0.063814685
0000a0 af 9c dc be 71 e0 54 3e 6d bc b8 be e0 b5 26 3e
       -0.4308829 0.20788743 -0.36081257 0.16280317
0000b0 29 7c c0 3e 5a dc b4 be 86 aa 25 bf e2 e2 ec 3e
       0.37594727 -0.35324365 -0.64713323 0.46266848
0000c0 a0 59 19 3f 0a 15 28 be 94 4c 6b be a5 46 01 3d
       0.5990238 -0.16414276 -0.22978431 0.031561513
0000d0 f6 ec 4c bd 3e fd 14 3f a0 ad 90 3f c4 13 31 bd
       -0.05003067 0.58198917 1.1302986 -0.04323174
0000e0 3b 44 4d be 4e 11 5b 3f 2b 5d 38 be 68 2c 38 3f
       -0.20045559 0.8557328 -0.18004291 0.7194276
0000f0 95 58 20 be f9 29 eb 3e 45 da 99 3d 18 62 87 be
       -0.15658791 0.4593046 0.07512335 -0.26442027

weight f4 [32]
000000 8c 52 4b 3f 03 5c 0f 3f 91 02 fa 3e d6 1f 17 3e
       0.7942283 0.55999774 0.48830083 0.14758238
000010 8f bf 9d 3e 5f ad 97 3e 5f 18 31 3f 47 a9 f7 3e
       0.3081021 0.2962446 0.6917781 0.48371336
000020 1f 6c 76 3e 44 f5 97 3e f0 b9 de 3e c4 8d 10 3f
       0.24064682 0.2967931 0.43501234 0.5646632
000030 c8 a6 1b 3f b2 9d 53 3f 7c 89 1a 3e ae 89 f5 3e
       0.60801363 0.826625 0.15091509 0.47956604
000040 4d 00 33 3f f3 ad ee 3e 22 46 39 3f 5a b0 ff 3e
       0.69922334 0.46617088 0.7237264 0.49939233
000050 3b 30 30 3f 74 44 3e 3f 42 a9 0e 3f 79 08 21 3f
       0.68823594 0.743232 0.55727017 0.62903553
000060 47 fc 1c 3f 06 64 cb 3e 6c a3 55 3f 37 cb 5e 3f
       0.61322445 0.3972475 0.83452487 0.8702883
000070 e6 21 ab 3e 31 da 29 3f a0 5a e8 3e b8 14 2b 3f
       0.334243 0.6634856 0.4538164 0.6682849

bias f4 [32]
000000 f4 a5 f3 be 15 60 a2 be ae 57 53 be 10 4f 8e 3d
       -0.4758755 -0.3171393 -0.20638916 0.06948674
000010 6a 6e a7 be 53 5e 20 bd ee 73 e7 be 9b 20 8d be
       -0.32701427 -0.039152455 -0.45205635 -0.27563938
000020 f9 e5 b2 3d 8c 61 42 3d 3c 99 1d bd 97 e8 6f be
       0.0873527 0.04745631 -0.038476214 -0.2342857
000030 57 36 5f be 15 71 2c bf 28 37 8f 3d 8c d1 a6 3d
       -0.21798073 -0.6736005 0.06992942 0.08145437
000040 0b 72 c8 be af fd 28 be aa 7e b6 be e9 8a 65 be
       -0.39149508 -0.16503023 -0.35643512 -0.22416271
000050 e0 aa fa be 34 2f 08 bf 89 71 69 be c9 f0 4b be
       -0.48958492 -0.53197026 -0.22797216 -0.19916071
000060 80 71 2f be 33 95 05 be 69 65 c8 be 2f ce 01 bf
       -0.1713314 -0.13045196 -0.3913987 -0.50705236
000070 68 2e 2e be ea a1 c3 be 60 fa 7f be 86 8f dd be
       -0.1700989 -0.38209468 -0.24997854 -0.43273562

running_mean f4 [32]
000000 35 68 83 3b ea c1 68 3d eb 44 16 bd a3 81 2e bc
       0.004010225 0.056825556 -0.03668682 -0.010651025
000010 e8 10 13 3d f7 b9 2a 3d f6 dd 44 bd b3 55 2e bd
       0.035904795 0.041681256 -0.04806324 -0.042562198
000020 c4 c5 ce b9 92 0c f0 ba 3e 10 83 3c 8e ef e3 bd
       -0.0003943873 -0.0018314293 0.015998956 -0.11129676
000030 a9 be de bc 7b 3b 7f 3c c9 8e 45 3b a9 d6 15 bb
       -0.027190523 0.015578146 0.003014492 -0.0022863543
000040 b8 98 af 3d b0 82 bb bd 4d 41 ca bb cd 3a ed bb
       0.08574051 -0.09155786 -0.0061723352 -0.0072396756
000050 2a 90 21 bc 57 c2 0d bc ea 82 29 b9 eb 9e bc 3a
       -0.009861032 -0.008652291 -0.00016165865 0.0014390623
000060 9c 04 02 3d 38 cc 6f bc b1 4c 40 3c 8d de c3 3c
       0.031742677 -0.014636092 0.011737035 0.023909831
000070 7b c3 20 3d 38 3a 05 3d 98 9f a8 3b 4e 50 50 bb
       0.039248925 0.032526225 0.005145978 -0.0031786147

running_var f4 [32]
000000 6f 90 56 3b 5d 8d 13 3d 93 fa 30 3b 89 76 e0 39
       0.0032739898 0.036023486 0.0027004823 0.00042812925
000010 98 03 d0 3c e4 64 04 3d 3d e3 00 3f 39 b0 c6 3e
       0.025392339 0.03232278 0.5034674 0.38806322
000020 8d fc 11 3b 4b 3e e3 3b f5 d8 1b 39 f5 4d 2a 3b
       0.0022275776 0.006934916 0.00014862775 0.0025986407
000030 f0 b8 95 3d e2 23 c6 3c 45 c1 8e 3c 36 89 34 3d
       0.07310665 0.024187032 0.017426142 0.044076167
000040 c3 2d 2a 3f 12 26 5b 3f fe e6 26 3e 2c 2d f2 3d
       0.66476077 0.85604966 0.16299054 0.11825022
000050 78 65 63 3d 97 79 21 3d be 59 df 3b a2 e0 9c 3c
       0.05551669 0.039422598 0.006816118 0.019150082
000060 b7 a4 09 3e 83 b6 c4 3c e5 f5 2e 3e 92 3e 1f 3f
       0.1344174 0.02401281 0.17085989 0.6220485
000070 ad 95 84 3c 50 57 3b 3c 94 d6 21 3e 4f 06 57 3d
       0.016184652 0.011434391 0.15804511 0.05249625

weight f4 [32, 32, 1, 15]
000000 3a cd 1d 3d d7 a2 0b bc d6 52 2d bd 26 86 05 bb
       0.038525797 -0.008522711 -0.042315327 -0.0020374148
000010 b4 38 2d bd fd 53 8c bd e6 b4 b5 bd 9a dc cf bd
       -0.042290404 -0.06851957 -0.08872394 -0.10149498
000020 07 bd ee bd e9 2f f3 bd 81 67 d9 bd d8 d1 35 be
       -0.11657148 -0.118743725 -0.10615445 -0.1775583
000030 57 2c 61 be fa ba 4d be 83 a1 81 be 08 fb b1 3d
       -0.2198957 -0.20090857 -0.25318536 0.086904585
000040 e8 36 cb 3d 58 e4 b5 3d 5b 56 a3 bd 12 6a 42 be
       0.09922582 0.08881444 -0.079754554 -0.18985775
000050 c3 67 45 be 88 94 ad bd e8 ce ac bd ea 13 07 bd
       -0.19277863 -0.08475596 -0.08437902 -0.032977976
000060 e1 cd a8 3c 0d a1 f7 bc 2d 6c fe bc 0d f1 a3 3b
       0.020605983 -0.030228162 -0.031057442 0.0050031007
000070 b2 1d 88 3d 26 07 86 bd 53 50 a2 3c c5 65 81 3d
       0.06646289 -0.06544332 0.019813692 0.06318239
000080 f6 93 1d 3e 2f 4a 0f 3e 06 2a 9c 3d 03 2b a2 3d
       0.15388474 0.13993143 0.07625203 0.0791836
000090 a0 5b e4 bb 7d 2e 26 bd 77 a0 ac bd 07 8f d5 bd
       -0.0069689304 -0.04057168 -0.08429044 -0.10427671
0000a0 ab 4f 9b bd 47 71 1b bd 84 66 88 bc 71 bf 13 bb
       -0.07583555 -0.037949827 -0.016650446 -0.0022544528
0000b0 0e 9e c3 3b d6 73 3e bc b8 2f 28 3d ec 4e 0a bc
       0.0059697693 -0.011624297 0.041061133 -0.008441668
0000c0 ef 3c 2b 3c b7 28 85 3d 93 dd 3f 3c 59 66 2f 3d
       0.010451539 0.06501906 0.011710542 0.042822216
0000d0 f1 1b 9f 3d 96 7c 4c 3d 0a 52 84 3c 39 1b fe bb
       0.07769001 0.049923502 0.0161524 -0.00775471
0000e0 6a fb 1d 3d a4 ec be 3c 87 9f 0b 3c 3d 7a 8f 3c
       0.038569845 0.023306198 0.008521921 0.017514342
0000f0 2d 6b e7 bc 0d cf c8 bc 89 90 a3 bc 69 39 3a 3c
       -0.028249348 -0.024512792 -0.01996638 0.011366227
000100 d1 08 b3 3c 5e f8 68 bd 1f c4 d2 bc f4 f9 0b be
       0.02185479 -0.056877486 -0.025728283 -0.13669568
000110 ea 5f 34 be 2d 9f 8b bd 5d 12 9b bd a8 41 7f bc
       -0.17614713 -0.0681747 -0.07571862 -0.0155796185
000120 95 91 2b 3d 54 ed 31 bc fa b4 d6 3d c6 c8 86 3c
       0.041886885 -0.010859806 0.10483737 0.016453158
000130 1a 06 cd ba cd f4 49 bc 17 ad 2d bd ef 55 fc 3c
       -0.0015642077 -0.012326431 -0.0424014 0.030802695
000140 10 83 0a bd 81 1e 8d bd 7d f1 0e be b7 c4 5b be
       -0.033816397 -0.06890584 -0.13959308 -0.2146176
000150 2d 99 ba bd ca 38 12 3d ff f8 13 3e c7 16 05 3e
       -0.09111247 0.03569869 0.14450453 0.1299697
000160 82 11 95 3d 62 a8 89 3d 04 2a 78 bc 32 b6 50 bd
       0.0727873 0.067215696 -0.015146736 -0.050955005
000170 7d 2f 24 3d 50 6f e6 bc 35 9f 60 bc ef 9c 16 bd
       0.04008435 -0.02812925 -0.013709833 -0.036770757
000180 20 23 e5 bc 10 b5 48 bd 06 46 e1 bd 26 6e a8 bc
       -0.02797085 -0.0490008 -0.10999684 -0.020560335
000190 b4 5e a0 bd 15 7f 6b bd 6e f5 91 bd 87 24 a3 bd
       -0.07830563 -0.05749424 -0.0712689 -0.079659514
0001a0 a9 5f dd 3c f4 89 a2 bc 15 cc 79 bd fb 7e 9a 3d
       0.027023153 -0.019841172 -0.060985643 0.07543751
0001b0 06 cf e0 bc c9 12 54 ba 26 ba 25 bd 14 1e 84 bd
       -0.027442466 -0.00080899574 -0.040460728 -0.064510494
0001c0 a7 9d ac bd 42 4a 0f be 40 8c e7 bc b6 d1 cb bd
       -0.08428507 -0.13993171 -0.028265119 -0.099521086
0001d0 59 68 7e bc 47 f4 87 bd ea f2 89 bd 12 94 38 3c
       -0.015527808 -0.06638389 -0.06735785 0.011265771
0001e0 57 44 a4 bc a4 5c 4b bd ef 6e 60 bd 7b de 43 bd
       -0.020052118 -0.049648896 -0.054793295 -0.047819596
0001f0 16 16 14 bd 36 b7 58 bd 15 69 ad 3b ff 95 92 bd
       -0.036153875 -0.0529091 0.005292068 -0.07157516
000200 e7 36 b6 bc c3 2e 42 3d f2 3f 77 3d 86 9b 6a 3d
       -0.022242976 0.047407877 0.060363717 0.057277225
000210 3a b9 6f 3d c7 a2 c9 bc 4d ee 44 bd 58 0d 1e 3c
       0.058526255 -0.024613751 -0.048078824 0.009646736
000220 fb 3b 29 3d ec d1 e9 3b 45 34 2b bd c7 42 3f bc
       0.041316967 0.0071356203 -0.041797895 -0.011673636
000230 cb 51 30 3d 6d 31 b2 3b 3d 25 87 bc 57 78 30 bd
       0.043046754 0.005438021 -0.016497249 -0.043083515
000240 12 b3 c2 bd bd 3f 61 bd 09 45 33 bd f8 ae 89 bd
       -0.09506811 -0.054992426 -0.04376701 -0.06722826
000250 bf 06 f2 3c f4 b8 26 bb ea 70 58 bc b7 c0 03 3b
       0.029544232 -0.002543983 -0.013210515 0.002010388
000260 27 c9 86 3c 1a c2 35 bc 98 84 25 bd 64 5f 68 bc
       0.016453339 -0.011093641 -0.040409654 -0.014182899
000270 0d 94 29 bd e0 f6 0f 3d 94 7a c3 3d 72 f7 0c 3d
       -0.041400958 0.035147548 0.09544864 0.03441567
000280 2a f8 7f 3d 5e 8e 6b 3d a9 8a ad 3d 10 8c f5 3d
       0.062492527 0.05750882 0.08473713 0.119896054
000290 57 72 b2 3d f7 9c a0 bd 84 32 ad bd ee 57 fd 3c
       0.08713215 -0.07842439 -0.08456901 0.030925717
0002a0 9e dc ab bc 36 43 29 bd 6c 41 c0 bd 60 6d ce bd
       -0.020979222 -0.041323863 -0.09387478 -0.100794554
0002b0 e5 fd c9 bc 0f 9b a4 3d 6f e0 b9 3c e4 e9 34 bd
       -0.0246572 0.080373876 0.022690026 -0.044168368
0002c0 e5 47 2f 3d 99 4e 9d bd b2 e1 b7 3c 7d a8 f0 3b
       0.042793173 -0.07681007 0.022446487 0.007344304
0002d0 d8 dc 8e 3b ae cf fa b9 b6 84 6c bc a1 43 41 bc
       0.0043598227 -0.0004783845 -0.014435938 -0.011795909
0002e0 81 3c 19 3d 13 49 b9 3d eb a0 af 3d 37 c8 42 3c
       0.037411217 0.09047141 0.085756145 0.011888555
0002f0 a5 3c 79 bc 93 8f fd bd 47 04 cf bd be b9 8d bd
       -0.015212213 -0.123809 -0.10108238 -0.06920193
000300 fb 33 fe bd 20 57 00 be 13 4e 54 be 4f 54 b7 bb
       -0.12412258 -0.12533236 -0.20732908 -0.005594767
000310 28 91 dd bc c2 2d eb bc 85 71 9d bd d1 74 97 bd
       -0.027046755 -0.028708342 -0.07687668 -0.07395328
000320 ba 75 bf bc 4b 13 2f bd 98 4e c8 bd bb f6 d4 bd
       -0.023371566 -0.04274301 -0.097806156 -0.103986226
000330 98 38 4e bd 40 ce 92 bd d9 55 62 be 00 31 9c be
       -0.05034694 -0.07168245 -0.22103061 -0.30506134
000340 3e be f7 bd ac c1 81 be 25 c9 45 3d 98 28 fe 3b
       -0.12096833 -0.25343072 0.04828753 0.007756304
000350 00 7b 17 bd de 14 83 3c ed 80 35 bd 63 38 c0 3c
       -0.036982536 0.016001161 -0.044312406 0.023464387
000360 41 2b 2e bc 14 4a 12 bd e2 c2 ed 3c 9c c9 b1 3d
       -0.01063043 -0.035715178 0.029023591 0.08681032
000370 d4 80 06 3d 88 01 76 3d 6a 25 6c bc 39 68 43 bd
       0.032837704 0.060060054 -0.014413217 -0.047706816
000380 b2 71 8d bd e7 3d 01 be c2 03 c5 bd fd e6 2b be
       -0.06906451 -0.1262127 -0.09619857 -0.16787334
000390 74 94 39 be ca 07 0b be d1 da 1d be 02 a3 be bd
       -0.18123037 -0.1357719 -0.15415503 -0.09308435
0003a0 fa 3b 17 bd 17 2a 9e bd d2 1e d9 bd 40 7c 27 bd
       -0.036922432 -0.07722872 -0.10601582 -0.04088998
0003b0 4d 34 63 bd 09 d4 0b bd d5 de 58 bc e0 3b 60 bc
       -0.0554698 -0.03413776 -0.013236721 -0.01368615
0003c0 2f 3a 5e 3d b9 f2 5b 3d d1 de 04 bd 17 bc 8c bd
       0.054254707 0.053698275 -0.032439057 -0.06871813
0003d0 80 91 60 3a bc 7e 55 3d 0c 6d 48 bc f7 03 8a bd
       0.0008566603 0.052122816 -0.01223303 -0.067390375
0003e0 62 92 94 bd 95 1d 2c 3d 2a 83 35 3d a2 33 b2 3c
       -0.07254483 0.0420204 0.04431454 0.021753136
0003f0 03 d5 88 bc 0f 04 dd 3d e6 66 d6 3d 07 cd 7f 3c
       -0.016703134 0.1079179 0.10468845 0.015612847

weight f4 [32]
000000 9f ba a0 3f 26 b0 8b 3f 69 1f 72 3f 92 05 70 3f
       1.2556952 1.0913131 0.9457918 0.937585
000010 6d d3 4e 3f 2d 09 87 3f 9f b3 ab 3f 08 d9 33 3f
       0.8079136 1.0549675 1.3414191 0.7025304
000020 14 8a 27 3f 8f db 6e 3f f4 32 96 3f 37 ba 6a 3f
       0.65445065 0.9330377 1.17343 0.9169039
000030 e1 95 6b 3f a9 66 80 3f e0 79 b0 3f f4 c9 72 3f
       0.9202557 1.0031329 1.3787193 0.94839406
000040 30 e8 10 3f 6f 42 90 3f 59 11 8f 3f 61 2e 6a 3f
       0.5660429 1.1270274 1.1177169 0.9147702
000050 bb 9e 77 3f 5b 80 81 3f 5a 91 70 3f 60 3d 85 3f
       0.9672658 1.0117296 0.9397179 1.0409355
000060 3f 65 3a 3f a2 60 8a 3f c3 65 0c 3f c3 d5 45 3f
       0.7281074 1.081074 0.54842776 0.772793
000070 ef a6 a3 3f 6f 23 74 3f 33 62 64 3f 1c db bf 3f
       1.2785319 0.9536657 0.8921234 1.4988742

bias f4 [32]
000000 52 34 0d be d4 2e 8e be f4 a8 40 be 84 c4 87 be
       -0.1378949 -0.27770102 -0.1881445 -0.26517117
000010 90 6a 99 bd af fd 1a be 6d 78 c6 be a4 c5 47 bd
       -0.07491028 -0.15135835 -0.38763753 -0.04877247
000020 68 a8 23 bd 14 12 6a be 8d 2b 9e be 17 68 0b be
       -0.039955527 -0.22858459 -0.30892602 -0.13613926
000030 44 12 ed bd 66 c4 4e be 61 35 c8 be ec 9f 13 be
       -0.115757495 -0.20192108 -0.39103225 -0.14416474
000040 1c ed e7 bc 6b 83 bc be d3 84 a2 be d1 19 22 be
       -0.028311305 -0.36819014 -0.31741962 -0.1583016
000050 56 1c 37 be e2 d3 34 be c3 89 96 be f3 39 88 be
       -0.17881903 -0.17658952 -0.2940198 -0.26606712
000060 e3 32 19 be ff 8c 38 be 5e 79 89 be ee a6 97 be
       -0.14960818 -0.18022536 -0.26850408 -0.29619545
000070 14 c5 b8 be bb 39 63 be 10 c5 90 be f0 ba c0 be
       -0.3608786 -0.22189991 -0.28275347 -0.37642622

running_mean f4 [32]
000000 18 9e 2e bf 7e c0 e3 be 2a 28 13 bf f9 ab 34 bf
       -0.6820998 -0.44482797 -0.5748316 -0.7057491
000010 4f 3e e0 be 4d 07 83 3e 23 24 a9 be 16 4b 3a bf
       -0.43797538 0.25591508 -0.33035383 -0.7277082
000020 06 e1 76 be df 11 b3 be 24 7d 66 bf ec 47 1b bf
       -0.24109277 -0.34974572 -0.900347 -0.6065662
000030 1d 14 50 3f 3c 83 9b be a2 8e 4b bf 14 c4 9d be
       0.8128069 -0.3037356 -0.79514515 -0.30813658
000040 2c f9 c0 be d3 5f 88 bf ec d3 28 bf 54 4b 2f bf
       -0.37690103 -1.0654243 -0.6594837 -0.68474317
000050 0d 54 04 bf 20 6d 38 bf 93 4c 27 bf 64 5a 78 bf
       -0.5169075 -0.7204151 -0.6535122 -0.97012925
000060 38 d9 d7 3d b4 39 fd be 3e fd 9e 3e c8 44 8c be
       0.10539478 -0.49458086 0.31052583 -0.27396226
000070 b7 42 9a be 6f 96 35 be 36 15 39 bd 93 21 e3 be
       -0.30129024 -0.17733167 -0.045186244 -0.44361553

running_var f4 [32]
000000 84 18 3c 3f 89 1b 11 3f 98 32 63 3f e9 b4 98 3f
       0.7347491 0.5668264 0.88749075 1.1930209
000010 76 23 4b 3f ff e5 4c 3f b8 8d e5 3e 92 6d 6e 3f
       0.79350984 0.80038446 0.44834685 0.9313594
000020 00 fe 1e 3f 69 15 3f 3f f9 d3 5c 3f e4 60 3c 3f
       0.62106323 0.74642044 0.86260945 0.73585343
000030 6d 9f 8b 3f be 0e 9a 3f 81 ea 60 3f 12 18 15 3f
       1.0908028 1.2035749 0.87857825 0.58239853
000040 bd 8b 30 3f da e8 92 3f c4 9a 80 3f 59 0c 44 3f
       0.68963224 1.1477311 1.0047231 0.7658134
000050 4c a9 43 3f 33 9c 93 3f 09 f7 93 3f 32 2d 63 3f
       0.764302 1.1532043 1.1559764 0.8874084
000060 a0 02 2f 3f 5e e6 42 3f cb aa 68 3f dd f4 a3 3f
       0.6836338 0.7613276 0.9088561 1.2809101
000070 a7 55 13 3f 32 88 27 3f 4a 85 10 3f 7f cc 22 3f
       0.5755257 0.6544219 0.5645338 0.63593286

weight f4 [2, 736]
000000 d4 50 a1 3e 11 33 a5 3e 97 9e fb 3d d0 3b 2a 3e
       0.3150698 0.32265523 0.12286108 0.16624379
000010 5d 0e 83 bd 9c e1 7f ba 3c f7 c5 3c cf e4 5a 3d
       -0.06399224 -0.00097610964 0.024165742 0.053440865
000020 61 5e 9a 3d 95 f9 8f 3d e4 3f 45 bc 88 dd 80 3d
       0.075375326 0.07030026 -0.0120391585 0.06292254
000030 ea 0a d9 bc f9 11 0e be d9 38 91 3e 77 47 ae 3c
       -0.026494462 -0.13874044 0.28363684 0.021274311
000040 58 31 95 3d 27 3e 4d 3c a9 62 c6 3b 33 f9 94 bc
       0.07284802 0.012527025 0.0060542417 -0.018185234
000050 5a aa b3 bd 0a 46 e2 bd 03 83 f3 bc 4c 22 84 3e
       -0.08772726 -0.11048515 -0.029725557 0.25807416
000060 18 c2 25 3e 3e bf c9 3d 5d b6 a0 be 25 7f 99 3e
       0.16187322 0.0985093 -0.31389132 0.29979816
000070 8d 4a a2 be a2 f5 c0 3e d6 e9 5a be b7 6d 88 be
       -0.31697503 0.37687403 -0.21378264 -0.26646206
000080 0d 8d 38 3e f2 ea cc bd ca 34 e8 bd e7 65 4c 3d
       0.18022557 -0.1000575 -0.11338194 0.04990187
000090 f4 00 25 3e 24 e2 1f 3e 4d 36 eb 3d d9 4d 60 bd
       0.16113645 0.1561361 0.114849664 -0.05476174
0000a0 de 2f 36 bc 08 ec 26 be f6 38 04 be e1 96 ac be
       -0.011119811 -0.16300976 -0.12912354 -0.3370886
0000b0 e2 40 69 bd d2 90 7a be 5e d1 0f be c7 1b 4c be
       -0.056946643 -0.24469307 -0.14044711 -0.19932471
0000c0 bb 19 b3 be 7f f0 b3 be d9 71 9f be 28 6f 82 bd
       -0.34980568 -0.3514442 -0.31141546 -0.063688576
0000d0 ad ba 12 be 35 86 25 be 8e a3 7d bd 57 47 ca 3c
       -0.14329024 -0.16164477 -0.061923556 0.02469222
0000e0 d2 af 5a bc 27 fc f1 3d 1c cc 7b 3e a5 ff 76 3e
       -0.013347583 0.11815672 0.2458958 0.24120958
0000f0 43 db d4 3e d2 d3 b6 be 1e ef ac bd 64 60 6e 3e
       0.41573533 -0.3570848 -0.084440455 0.23278958
000100 e8 26 5d 3d ba 9b 15 3e 64 b1 c8 bc 59 8f 4e 3e
       0.053992182 0.14610186 -0.024498649 0.2017187
000110 a1 5c 0f 3d a4 9e 20 3e 17 f6 80 3e 1f c6 ce b9
       0.035000447 0.15685517 0.25187752 -0.00039438994
000120 47 0b cb bd 20 b3 a0 be b9 90 c4 3d 05 e9 32 be
       -0.0991426 -0.31386662 0.09597916 -0.17471702
000130 31 d0 a5 be 7c 7d 60 bd df 32 36 be a8 77 0f 3d
       -0.323854 -0.05480717 -0.17792843 0.035026222
000140 09 97 22 be fb d1 89 3d ff f6 8f 3e c0 34 83 3d
       -0.15877928 0.06729504 0.2811813 0.06406546
000150 33 ec 5b 3e 72 fe d2 bc 08 93 cf bd 0a c6 76 be
       0.21476822 -0.025756095 -0.10135466 -0.24098983
000160 9c 03 ac be 63 40 93 bd 94 6b 4c 3e 1a ed f0 bb
       -0.33596504 -0.07190015 0.19962913 -0.0073524835
000170 5c 0b 3e 3e ee 4d 25 3e b1 21 9c 3d ca e0 27 3e
       0.18559021 0.16143009 0.076236136 0.16394344
000180 56 5a 80 3e 1a 7d 9b 3e 56 87 fe 3d 60 49 30 3e
       0.2506892 0.30368882 0.12428157 0.1721549
000190 11 c5 46 3c 86 f0 28 3e ae 9b 95 be 49 06 a0 bd
       0.012131945 0.16498002 -0.29220337 -0.07813699
0001a0 d3 f5 03 3d 65 27 8b 3d b6 d3 92 be 36 2b 33 3e
       0.032216858 0.06794623 -0.28677148 0.17496952
0001b0 9b fd 67 bc b3 5c 95 be 11 aa 98 3c c1 50 98 3e
       -0.014159585 -0.29172286 0.018635781 0.2974911
0001c0 08 9b 71 3d e9 13 f3 bd 11 a3 ca bd 83 fd 1e be
       0.05898574 -0.11869032 -0.09894384 -0.15526395
0001d0 62 06 8b be 81 a8 70 be e5 30 04 bf 7b 83 b1 bd
       -0.27153307 -0.23501779 -0.5163711 -0.08667656
0001e0 fb f5 5d be 25 f1 a5 ba 7f a9 8a 3e 5e 2e df 3d
       -0.21675865 -0.0012660368 0.2708244 0.10897516
0001f0 1d 9a cc bd d1 1d a6 be ee 9c ba bd e4 91 04 3d
       -0.09990332 -0.32444623 -0.09111963 0.032365695
000200 86 ee 18 be 1d 84 08 be 5b e7 6c 3d c6 8a b3 bd
       -0.1493474 -0.13331647 0.057837825 -0.08766703
000210 53 c5 94 3d 4a b2 f9 3d 95 99 0e be 9e 94 5c bd
       0.07264199 0.12192209 -0.13925774 -0.05385267
000220 5e f2 78 3d 15 48 00 bc 6a 81 d8 bb d6 10 27 be
       0.060778014 -0.007829686 -0.0066072242 -0.16315016
000230 c5 61 f5 3d 73 66 64 be 21 bd 6a 3e 69 9d cc bc
       0.11981539 -0.22304706 0.2292371 -0.024977403
000240 cb 3b 1a bd 63 2b 48 39 ea 92 89 3d 67 51 88 3c
       -0.03765468 0.00019089649 0.06717475 0.016640378
000250 34 a3 21 3f 48 7b af 3e f7 1f 98 bd 4d 44 24 3d
       0.63139653 0.34273744 -0.07427972 0.0401042
000260 1f 81 1d 3e 44 d2 12 3d 05 c5 14 be 23 25 2b bd
       0.15381287 0.035845056 -0.14528282 -0.041783463
000270 2d b0 58 be 5d c8 e0 bd 54 4c 02 3d 47 5c 92 3c
       -0.21160956 -0.10975716 0.031811073 0.017866267
000280 27 d2 b8 bd fa b0 5b 3e 56 4c a2 3e f7 67 19 3e
       -0.090244584 0.2145423 0.31698865 0.14981066
000290 e1 6d 3f bb ac b8 90 3c cf c2 fd 3d a6 87 a8 3e
       -0.002920978 0.017666183 0.123906724 0.32915992
0002a0 f0 f5 b7 3d 75 ed 7c 3d 0f ca 88 bd f4 55 83 bc
       0.08982456 0.061749894 -0.066791646 -0.016032197
0002b0 73 b1 60 bc fe bf 42 3e cb 38 8c be e9 e5 9b be
       -0.013714182 0.19018552 -0.2738708 -0.30448845
0002c0 73 8d 77 3e ff 29 e7 3e f6 1e da bd f6 78 5c bd
       0.24175052 0.45149228 -0.106504366 -0.053826295
0002d0 71 56 4c 3e 22 75 83 3e 5e af 86 3d a0 a7 08 3e
       0.1995485 0.25675303 0.065764174 0.13345194
0002e0 f9 7a 73 3e 84 f9 9e bc df 04 20 3c ae ac 8f 3d
       0.23777379 -0.019406088 0.009766786 0.07015358
0002f0 9c 4e 29 3e 00 57 94 3e 34 fd 7b 3e 52 47 0b 3e
       0.16533893 0.28972626 0.24608308 0.13601425
000300 98 20 a7 3e f8 86 95 3e 6e ff 43 be 20 ce 44 3d
       0.32642055 0.29204535 -0.19140407 0.04804814
000310 0a 35 62 3e 12 d1 e3 be e4 d8 8c 3e e3 ce 4d 3b
       0.22090545 -0.44495445 0.27509224 0.0031403832
000320 53 f8 18 3e 98 26 19 bd 57 22 90 bc f6 6b 8b 3e
       0.14938478 -0.03739032 -0.0175945 0.27230805
000330 1a da 96 3e 48 c4 ea bd 98 19 15 bd e7 18 8b 3e
       0.29463273 -0.11463219 -0.03640136 0.27167436
000340 e7 e6 e9 3e 7e 49 57 be 14 e7 87 bd 9b 58 c3 bd
       0.45683977 -0.21024129 -0.066358715 -0.095383845
000350 96 2d 01 3e 37 cc 74 be 82 e3 10 be 4d d2 3f bd
       0.12615046 -0.23906027 -0.14149287 -0.046831418
000360 7f 4f 67 be a9 4d 49 be af f2 ae be 80 c6 9b 3d
       -0.22588919 -0.19658531 -0.34169528 0.0760622
000370 f5 02 eb 3d dc 99 2c 3e be 24 03 3e e0 c5 67 3e
       0.114751734 0.16855568 0.12806985 0.22634077
000380 ed da e4 3b 15 90 68 bd bb e1 de bd b8 9f 8b be
       0.006984106 -0.056778032 -0.108828984 -0.27270293
000390 ac 9c a6 3e 1d f7 2d be 01 8d ca 3e 29 47 c7 3e
       0.32541406 -0.16988797 0.39560702 0.38921478
0003a0 d4 dc ac 3d 67 6a 66 3c 2c 26 d2 3d ba 4f dc 3d
       0.08440557 0.014063454 0.10261187 0.10757394
0003b0 9c dd b6 bb 72 e0 f4 bd 71 9e 28 be 94 6f 21 bd
       -0.005580617 -0.11956872 -0.1646669 -0.03941305
0003c0 3b 09 9c be 16 83 76 3c 77 38 9d bd 8f 64 43 be
       -0.30475792 0.015045902 -0.076767854 -0.19081329
0003d0 82 45 3c 3c 11 ec 0f be 57 fd 55 bd f6 ff 94 bc
       0.011491181 -0.14054896 -0.052243557 -0.018188458
0003e0 67 f3 99 be e5 15 51 bc c7 a2 29 3d b3 a3 38 bd
       -0.30068514 -0.012761568 0.041415002 -0.04507799
0003f0 60 80 81 bd 7e 31 0e be 82 1a a4 bc b4 01 4c be
       -0.06323314 -0.13886067 -0.020032171 -0.19922525

bias f4 [2]
000000 81 b8 1d ba 37 ac 16 bd
       -0.0006016568 -0.03678533
