HW2/ReLU_DeepConvNet.pkl (torch_old, 637285 bytes, 28 tensors)

weight f4 [25, 1, 1, 5]
0.08606487 -0.3213196 0.15106821 -0.14802943 0.15966614 -0.15750717 0.31983092 0.008651142
-0.19514632 0.18280776 0.25877264 0.13025461 0.42786843 0.23610099 -0.21221769 -0.4666465
0.33450282 -0.14843073 0.3708782 -0.29046637 0.2684615 -0.15074126 -0.14933978 -0.014725535
-0.17646861 0.07633687 0.25443965 0.005907804 0.40890145 -0.07631938 0.025061248 0.3017925
-0.22893007 0.21837759 0.20657739 -0.34423333 0.01149104 0.17437215 0.14901902 -0.3693455
0.17360348 -0.13822712 -0.06831681 -0.3111082 0.42458072 -0.36972737 0.21833858 -0.2971001
-0.29577792 0.2103973 0.17563173 0.36195654 0.023343464 0.1377222 -0.45893547 -0.25321797
-0.04200495 -0.2469104 -0.23885977 -0.29900482 -0.04514667 -0.34277523 0.4245171 0.44938076
0.22707495 -0.039644387 -0.22594145 -0.22915402 0.15586516 -0.3617449 -0.0031783555 -0.39620057
-0.17449307 -0.009968787 0.21313873 0.28981927 -0.32996762 0.15505476 -0.3008441 0.2589542
0.24189594 -0.1595142 0.35099062 -0.042520814 -0.040252153 -0.13732664 -0.021372288 0.2557148
0.28739798 -0.31845087 -0.36383998 -0.23330447 -0.32806587 0.29743528 -0.41794664 0.045326382
0.36396116 -0.16880307 -0.088418625 0.09325884 -0.07603457 0.3328245 -0.5071992 -0.29092252
0.11980904 0.4843928 -0.32668582 -0.21006677 0.2979415 0.28164873 0.41602343 -0.23555873
-0.14183572 -0.30240512 0.33383468 0.40903202 0.13214508 0.17372952 -0.16517493 0.16695806
0.2667257 0.23703541 -0.41680136 -0.11234709 0.35245398
00000000: c742 b03d 0184 a4be a0b1 1a3e 0795 17be
00000010: 857f 233e 8f49 21be e1c0 a33e 85bd 0d3c
00000020: 70d4 47be f531 3b3e d97d 843e 7761 053e
00000030: 9211 db3e 75c4 713e 984f 59be 4aec eebe
00000040: f443 ab3e 3afe 17be bfe3 bd3e 02b8 94be
00000050: c973 893e eb5b 1abe 87ec 18be 5f43 71bc
00000060: 30b4 34be 8156 9c3d ea45 823e 4096 c13b
00000070: 885b d13e 564d 9cbd 3f4d cd3c 8c84 9a3e
00000080: a56c 6abe 609e 5f3e 0689 533e 5a3f b0be
00000090: ea44 3c3c 9d8e 323e 7198 183e da1a bdbe
000000a0: 1cc5 313e 698b 0dbe afe9 8bbd 9349 9fbe
000000b0: a562 d93e e84c bdbe 2694 5f3e 811d 98be
000000c0: 3470 97be 6472 573e ced8 333e 5e52 b93e
000000d0: cb3a bf3c 0c07 0d3e 97f9 eabe c9a5 81be
000000e0: 620d 2cbd 14d6 7cbe a897 74be 2917 99be
000000f0: b7eb 38bd 3c80 afbe 4e5a d93e 3c15 e63e
00000100: 5686 683e 2762 22bd 325d 67be 5aa7 6abe
00000110: 1e9b 1f3e a136 b9be f54b 50bb cdda cabe
00000120: 50ae 32be 2054 23bc 0a41 5a3e 3163 943e
00000130: 84f1 a8be adc6 1e3e 3d08 9abe a595 843e
00000140: 92b3 773e b157 23be 0bb5 b33e 4e2a 2ebd
00000150: 71df 24bd 5b9f 0cbe f014 afbc 0ded 823e
00000160: d425 933e fe0b a3be 3c49 babe 5ee7 6ebe
00000170: 40f8 a7be 7049 983e 1afd d5be 28a8 393d
00000180: 1e59 ba3e b6da 2cbe d314 b5bd 7efe be3d
00000190: 03b8 9bbd f967 aa3e cfd7 01bf ccf3 94be
000001a0: 715e f53d 5502 f83e 5d43 a7be be1b 57be
000001b0: ca8b 983e 4334 903e 0601 d53e 4f36 71be
000001c0: 623d 11be d8d4 9abe 61ec aa3e a56c d13e
000001d0: 0a51 073e 27e6 313e 9e23 29be 0ef7 2a3e
000001e0: 4590 883e 69b9 723e fd66 d5be 3b16 e6bd
000001f0: d974 b43e

bias f4 [25]
-0.048235327 0.24578966 -0.4164811 -0.038132563 0.2530801 -0.15488736 0.43340677 0.111966774
0.035044648 -0.28302497 0.23349774 0.2908953 0.22755834 -0.033503525 -0.0048745493 0.32282904
0.18701242 -0.41893613 0.22193556 0.407524 -0.0845138 0.31597424 0.22892427 0.1337952
-0.1628826
00000000: 6892 45bd 49b0 7b3e 033d d5be e430 1cbd
00000010: b793 813e cb9a 1ebe 7ee7 dd3e d64e e53d
00000020: fa8a 0f3d a6e8 90be 081a 6f3e 3bf0 943e
00000030: 0e05 693e fe3a 09bd afba 9fbb d949 a53e
00000040: 2f80 3f3e cc7e d6be 1343 633e fca6 d03e
00000050: 9215 adbd 60c7 a13e 206b 6a3e 9c01 093e
00000060: b2ca 26be

weight f4 [25, 25, 2, 1]
-0.034454957 0.11178512 0.08493179 -0.15086451 0.10991726 -0.023427663 -0.0025178995 0.022401955
-0.09998568 0.001316173 0.1616433 -0.13209169 -0.04057804 -0.14679691 -0.09810352 0.037813693
0.120586425 0.07968423 0.049198978 0.12401898 -0.07208244 -0.030849071 0.107911214 0.10174065
0.08173711 0.009348458 -0.08318253 0.03461863 0.08364486 -0.123128235 0.10066839 0.034941703
0.00045410727 0.11373257 0.115000956 0.1422843 -0.06097322 0.04147213 -0.05433359 -0.10184581
-0.08494596 0.07726651 0.05111604 -0.025647964 0.0071822396 0.022032587 0.14913923 -0.11283741
0.058401473 -0.061920855 -0.047993958 -0.010472161 0.018640291 -0.082371056 -0.013794152 0.13235036
-0.036018185 0.10577104 -0.099759616 -0.04289891 0.06853597 0.011995905 0.130612 -0.041517977
-0.09798102 0.017575357 0.073699646 -0.059227202 0.040640768 -0.08861928 -0.050349735 0.016879708
0.055143442 0.00046342754 -0.08836656 0.13474555 0.045170885 0.06643615 0.120797716 -0.056520775
-0.12295688 -0.2748846 0.117091954 -0.041275196 0.018094935 0.11890942 -0.0794586 0.16447058
-0.08086764 -0.1709606 0.11366145 -0.1497931 0.017975757 0.050180368 0.08311227 -0.23346256
0.079955064 -0.08697582 -0.044061348 -0.20226838 0.05337992 0.00879597 -0.097437836 -0.15086469
-0.07496537 -0.12025709 0.024175046 -0.09406521 -0.096613064 0.012965011 -0.035325035 -0.10290875
-0.023412133 0.073725134 0.077298366 -0.12841162 -0.17524685 0.2686114 -0.052013505 0.001815668
0.09657355 -0.09194341 -0.003853352 -0.042211175 0.010806347 -0.08315395 -0.0691567 0.021089854
-0.049747072 -0.036156867 -0.07402549 -0.028244084 0.08815027 0.061230112 -0.062122665 -0.056344062
-0.05800821 -0.01760229 0.006966888 0.13478594 -0.09541467 0.11215028 0.0054026726 0.12781413
0.06273211 0.07557581 0.069335386 0.0044209217 -0.09259184 0.25370795 -0.056579553 0.03816567
-0.2171886 0.0157526 -0.06582408 0.08114441 -0.023480335 -0.21541075 0.124181665 -0.043878578
-0.015051922 -0.042012665 -0.0357375 -0.0534692 0.14578296 0.05414444 -0.14968432 0.15850586
-0.0936234 -0.045900572 -0.03171502 0.06473255 -0.0732702 -0.031259894 0.11885312 0.081002496
0.068995275 0.07495804 -0.104399055 -0.06945124 -0.16708243 0.119863614 0.049026042 -0.010058875
-0.085371554 -0.014308829 0.1592341 -0.117857024 0.031113442 -0.11954008 -0.061293133 -0.12592188
0.077581465 0.003985289 -0.14322442 0.13858561 -0.07161784 0.05643718 0.00046377158 -0.025656933
0.14045906 0.022498485 0.074078925 0.05664007 -0.025368636 -0.08402511 0.13187556 -0.10055855
0.05042259 0.1442598 0.08053516 0.13017651 -0.06502949 -0.0685662 0.022974003 -0.08760487
0.152048 -0.08809787 0.09702022 0.09993628 -0.19107331 0.09194756 -0.09729459 -0.12952062
0.18300001 -0.09634347 0.10277618 -0.06810807 0.08931175 -0.11467005 -0.124162026 0.023786223
-0.060018003 -0.12321453 0.0059511606 -0.00663888 0.09385481 -0.005230036 -0.013770254 0.024669666
0.08806166 0.112796776 -0.06502903 0.041812398 0.027998036 0.108274534 -0.1574208 0.15649527
0.09003742 -0.09574943 0.0050299796 -0.091721095 -0.004028557 -0.05030046 -0.046380416 -0.112619385
00000000: a420 0dbd 99ef e43d b8f0 ad3d 3a7c 1abe
00000010: 4d1c e13d 5feb bfbc 5803 25bb 4e84 b73c
00000020: 4bc5 ccbd 7083 ac3a d285 253e 0b43 07be
00000030: 2935 26bd ee51 16be 80ea c8bd 88e2 1a3d
00000040: 04f6 f63d 7c31 a33d de84 493d aafd fd3d
00000050: f59f 93bd 31b7 fcbc 8e00 dd3d 675d d03d
00000060: c965 a73d 462a 193c 9a5b aabd 44cc 0d3d
00000070: ff4d ab3d a82a fcbd 3b2b ce3d 081f 0f3d
00000080: 3f15 ee39 9fec e83d 9f85 eb3d fab2 113e
00000090: 0ebf 79bd aede 293d e68c 5ebd 8994 d0bd
000000a0: 26f8 adbd e73d 9e3d 0e5f 513d ae1b d2bc
000000b0: fe58 eb3b af7d b43c f4b7 183e 4d17 e7bd
000000c0: 6236 6f3d b9a0 7dbd 5095 44bd 6d93 2bbc
000000d0: 86b3 983c 28b2 a8bd de00 62bc da86 073e
000000e0: ce87 13bd 7d9e d83d c54e ccbd c4b6 2fbd
000000f0: 965c 8c3d 798a 443c 27bf 053e c10e 2abd
00000100: 46aa c8bd 32fa 8f3c d7ef 963d 3998 72bd
00000110: ef76 263d 067e b5bd 863b 4ebd 5047 8a3c
00000120: 17de 613d 31f8 f239 87f9 b4bd bdfa 093e
00000130: 1b05 393d ad0f 883d cb64 f73d 5482 67bd
00000140: d1d0 fbbd adbd 8cbe e8cd ef3d 2e10 29bd
00000150: d43b 943c c886 f33d 31bb a2bd fa6a 283e
00000160: ef9d a5bd 4c10 2fbe 56c7 e83d 5d63 19be
00000170: e541 933c ee89 4d3d c436 aa3d cf10 6fbe
00000180: 7bbf a33d 6120 b2bd ac79 34bd 711f 4fbe
00000190: e7a4 5a3d f91c 103c 7d8d c7bd 467c 1abe
000001a0: 7287 99bd 5949 f6bd bf0a c63c 43a5 c0bd
000001b0: 12dd c5bd 336b 543c fcb0 10bd d3c1 d2bd
000001c0: cdca bfbc 34fd 963d 9b4e 9e3d 567e 03be
000001d0: e973 33be 6f87 893e 1d0c 55bd b5fb ed3a
000001e0: 5ac8 c53d d44c bcbd 8588 7cbb a0e5 2cbd
000001f0: 1b0d 313c 9e4c aabd 07a2 8dbd a1c4 ac3c
00000200: 96c3 4bbd 3919 14bd ad9a 97bd 2360 e7bc
00000210: 2188 b43d 6dcc 7a3d 5674 7ebd 08c9 66bd
00000220: 049a 6dbd ad32 90bc 7e4a e43b 5305 0a3e
00000230: c468 c3bd 0caf e53d e708 b13b b5e1 023e
00000240: b179 803d 7ec7 9a3d b6ff 8d3d 61dd 903b
00000250: caa0 bdbd 02e6 813e f6bf 67bd 9b53 1c3d
00000260: b066 5ebe 990b 813c c6ce 86bd 0a2f a63d
00000270: d559 c0bc a394 5cbe f552 fe3d 06ba 33bd
00000280: 569c 76bc 7915 2cbd 7c61 12bd 8502 5bbd
00000290: 2148 153e 8fc6 5d3d d946 19be 5c4f 223e
000002a0: a0bd bfbd 3d02 3cbd 9ce7 01bd 8092 843d
000002b0: b00e 96bd 600a 00bd 4469 f33d a3e4 a53d
000002c0: 654d 8d3d 9a83 993d 2ccf d5bd 743c 8ebd
000002d0: a817 2bbe 0e7b f53d 88cf 483d fbcd 24bc
000002e0: 48d7 aebd 946f 6abc 440e 233e 065f f1bd
000002f0: 9ee1 fe3c 6ed1 f4bd 820e 7bbd aaf1 00be
00000300: 08e3 9e3d 0797 823b 6ca9 12be 63e9 0d3e
00000310: 60ac 92bd ac2a 673d 5e26 f339 7d2e d2bc
00000320: 80d4 0f3e be4e b83c b1b6 973d 6bff 673d
00000330: e3d1 cfbc 5b15 acbd 630a 073e a4f1 cdbd
00000340: eb87 4e3d d7b8 133e 9eef a43d fe4c 053e
00000350: 2e2e 85bd 706c 8cbd fa33 bc3c 2f6a b3bd
00000360: 79b2 1b3e a86c b4bd 89b2 c63d 64ab cc3d
00000370: b9a8 43be 014f bc3d 6342 c7bd 0ea1 04be
00000380: 5b64 3b3e ba4f c5bd 517c d23d 3e7c 8bbd
00000390: 14e9 b63d 22d8 eabd a948 febd 53db c23c
000003a0: 70d5 75bd e657 fcbd f401 c33b f68a d9bb
000003b0: f336 c03d b960 abbb a29c 61bc 0a18 ca3c
000003c0: ac59 b43d ff01 e73d f12d 85bd 7a43 2b3d
000003d0: 235c e53c 0abf dd3d eb32 21be 4c40 203e
000003e0: 8a65 b83d 4718 c4bd 87d2 a43b 45d8 bbbd
000003f0: fc01 84bb db07 4ebd 64f9 3dbd fea4 e6bd

bias f4 [25]
0.118069634 -0.08822311 -0.10045708 -0.052064527 -0.0552753 0.14203957 -0.007976454 0.15444186
-0.042312343 0.01352305 -0.12731713 0.015630739 -0.00038643397 -0.02375536 0.09984264 0.016967708
0.07602578 -0.06205951 0.026093679 0.1111018 -0.05383748 -0.09250248 0.0058944933 0.06437299
-0.10216943
00000000: 7ece f13d 51ae b4bd 71bc cdbd 9d41 55bd
00000010: 5a68 62bd d272 113e acaf 02bc 0226 1e3e
00000020: b54f 2dbd c88f 5d3c 6c5f 02be 090c 803c
00000030: 4a9a cab9 9a9a c2bc 4c7a cc3d ddff 8a3c
00000040: 67b3 9b3d 1d32 7ebd 69c2 d53c 5789 e33d
00000050: b084 5cbd f171 bdbd 9826 c13b fcd5 833d
00000060: 353e d1bd

weight f4 [25]
0.79646814 0.26387328 0.82949275 0.46422237 0.48341382 0.3548657 0.4876217 0.79388005
0.24415883 0.35292977 0.40073758 0.71309453 0.28081372 0.2647534 0.33949965 0.37838662
0.34445205 0.3059636 0.556232 0.9168799 0.80195796 0.57252073 0.72212607 0.5076039
0.5567884
00000000: 56e5 4b3f 661a 873e a359 543f 8eae ed3e
00000010: 0482 f73e f5b0 b53e 8da9 f93e b93b 4b3f
00000020: c604 7a3e 36b3 b43e 7a2d cd3e 5d8d 363f
00000030: d1c6 8f3e c28d 873e e6d2 ad3e e4bb c13e
00000040: 055c b03e 43a7 9c3e 3865 0e3f a4b8 6a3f
00000050: 1e4d 4d3f b890 123f 41dd 383f 54f2 013f
00000060: af89 0e3f

bias f4 [25]
-0.11117775 -0.06832671 -0.35838348 -0.14337605 -0.11360824 -0.0986146 -0.16310559 -0.4427418
-0.114152886 -0.05856374 -0.20916069 -0.27565882 -0.11809508 -0.016079556 -0.12819332 -0.16622613
-0.109408535 0.012120542 -0.20252354 -0.30494595 -0.13574998 -0.17155488 -0.17511813 -0.15019296
-0.20248117
00000000: 29b1 e3bd e0ee 8bbd 0a7e b7be 2cd1 12be
00000010: 70ab e8bd 74f6 c9bd 2705 27be 0eaf e2be
00000020: fdc8 e9bd 88e0 6fbd 382e 56be 2723 8dbe
00000030: d5db f1bd 46b9 83bc 1c45 03be 2f37 2abe
00000040: 9511 e0bd 3d95 463c 5562 4fbe e021 9cbe
00000050: 0b02 0bbe 15ac 2fbe 2b52 33be 2fcc 19be
00000060: 3957 4fbe

running_mean f4 [25]
-0.10091915 -0.36527756 0.065815836 0.0087574525 -0.20188546 0.06304318 -0.14760067 0.41617465
0.07384269 0.1620366 0.09888649 -0.021414 0.05611732 -0.0030530232 0.0249226 -0.2749305
0.2803367 0.11913957 -0.10149387 -0.109908804 0.12641726 0.1489704 -0.28701743 0.16579823
0.06759899
00000000: b3ae cebd a905 bbbe 74ca 863d 6b7b 0f3c
00000010: 10bb 4ebe c81c 813d a124 17be d814 d53e
00000020: d63a 973d ecec 253e 0085 ca3d 6a6c afbc
00000030: 46db 653d 3b15 48bb 7b2a cc3c b1c3 8cbe
00000040: 4b88 8f3e 72ff f33d 05dc cfbd de17 e1bd
00000050: 8773 013e b28b 183e f3f3 92be 03c7 293e
00000060: 5771 8a3d

running_var f4 [25]
6.5042834 3.7536001 3.2618914 3.4566696 3.7924273 2.4002786 7.4623013 2.8154798
3.059048 2.3893003 3.6953022 19.906286 3.513209 7.277221 12.330025 1.4170953
1.9979373 6.630242 13.003986 12.231248 7.2294745 19.49982 4.3368363 1.3248345
18.123224
00000000: 1723 d040 fc3a 7040 d4c2 5040 133a 5d40
00000010: 21b7 7240 2a9e 1940 2ccb ee40 d230 3440
00000020: 71c7 4340 4cea 1840 d57f 6c40 1340 9f41
00000030: 6bd8 6040 ffde e840 c847 4541 6163 b53f
00000040: 69bc ff3f f12a d440 5410 5041 31b3 4341
00000050: db57 e740 a2ff 9b41 5dc7 8a40 2d94 a93f
00000060: 5dfc 9041

weight f4 [50, 25, 1, 5]
-0.12672447 -0.117890045 -0.04739626 0.021169003 0.058234543 -0.04225167 -0.031124 0.02549416
-0.10938769 -0.13569632 -0.0024802021 0.034166623 -0.04195557 -0.052205767 0.054498423 -0.019679038
0.004250796 0.027084148 0.1284059 -0.07243397 0.029960295 -0.085317545 0.030432092 -0.037946686
0.056666333 -0.20889199 -0.11263976 0.025897212 -0.15177183 -0.11578458 -0.052200984 -0.08603102
-0.017544698 0.04942704 -0.005987443 0.031417474 0.03620661 -0.015150436 -0.04009704 0.032788225
0.008090226 0.07232194 0.029277382 0.13112079 0.124714784 0.11116257 0.07732364 -0.064077355
-0.06517363 0.053243015 -0.12954262 -0.1125676 -0.046943117 -0.047415663 -0.057160635 -0.065634735
-0.02276429 -0.08082965 -0.0673312 -0.0153497 -0.08855473 0.0105794165 -0.072566815 0.013243534
0.103934556 -0.08443154 -0.15583801 -0.09964594 -0.0047049844 -0.05711862 -0.032261275 -0.1126303
-0.013125643 -0.030925957 -0.057579402 0.09354021 0.0057861707 0.0062901843 0.0033272572 -0.04752567
0.10507533 0.11954578 0.05491167 0.118011795 0.051256828 -0.15427268 -0.09349161 -0.05588706
0.035477873 -0.070159644 -0.10136737 -0.043643136 -0.027786098 -0.08673451 -0.014503282 -0.050027236
-0.0640562 0.019146087 -0.024610836 -0.009420955 -0.017875386 -0.078445405 -0.105507515 -0.09373589
0.048726864 -0.037435707 0.009481705 -0.05193015 -0.008372295 -0.08216514 -0.05651393 -0.08025121
-0.0052796984 -0.027972566 -0.039884876 -0.02974756 -0.1533637 -0.022009943 0.031229671 0.047023922
-0.012529788 0.031674203 0.061126262 0.074334666 -0.057779543 -0.046563055 -0.03196056 -0.014981467
-0.0132472925 -0.08115226 0.05237187 -0.010982462 0.045303255 0.0819855 0.16497453 0.058584142
0.12060921 0.111763105 0.026999457 0.016088843 -0.07835716 -0.081993245 -0.09813437 -0.102434486
-0.04610498 -0.025247987 -0.08355912 -0.06619616 -0.05088928 0.009009205 -0.10779599 0.09411583
0.00025104627 0.12358324 -0.024592238 -0.15262218 0.034517575 0.02364834 -0.038899206 0.080499224
0.076555036 0.0660922 -0.10287595 0.105513096 -0.060987093 -0.13688616 -0.17714424 -0.027167175
-0.18318193 -0.093158044 -0.12221939 -0.08128605 -0.07551785 -0.078922406 -0.064708084 0.03131059
0.07630884 0.034654688 -0.08760544 0.08117361 -0.05500847 0.013862958 0.004707926 -0.05924905
0.024588306 0.07570754 -0.023573708 0.03975904 0.012578501 0.01608867 -0.033304896 0.105341785
0.029986015 -0.04667223 -0.06717871 -0.004483952 -0.0483579 -0.039153013 0.014937901 0.014155778
-0.06247844 -0.06589084 -0.07691557 -0.10586675 -0.12509905 -0.051467516 -0.042792477 -0.015476449
-0.10478385 -0.0624217 -0.024855375 0.08722432 0.07365752 0.017598057 -0.046798468 0.050235394
0.06646884 0.063852884 -0.055321924 -0.06141419 0.016535562 0.005087009 0.05265593 0.0114477845
0.038028464 -0.027809002 0.04517696 -0.004447093 -0.032878626 -0.06506975 -0.09199922 0.06035801
0.018979091 0.01738496 0.046537213 -0.098807156 0.058735155 -0.026949238 -0.07959078 0.038659513
0.12928091 0.01863666 0.106519215 0.026373649 0.0751886 0.010249777 0.017195815 -0.08405678
-0.077384226 -0.00995429 0.007920566 0.0015343551 -0.022982767 -0.06918353 -0.045761466 0.2058726
00000000: 0fc4 01be 5670 f1bd 9522 42bd 9e6a ad3c
00000010: 5887 6e3d 1610 2dbd c2f7 febc 21d9 d03c
00000020: a706 e0bd faf3 0abe e38a 22bb 4df2 0b3d
00000030: 9bd9 2bbd b7d5 55bd bd39 5f3d ef35 a1bc
00000040: 434a 8b3b 93df dd3c d67c 033e 4358 94bd
00000050: 4b6f f53c f7ba aebd b94c f93c fc6d 1bbd
00000060: f51a 683d c8e7 55be adaf e6bd 6426 d43c
00000070: 136a 1bbe 7720 edbd b3d0 55bd 0831 b0bd
00000080: e6b9 8fbc 0274 4a3d 5032 c4bb 9caf 003d
00000090: 624d 143d 8939 78bc cb3c 24bd f24c 063d
000000a0: de8c 043c 861d 943d 1fd7 ef3c 8744 063e
000000b0: 776a ff3d 34a9 e33d db5b 9e3d fd3a 83bd
000000c0: c179 85bd 5915 5a3d d2a6 04be d889 e6bd
000000d0: 6d47 40bd ed36 42bd 4521 6abd 816b 86bd
000000e0: 2d7c babc 048a a5bd f1e4 89bd 4f7d 7bbc
000000f0: 2f5c b5bd 4a55 2d3c e99d 94bd 68fb 583c
00000100: a4db d43d 71ea acbd 0094 1fbe 2c13 ccbd
00000110: 452c 9abb 37f5 69bd 6624 04bd b7aa e6bd
00000120: f00c 57bc 6f58 fdbc 61d8 6bbd 0292 bf3d
00000130: eb99 bd3b e41d ce3b 1d0e 5a3b 47aa 42bd
00000140: bc31 d73d 6bd4 f43d 0feb 603d 2bb0 f13d
00000150: aef2 513d a8f9 1dbe 8778 bfbd d4e9 64bd
00000160: 3f51 113d dcaf 8fbd b299 cfbd 25c3 32bd
00000170: ac9f e3bc dda1 b1bd 2c9f 6dbc 5ce9 4cbd
00000180: e62f 83bd 41d8 9c3c aa9c c9bc 595a 1abc
00000190: 676f 92bc fca7 a0bd 5314 d8bd 9af8 bfbd
000001a0: d295 473d 2f56 19bd 2759 1b3c b5b4 54bd
000001b0: f32b 09bc 3246 a8bd 277b 67bd bf5a a4bd
000001c0: 5201 adbb b926 e5bc 535e 23bd 28b1 f3bc
000001d0: 600b 1dbe 324e b4bc 5ed5 ff3c 289c 403d
000001e0: bd49 4dbc cfbc 013d 885f 7a3d c63c 983d
000001f0: 3eaa 6cbd e7b8 3ebd 13e9 02bd d474 75bc
00000200: 2c0b 59bc 2833 a6bd e383 563d c9ef 33bc
00000210: e88f 393d 04e8 a73d 15ef 283e edf5 6f3d
00000220: f601 f73d 0ee4 e43d f72d dd3c c0cc 833c
00000230: b879 a0bd 13ec a7bd acfa c8bd 2cc9 d1bd
00000240: 93d8 3cbd ded4 cebc 0b21 abbd da91 87bd
00000250: 4771 50bd 589b 133c 25c4 dcbd cdbf c03d
00000260: dc9e 8339 3619 fd3d a975 c9bc fd48 1cbe
00000270: 4d62 0d3d 2aba c13c c654 1fbd c7dc a43d
00000280: e3c8 9c3d 595b 873d a0b0 d2bd 4017 d83d
00000290: 9acd 79bd e32b 0cbe 4d65 35be b28d debc
000002a0: 0b94 3bbe a5c9 bebd 294e fabd 4d79 a6bd
000002b0: 1aa9 9abd 12a2 a1bd ac85 84bd 893f 003d
000002c0: cf47 9c3d 13f2 0d3d 7b6a b3bd 5a3e a63d
000002d0: 9050 61bd 7621 633c f244 9a3b 22af 72bd
000002e0: 6a6d c93c 8e0c 9b3d a61d c1bc 60da 223d
000002f0: 0f16 4e3c 63cc 833c b76a 08bd 6fbd d73d
00000300: 3ba5 f53c 612b 3fbd fe94 89bd 1eee 92bb
00000310: ef12 46bd e95e 20bd 19be 743c a3ed 673c
00000320: 65e9 7fbd c7f1 86bd e985 9dbd abd0 d8bd
00000330: f719 00be 9acf 52bd 2a47 2fbd ef90 7dbc
00000340: ea98 d6bd e6ad 7fbd 809d cbbc aaa2 b23d
00000350: c1d9 963d cd29 903c c0af 3fbd a1c3 4d3d
00000360: d120 883d 4dc5 823d 3e99 62bd 728d 7bbd
00000370: 9675 873c edb0 a63b bfad 573d 7d8f 3b3c
00000380: bcc3 1b3d b4cf e3bc 7a0b 393d ebb8 91bb
00000390: bdab 06bd 4a43 85bd 166a bcbd f639 773d
000003a0: 0a7a 9b3c e76a 8e3c ce9d 3e3d 685b cabd
000003b0: 4694 703d a6c4 dcbc 7e00 a3bd 7059 1e3d
000003c0: 3762 043e e9ab 983c bf26 da3d 8d0d d83c
000003d0: 7bfc 993d aeee 273c 3dde 8c3c f625 acbd
000003e0: 9f7b 9ebd 5217 23bc 43c5 013c 6a1c c93a
000003f0: 5b46 bcbc 18b0 8dbd 6070 3bbd 44d0 523e

bias f4 [50]
-0.028059712 0.049375597 0.034109533 -0.026280688 -0.038761448 -0.018639976 -0.035370342 -0.06460073
0.040310677 -0.039606802 -0.07831722 -0.044406835 -0.0811832 -0.0517801 0.040287744 0.012897116
-0.059911605 0.034152046 0.028011953 -0.068747446 0.070700586 0.02142473 -0.07543679 0.02594932
0.03512314 0.08118016 -0.02795903 -0.06445309 0.061997812 0.0031217388 0.028611014 0.0332013
-0.0120544145 -0.08188671 -0.04704944 -0.04236632 0.013561112 0.0039476505 -0.06971291 0.009964142
0.07988787 -0.08726766 0.057200734 0.041371107 -0.060146473 -0.07393529 0.042696875 -0.042500544
-0.016397204 0.032434437
00000000: 7bdd e5bc 113e 4a3d 70b6 0b3d 994a d7bc
00000010: 53c4 1ebd ddb2 98bc 7ee0 10bd 634d 84bd
00000020: cf1c 253d be3a 22bd c764 a0bd f1e3 35bd
00000030: 6143 a6bd 5f17 54bd c304 253d 6d4e 533c
00000040: df65 75bd 04e3 0b3d 5379 e53c 76cb 8cbd
00000050: 78cb 903d ea82 af3c 9b7e 9abd ab93 d43c
00000060: 48dd 0f3d c941 a63d 560a e5bc fbff 83bd
00000070: 6bf1 7d3d 1696 4c3b a561 ea3c 16fe 073d
00000080: e17f 45bc 38b4 a7bd eab6 40bd 4e88 2dbd
00000090: 6d2f 5e3c 4b5b 813b a4c5 8ebd a440 233c
000000a0: 409c a33d 63b9 b2bd 514b 6a3d c074 293d
000000b0: 265c 76bd 636b 97bd ebe2 2e3d 0d15 2ebd
000000c0: 6e53 86bc f9d9 043d

weight f4 [50]
0.46641603 0.25966886 0.3383425 0.22406003 0.45901322 0.59605455 0.8478024 0.8074603
0.74714863 0.23326801 0.5760695 0.25944024 0.91386104 0.35888252 0.40333408 0.30670777
0.6854469 0.5533675 0.40521464 0.50671554 0.89497507 0.91278297 0.53903466 0.8305435
0.2666343 0.72847426 0.31510684 0.7741171 0.74220085 0.481457 0.6341202 0.2449741
0.3341084 0.81008744 0.6196661 0.37328216 0.64968336 0.706102 0.33549857 0.39653572
0.39304972 0.31474558 0.6103904 0.5737025 0.42212787 0.6954805 0.37534413 0.33184797
0.6198953 0.69895005
00000000: 15ce ee3e 51f3 843e 3a3b ad3e fe6f 653e
00000010: c803 eb3e 0897 183f 9409 593f b8b5 4e3f
00000020: 2245 3f3f cfdd 6e3e 4a79 133f 5ad5 843e
00000030: ccf2 693f 73bf b73e ce81 ce3e cd08 9d3e
00000040: 7379 2f3f 7ea9 0d3f 4b78 cf3e 1cb8 013f
00000050: 161d 653f 25ac 693f 2dfe 093f 809e 543f
00000060: 4a84 883e 4a7d 3a3f af55 a13e 8a2c 463f
00000070: e000 3e3f 8881 f63e b455 223f 7eda 7a3e
00000080: 4210 ab3e e461 4f3f 70a2 1e3f d71e bf3e
00000090: a651 263f 1ac3 343f 78c6 ab3e bb06 cb3e
000000a0: d03d c93e 5526 a13e 8c42 1c3f 2bde 123f
000000b0: 2521 d83e 030b 323f 1b2d c03e fae7 a93e
000000c0: 75b1 1e3f 64ee 323f

bias f4 [50]
-0.109765135 -0.012839322 -0.033827145 0.03123323 -0.046306226 -0.09404715 -0.14543836 -0.13554561
-0.1970344 0.00096284837 -0.14268869 -0.046975963 -0.14363348 -0.10532161 -0.061279826 -0.028815616
-0.07278686 0.008275737 -0.07650758 -0.04261888 -0.13187532 -0.23774537 -0.15297253 -0.161751
-0.07770844 -0.1966567 -0.15914367 -0.1667742 -0.11226132 -0.08187437 -0.020514946 0.01318624
-0.048896905 -0.16093804 -0.06286516 0.0095198015 -0.21109706 -0.035032954 -0.019005222 -0.056246
-0.006071835 -0.008669548 -0.06211918 -0.052125838 -0.08531992 -0.069954135 -0.08540991 -0.017732255
-0.078622475 -0.044256866
00000000: 8bcc e0bd 055c 52bc 558e 0abd d5dc ff3c
00000010: 99ab 3dbd cb9b c0bd cbed 14be 78cc 0abe
00000020: 63c3 49be a967 7c3a fc1c 12be de69 40bd
00000030: a814 13be dbb2 d7bd 8e00 7bbd ba0e ecbc
00000040: 4711 95bd f596 073c 02b0 9cbd 2291 2ebd
00000050: 530a 07be 8673 73be d5a4 1cbe 0ea2 25be
00000060: 9a25 9fbd 6060 49be 8ff6 22be dbc6 2abe
00000070: 43e9 e5bd c0ad a7bd f60e a8bc 190b 583c
00000080: 1f48 48bd f1cc 24be 73bf 80bd f1f8 1b3c
00000090: d429 58be b77e 0fbd d7b0 9bbc 3562 66bd
000000a0: 3ef6 c6bb b80a 0ebc ae70 7ebd e781 55bd
000000b0: 36bc aebd 1d44 8fbd 64eb aebd 3c43 91bc
000000c0: d204 a1bd b046 35bd

running_mean f4 [50]
-0.48904783 -0.07892919 -0.13121192 0.3261216 -0.17386758 -0.2102199 -0.15004368 -0.31386393
-0.054815885 -0.11616827 -0.27497315 -0.0906057 -0.48079544 -0.19835402 -0.029036058 -0.16842614
0.4043385 0.39548588 -0.25517675 -0.20378189 -0.16172482 -0.37655255 -0.31621882 -0.16942778
-0.120751284 -0.15180875 -0.21006778 -0.21062137 0.2656431 -0.1594713 0.02158075 0.06317712
-0.2939899 -0.15342893 -0.31646493 -0.013462126 -0.23884866 0.4120076 -0.14616248 -0.03785626
0.10655841 -0.1705115 0.09869585 -0.13839501 -0.22598603 0.09454327 -0.08299414 0.22140619
-0.43310192 -0.19536795
00000000: 7a64 fabe a1a5 a1bd 6b5c 06be 69f9 a63e
00000010: 580a 32be e343 57be 0da5 19be c6b2 a0be
00000020: 9f86 60bd a1e9 edbd 48c9 8cbe 7b8f b9bd
00000030: d22a f6be 511d 4bbe 07dd edbc e777 2cbe
00000040: 7505 cf3e 207d ca3e 87a6 82be 33ac 50be
00000050: 319b 25be 7fcb c0be 6fe7 a1be 7a7e 2dbe
00000060: 734c f7bd c173 1bbe 021c 57be 21ad 57be
00000070: 5f02 883e 724c 23be 1dca b03c 0263 813d
00000080: d885 96be 791c 1dbe b107 a2be 4090 5cbc
00000090: be94 74be a9f2 d23e 9eab 15be 2a0f 1bbd
000000a0: 4c3b da3d 919a 2ebe 0d21 ca3d 6cb7 0dbe
000000b0: e268 67be e79f c13d d5f8 a9bd 4eb8 623e
000000c0: 89bf ddbe 890e 48be

running_var f4 [50]
0.60882044 0.18660389 0.20150557 0.47386336 0.26937735 0.32018676 0.33732855 0.44324484
0.16801067 0.20134766 0.26409554 0.1855642 0.5834855 0.2436685 0.12623861 0.28283736
0.28217158 0.37778687 0.23243767 0.3272305 0.46171153 0.5514612 0.22779553 0.3571974
0.27036747 0.19747698 0.21462211 0.3615692 0.5018005 0.25321633 0.34630674 0.12429144
0.40731958 0.18039769 0.47088984 0.2952127 0.26821065 0.31758943 0.25354737 0.1751438
0.34615391 0.24707763 0.22554496 0.25016892 0.17748329 0.13322453 0.16047543 0.21508116
0.45703983 0.5753037
00000000: a8db 1b3f 1715 3f3e 7a57 4e3e 389e f23e
00000010: d4eb 893e 85ef a33e 54b6 ac3e fdf0 e23e
00000020: fd0a 2c3e 152e 4e3e 8837 873e 8b04 3e3e
00000030: 4e5f 153f 3c84 793e b244 013e 0fd0 903e
00000040: cb78 903e 486d c13e 2404 6e3e c28a a73e
00000050: 7465 ec3e 902c 0d3f 3b43 693e 94e2 b63e
00000060: 9b6d 8a3e 6837 4a3e e6c5 5b3e 991f b93e
00000070: ff75 003f 92a5 813e 1e4f b13e 838c fe3d
00000080: 318c d03e 2cba 383e 7918 f13e 1e26 973e
00000090: e852 893e 159b a23e f6d0 813e e558 333e
000000a0: 163b b13e eb01 7d3e 42f5 663e 2416 803e
000000b0: 2ebe 353e 036c 083e ac53 243e 3c3e 5c3e
000000c0: 2001 ea3e 1a47 133f

weight f4 [100, 50, 1, 5]
-0.039488677 -0.02919826 -0.061840996 -0.0095642675 0.08780863 -0.0067087905 -0.06281862 0.053721502
-0.01967513 0.039824665 -0.0610558 -0.099836715 -0.007323007 -0.102013774 -0.056601603 -0.042827412
-0.061395783 -0.10335208 -0.021645091 -0.028671732 -0.10759048 -0.084706 0.028477706 -0.032259863
-0.010257614 -0.06522221 0.017401446 0.047476877 0.04844762 0.040307175 -0.006382184 0.027292697
0.02956693 0.066630304 0.026782213 0.0060276575 -0.020834751 -0.011450704 -0.04985212 0.08247358
0.03724797 -0.07804502 -0.04211246 0.015236412 0.03206932 -0.0112175485 0.00095295755 -0.01622262
-0.042535413 0.054306813 -0.019073999 -0.008597818 -0.033247493 0.1136516 0.012137445 0.059919097
0.02932021 0.017662482 0.15156728 0.06346995 -0.11741555 0.0025747775 -0.066568345 0.0121273585
0.034551244 0.13174179 0.0022821869 -0.0056717307 -0.018143568 -0.023185413 0.01798818 -0.059899926
0.055864513 0.11077429 -0.03485883 -0.01939529 -0.016237756 0.015379874 -0.029147366 0.011051667
-0.047589827 -0.036731914 -0.003256432 -0.041564118 0.012727321 0.029868707 -0.06672942 0.022869492
0.0034221963 -0.015996564 0.06303965 -0.010042273 -0.050863054 0.047719695 -0.045111462 0.023658218
-0.10956422 -0.07955905 -0.07503455 -0.072501905 -0.05964136 -0.0013645876 0.0047357236 0.028267328
0.04169318 -0.03341539 -0.057016987 -0.0014947633 -0.014097096 0.01948311 0.0150173465 0.0589089
0.008604207 -0.068320036 0.009724797 0.045313805 -0.0604844 0.06953257 0.016809015 0.003585989
-0.059706707 0.0043181903 -0.014218123 -0.04974405 0.0017575292 0.01843247 -0.03136022 0.022387734
0.0023127014 -0.011004056 0.11289374 -0.018856617 0.061449 0.062272064 -0.017374614 0.011158286
0.026441589 0.018612606 0.07030887 -0.04268471 -0.005893144 -0.08422615 -0.10160721 -0.078063965
-0.10053161 0.0007909468 0.04440877 0.03914321 0.0019304433 0.06708308 -0.023637597 -0.036504943
0.015945658 -0.051975287 -0.060943868 -0.047740296 -0.09147937 0.09542425 0.09521052 -0.045112684
-0.091965005 0.010989397 -0.09405543 -0.08444406 0.027364748 0.01224616 0.009194751 -0.0060779466
0.017418027 0.089155585 0.0029926419 0.021753823 -0.0029212735 0.012215305 -0.012160832 0.0666039
0.056894265 -0.041718245 0.044318903 0.07266973 -0.0027105366 -0.0828808 -0.047180388 0.03482145
-0.056686763 -0.06625449 0.00095512223 -0.021805733 -0.0023333982 -0.09647449 -0.021019237 0.05370247
-0.023191623 -0.0056976653 -0.030731512 -0.010229557 0.016250093 -0.0025126226 -0.10689793 -0.016922018
0.025694508 0.024463547 0.036299337 0.071578346 0.11257186 0.12242712 -0.03976136 -0.013774153
-0.03279266 -0.0106667755 0.004717478 0.00497516 0.08891163 -0.013951982 0.079666376 0.012694212
-0.08878299 -0.006439497 -0.039305225 -0.03741759 0.066267215 0.00064251124 0.06379559 0.0075795786
0.0031454829 -0.019455928 -0.044471435 -0.027334036 -0.03274404 0.0115502495 -0.06273887 -0.0005313373
0.044284306 0.024068505 0.019184727 -0.018807432 0.11019432 -0.02246159 -0.009644449 0.014915981
-0.027162267 -0.002614128 0.005044594 -0.0012617394 -0.04139499 0.044416014 0.019216353 0.0020591065
0.056166194 0.060924925 -0.07044484 0.01120536 0.04954274 -0.024958411 0.019238431 0.040287647
00000000: e1be 21bd 3031 efbc fc4c 7dbd 72b3 1cbc
00000010: 03d5 b33d 6ad5 dbbb 0ca7 80bd 140b 5c3d
00000020: bd2d a1bc 301f 233d a615 7abd 3177 ccbd
00000030: d6f5 efbb 99ec d0bd 15d7 67bd cc6b 2fbd
00000040: 257a 7bbd 41aa d3bd 0c51 b1bc fbe0 eabc
00000050: 6658 dcbd 577a adbd 144a e93c eb22 04bd
00000060: 8d0f 28bc 3993 85bd 7a8d 8e3c 1d77 423d
00000070: 0371 463d 2319 253d a421 d1bb ef94 df3c
00000080: 5936 f23c 7875 883d 5f66 db3c a883 c53b
00000090: a4ad aabc bc9b 3bbc bd31 4cbd e9e7 a83d
000000a0: 5491 183d 11d6 9fbd 1d7e 2cbd 25a2 793c
000000b0: 1f5b 033d cfc9 37bc e6cf 793a 4de5 84bc
000000c0: 9d39 2ebd d270 5e3d 1341 9cbc dddd 0cbc
000000d0: 862e 08bd 2cc2 e83d 22dc 463c ba6d 753d
000000e0: f030 f03c e9b0 903c 7434 1b3e 88fc 813d
000000f0: 9077 f0bd 99bd 283b fc54 88bd d4b1 463c
00000100: 9b85 0d3d 52e7 063e be90 153b edd9 b9bb
00000110: d2a1 94bc 56ef bdbc f35b 933c a059 75bd
00000120: 30d2 643d a2dd e23d 22c8 0ebd dfe2 9ebc
00000130: 0b05 85bc defb 7b3c 75c6 eebc 0d12 353c
00000140: 8ded 42bd 3474 16bd dd69 55bb 233f 2abd
00000150: 4186 503c 38af f43c 6fa9 88bd cd58 bb3c
00000160: ed46 603b 3a0b 83bc ef1a 813d 5988 24bc
00000170: c755 50bd ba75 433d ccc6 38bd e1ce c13c
00000180: 3563 e0bd dbef a2bd b7ab 99bd e17b 94bd
00000190: 804a 74bd f6db b2ba 212e 9b3b e290 e73c
000001a0: 78c6 2a3d 93de 08bd a58a 69bd efeb c3ba
000001b0: 82f7 66bc 0b9b 9f3c 510b 763c 754a 713d
000001c0: a9f8 0c3c 60eb 8bbd c154 1f3c f89a 393d
000001d0: 7dbe 77bd 1867 8e3d 0fb3 893c e902 6b3b
000001e0: 058f 74bd 9b7f 8d3b 21f3 68bc 6bc0 4bbd
000001f0: e55c e63a b1ff 963c 9373 00bd 7b66 b73c
00000200: b190 173b 5b4a 34bc d534 e73d 3179 9abc
00000210: f2b1 7b3d fe10 7f3d 3555 8ebc 3ed1 363c
00000220: 089c d83c 7779 983c 19fe 8f3d 2ad6 2ebd
00000230: 461b c1bb c27e acbd 7117 d0bd 00e0 9fbd
00000240: 84e3 cdbd 8b57 4f3a f8e5 353d a154 203d
00000250: ee06 fd3a db62 893d a2a3 c1bc 3586 15bd
00000260: 78a0 823c 0ae4 54bd 47a0 79bd 548b 43bd
00000270: 8959 bbbd ca6d c33d bcfd c23d 14c8 38bd
00000280: 2658 bcbd df0c 343c 22a0 c0bd 02f1 acbd
00000290: 092c e03c 1ea4 483c 95a5 163c 8329 c7bb
000002a0: 40b0 8e3c 3497 b63d 3320 443b 1335 b23c
000002b0: d672 3fbb b422 483c 3a3e 47bc a067 883d
000002c0: f609 693d c0e0 2abd bd87 353d ded3 943d
000002d0: 42a3 31bb 69bd a9bd 3940 41bd f0a0 0e3d
000002e0: 6130 68bd 6fb0 87bd 2b61 7a3a f0a1 b2bc
000002f0: edeb 18bb 6b94 c5bd 8930 acbc 1ff7 5b3d
00000300: 5cfc bdbc 7bb3 babb a7c0 fbbc df99 27bc
00000310: ea1e 853c d0aa 24bb 4ded dabd 0ba0 8abc
00000320: 4a7d d23c c767 c83c 9dae 143d ab97 923d
00000330: 138c e63d 12bb fa3d cfdc 22bd fcac 61bc
00000340: 9951 06bd b3c3 2ebc 1395 9a3b ab06 a33b
00000350: 4d17 b63d db96 64bc 2028 a33d 62fb 4f3c
00000360: dbd3 b5bd 6b02 d3bb 84fe 20bd 3043 19bd
00000370: 1bb7 873d 336e 283a 43a7 823d 1d5e f83b
00000380: 7224 4e3b 0a62 9fbc ae27 36bd a1eb dfbc
00000390: 9d1e 06bd 423d 3d3c 3d7d 80bd 7149 0bba
000003a0: 7663 353d 502b c53c 4a29 9d3c 0b12 9abc
000003b0: 8fad e13d 5e01 b8bc c003 1ebc 2962 743c
000003c0: 6783 debc ca51 2bbb 1f4d a53b f360 a5ba
000003d0: cb8d 29bd 91ed 353d 9d6b 9d3c 13f2 063b
000003e0: 860e 663d 6a8c 793d 6245 90bd b096 373c
000003f0: 54ed 4a3d 9575 ccbc ea99 9d3c a904 253d

bias f4 [100]
0.02111981 -0.043919157 -0.050494272 0.04495445 -0.022124369 0.027026422 0.0055932165 0.040609404
0.061483342 0.01386782 -0.03942914 0.01343406 -0.008274593 -0.047445346 -0.03571525 -0.063388266
-0.059355192 0.031280227 0.010762448 0.0123447515 -0.003293311 -0.04002714 -0.011095164 -0.043351475
0.047336668 -0.036869943 0.0010861924 0.02910008 -0.04074997 0.0077967606 0.008629709 0.054463472
0.01206407 -0.01989875 0.020693094 0.0045081847 0.05694823 0.05795569 -0.03102151 0.033847883
0.02481672 -0.0051100687 0.04257538 -0.057742335 -0.04832906 0.05121273 -0.017437855 -0.046959292
0.035522126 0.016243866 0.014785349 0.05645571 0.059357226 0.060665015 -0.05801562 0.020390986
-0.040040232 0.028427193 0.015997054 0.03772123 -0.005027537 -0.02672729 0.06229854 0.027512688
0.06760469 0.05822334 0.011253652 -0.038708262 -0.01695664 -0.008568897 0.03871395 -0.05615071
0.05027762 0.00036392958 -0.009842552 -0.039519053 -0.05635158 -0.018353317 0.024109025 -0.0035854867
0.0035125455 0.0464092 -0.058840998 0.05923715 -0.006506602 0.056083553 -0.0075782337 -0.050723087
0.00034389336 -0.014668411 0.053355236 0.022668049 0.061933424 0.04969868 0.024606742 -0.064580895
0.043004997 -0.029566988 0.04947035 -0.055882014
00000000: 7403 ad3c 93e4 33bd 15d3 4ebd 2822 383d
00000010: 2a3e b5bc 8466 dd3c 4d47 b73b 0c56 263d
00000020: f5d5 7b3d da35 633c 7380 21bd 881a 5c3c
00000030: 2992 07bc 0d56 42bd 274a 12bd b5d1 81bd
00000040: 6e1e 73bd b21f 003d fb54 303c a441 4a3c
00000050: 97d4 57bb 80f3 23bd 7ec8 35bc 5191 31bd
00000060: 18e4 413d f004 17bd 925e 8e3a 4a63 ee3c
00000070: 71e9 26bd f87b ff3b 9f63 0d3c 1715 5f3d
00000080: 61a8 453c b402 a3bc 9084 a93c 65b9 933b
00000090: 8c42 693d f262 6d3d d220 febc 14a4 0a3d
000000a0: 6f4c cb3c 5d72 a7bb 8663 2e3d 3a83 6cbd
000000b0: b1f4 45bd 71c4 513d d5d9 8ebc 6358 40bd
000000c0: a67f 113d db11 853c 403e 723c 1a3e 673d
000000d0: 9020 733d e17b 783d c9a1 6dbd ff0a a73c
000000e0: 3a01 24bd 25e0 e83c 410c 833c 9481 1a3d
000000f0: 09be a4bb 31f3 dabc c12c 7f3d 4a62 e13c
00000100: 5474 8a3d 997b 6e3d 3d61 383c 8e8c 1ebd
00000110: a7e8 8abc 8f64 0cbc 8592 1e3d 49fe 65bd
00000120: e8ef 4d3d cdcd be39 a842 21bc bbde 21bd
00000130: ead0 66bd b259 96bc 4a80 c53c 7cfa 6abb
00000140: bc32 663b 9317 3e3d 4203 71bd a7a2 723d
00000150: 5535 d5bb deb7 653d d552 f8bb 03c3 4fbd
00000160: 964c b439 c653 70bc 058b 5a3d 58b2 b93c
00000170: e7ad 7d3d d890 4b3d 1494 c93c fd42 84bd
00000180: 0226 303d 7836 f2bc 6ca1 4a3d 8ae4 64bd

weight f4 [100]
0.70044947 0.52040154 0.23766993 0.8184433 0.43615726 0.22776906 0.34350118 0.32201797
0.79438066 0.7377143 0.6467111 0.52334875 0.37400672 0.4928725 0.2587215 0.30148837
0.3485848 0.5814831 0.9222637 0.34172562 0.50868756 0.4512842 0.54168296 0.6953803
0.62038594 0.8209426 0.59642 0.44714528 0.61119175 0.21101679 0.52469915 0.62919885
0.61714417 0.61042976 0.5544134 0.65744764 0.28917727 0.44903255 0.30024147 0.59901375
0.6375757 0.87167126 0.5412646 0.4508496 0.77297807 0.21684903 0.6039079 0.7289372
0.32388487 0.62535644 0.52413887 0.83681923 0.38574347 0.61582375 0.7014624 0.39290228
0.69503444 0.9328023 0.34691632 0.83106077 0.635743 0.30409285 0.29586112 0.6826219
0.57956207 0.5361723 0.5018782 0.60003245 0.88077366 0.89055717 0.42210025 0.22840895
0.57836014 0.62794375 0.26626933 0.739496 0.34567454 0.28958657 0.6998982 0.5491332
0.32112488 0.65078014 0.62458426 0.5724046 0.37480065 0.52587956 0.89519596 0.32574773
0.65443593 0.6247447 0.82584894 0.56139445 0.23154889 0.7592804 0.33687517 0.5338723
0.8325588 0.7739445 0.53322655 0.17302343
00000000: a850 333f 0939 053f bf5f 733e 8085 513f
00000010: 0150 df3e 4b3c 693e 63df af3e 8adf a43e
00000020: 885c 4b3f d8da 3c3f dc8e 253f 2ffa 053f
00000030: cf7d bf3e c959 fc3e 2577 843e af5c 9a3e
00000040: b579 b23e 14dc 143f 7919 6c3f a9f6 ae3e
00000050: 5939 023f b90e e73e bcab 0a3f 7104 323f
00000060: 9dd1 1e3f 4b29 523f fbae 183f 3af0 e43e
00000070: 1077 1c3f c914 583e af52 063f 2d13 213f
00000080: 29fd 1d3f 2045 1c3f 09ee 0d3f 7d4e 283f
00000090: 0b0f 943e 98e7 e53e 40b9 993e f758 193f
000000a0: 2938 233f d925 5f3f 5190 0a3f c2d5 e63e
000000b0: e4e1 453f ac0d 5e3e b599 1a3f a19b 3a3f
000000c0: 3dd4 a53e 5c17 203f f72d 063f c939 563f
000000d0: 2b80 c53e a0a6 1d3f 0a93 333f 7d2a c93e
000000e0: c7ed 313f 22cc 6e3f 049f b13e 66c0 543f
000000f0: 0ec0 223f 0fb2 9b3e 1c7b 973e 4fc0 2e3f
00000100: 2e5e 143f 9642 093f 177b 003f ba9b 193f
00000110: 627a 613f 8efb 633f 861d d83e 09e4 693e
00000120: 690f 143f ecc0 203f 7454 883e 9c4f 3d3f
00000130: 41fc b03e b144 943e 872c 333f fe93 0c3f
00000140: 7b6a a43e 8799 263f c1e4 1f3f 1c89 123f
00000150: dfe5 bf3e 0ba0 063f 902b 653f 68c8 a63e
00000160: 1d89 273f 45ef 1f3f d66a 533f 8cb7 0f3f
00000170: 271b 6d3e 3360 423f e77a ac3e dbab 083f
00000180: 9322 553f 3a21 463f 8981 083f 0e2d 313e

bias f4 [100]
-0.0628709 -0.084526055 0.008420041 -0.21330416 -0.08638221 0.023087513 -0.025646623 -0.07662887
-0.050500896 -0.1022768 -0.17591491 -0.031294554 -0.031967055 -0.054314688 -0.011672446 0.0027991894
0.006948452 -0.09021304 -0.26483232 0.012636153 -0.07487068 -0.003720198 -0.10141634 -0.13944669
-0.08028419 -0.06024958 -0.094853364 -0.033829924 -0.11757756 0.049386725 -0.02512755 -0.06276873
-0.037700187 -0.18972829 -0.031698518 -0.14826503 0.031159034 -0.020948058 0.030661387 -0.0629399
-0.11632064 -0.10308832 -0.07059013 -0.034548003 -0.17961247 0.09120272 -0.06664358 -0.12254395
0.037613418 0.01548261 -0.038592648 -0.21523382 -0.029506331 -0.050215874 -0.10640031 -0.038617987
-0.14359222 -0.10708061 -0.0089206165 -0.20648254 -0.13407998 -0.010378104 -0.044175014 -0.11481145
-0.09284177 -0.055511303 -0.048374698 -0.11433293 -0.17261179 -0.07581925 -0.046601567 0.030961975
-0.09814419 -0.105899245 0.05989629 -0.15990648 -0.047362916 -0.017839951 -0.13913774 -0.07193584
0.009083115 -0.052598078 -0.14862889 -0.17124988 -0.0044095702 -0.07873166 -0.13930812 -0.016612133
-0.15714353 -0.06583678 -0.09070407 -0.10322657 0.00818404 -0.16053182 -0.031156013 -0.06365374
-0.102766156 -0.13726489 -0.07888161 -0.04664972
00000000: 75c2 80bd ff1b adbd 36f4 093c 686c 5abe
00000010: 28e9 b0bd 0622 bd3c de18 d2bc 99ef 9cbd
00000020: 07da 4ebd 8076 d1bd 0a23 34be b82e 00bd
00000030: e3ef 02bd 1479 5ebd c93d 3fbc 9b72 373b
00000040: d7af e33b 9dc1 b8bd 1a98 87be de07 4f3c
00000050: cd55 99bd 91ce 73bb 5fb3 cfbd 1dcb 0ebe
00000060: 0a6c a4bd 43c8 76bd 7b42 c2bd 3f91 0abd
00000070: 81cc f0bd bc49 4a3d 4bd8 cdbc e48c 80bd
00000080: 836b 1abd 2248 42be 4ed6 01bd cad2 17be
00000090: 3b41 ff3c 439b abbc 972d fb3c a2e6 80bd
000000a0: 8439 eebd f81f d3bd 8f91 90bd 3582 0dbd
000000b0: 55ec 37be 7ec8 ba3d 6e7c 88bd 53f8 fabd
000000c0: 8710 1a3d c6aa 7d3c 5313 1ebd 4166 5cbe
000000d0: 43b7 f1bc 29af 4dbd 68e8 d9bd e52d 1ebd
000000e0: d709 13be 144d dbbd c727 12bc 2970 53be
000000f0: 434c 09be ec08 2abc dcf0 34bd 4422 ebbd
00000100: d323 bebd d25f 63bd 8c24 46bd 6227 eabd
00000110: 25c1 30be 1f47 9bbd 49e1 3ebd f8a3 fd3c
00000120: d2ff c8bd b4e1 d8bd d055 753d 86be 23be
00000130: 9eff 41bd 1725 92bc 207a 0ebe 1953 93bd
00000140: 58d1 143c 1571 57bd 2c32 18be 215c 2fbe
00000150: 287e 90bb 113e a1bd caa6 0ebe 2b16 88bc
00000160: 3cea 20be 6fd5 86bd 0ec3 b9bd 7468 d3bd
00000170: 5a16 063c 7462 24be e53a ffbc e45c 82bd
00000180: 1077 d2bd 2b8f 0cbe ae8c a1bd c713 3fbd

running_mean f4 [100]
-0.1554187 0.31372374 0.2215278 1.1465687 -0.026420021 -0.0860523 -0.8808771 1.0232008
-0.016781516 0.47012043 -1.0117904 0.49037373 -0.6774993 -0.2668638 0.642417 -0.72665274
-0.036603495 -0.06883796 -0.7777229 -0.02923231 -0.58726054 -0.13788447 -0.6747721 0.09650327
-0.4960646 0.71840537 -0.77521914 -0.23032182 -0.72755355 0.080801435 0.007880555 -0.13766383
-0.019064205 0.45682362 0.6331443 0.61454195 0.03784941 0.19978422 0.079690576 -0.15975113
-0.65955675 -0.7389075 -0.68008804 -0.846954 -0.47447148 0.6305641 0.13202173 0.060486518
0.21142572 -0.18298773 0.18545082 -0.5055936 -0.84750754 -0.57116437 0.07856764 -0.0735591
-1.0721363 -0.33331957 0.3348798 0.7501061 0.07231273 -0.54109883 0.2028637 -0.8083774
-0.31739044 -0.2882557 0.3448568 -0.29598907 -0.3309512 -0.44857964 0.12636907 -0.117625274
1.0976658 -0.5577997 0.4424946 -1.0689121 -0.64824164 -0.57675445 -0.9883711 -1.13966
-0.17320341 0.13881324 0.4291162 0.87893826 -0.3596854 -0.53581125 -0.6769153 -0.197958
0.21134672 0.2743587 -0.069505885 0.18971713 0.18410343 0.26103705 -0.088241525 -1.0014114
0.23221548 -0.23140159 -0.7400733 0.361994
00000000: 1426 1fbe 66a0 a03e 2fd8 623e c3c2 923f
00000010: cd6e d8bc 303c b0bd 2981 61bf 3ef8 823f
00000020: 6479 89bc a0b3 f03e 5982 81bf 4412 fb3e
00000030: 9870 2dbf 5fa2 88be 7175 243f ea05 3abf
00000040: 8ced 15bd ebfa 8cbd d918 47bf 9978 efbc
00000050: b556 16bf 9631 0dbe ddbd 2cbf 82a3 c53d
00000060: 2efc fdbe 6ae9 373f c374 46bf 7cd9 6bbe
00000070: f340 3abf 397b a53d 711d 013c bff7 0cbe
00000080: 892c 9cbc c9e4 e93e bf15 223f 9f52 1d3f
00000090: fc07 1b3d 3c94 4c3e d034 a33d cd95 23be
000000a0: b6d8 28bf 0b29 3dbf 401a 2ebf fad1 58bf
000000b0: eded f2be a66c 213f b430 073e b6c0 773d
000000c0: fc7f 583e 2361 3bbe d2e6 3d3e 956e 01bf
000000d0: 41f6 58bf d437 12bf 12e8 a03d 27a6 96bd
000000e0: c33b 89bf dda8 aabe 5d75 ab3e f406 403f
000000f0: b218 943d 7485 0abf 80bb 4f3e d2f1 4ebf
00000100: 0081 a2be 4096 93be 1291 b03e e18b 97be
00000110: 7072 a9be 3bac e5be e566 013e 85e5 f0bd
00000120: 5080 8c3f f6cb 0ebf a78e e23e 1dd2 88bf
00000130: 2af3 25bf 2ea6 13bf e305 7dbf 61e0 91bf
00000140: 3c5c 31be 0f25 0e3e 1eb5 db3e 1902 613f
00000150: af28 b8be ed2a 09bf 524a 2dbf 80b5 4abe
00000160: 466b 583e be78 8c3e 1a59 8ebd 3545 423e
00000170: 9c85 3c3e a6a6 853e f9b7 b4bd 402e 80bf
00000180: e5c9 6d3e 8af4 6cbe 7275 3dbf 4757 b93e

running_var f4 [100]
0.7583581 0.6851493 0.58679277 1.4645312 0.62745255 0.6083387 0.94056803 0.91187435
0.82294977 0.5783536 0.554189 0.52382755 1.2279834 0.77452695 0.36832795 0.64121866
0.38233203 0.24152815 0.92736536 0.3087042 0.59222037 0.31470254 0.6186581 0.4754686
0.94174427 0.9983555 1.1512028 0.43156675 0.7181119 0.65288246 0.58112 0.7955844
0.5314634 0.55318266 0.62922597 0.5396278 0.36775577 0.32854316 0.38900173 0.5030649
0.5805569 0.929508 0.84147877 0.74978966 0.48941532 0.39076486 0.5089471 0.45472878
0.5091875 0.38266182 0.3321924 0.7702688 0.6076282 0.8812488 0.71165687 0.4685516
1.2758297 0.84128445 0.561797 0.9798268 0.4955054 0.66418535 0.4979088 0.48492357
0.48868665 1.0702094 0.46915716 0.58999175 0.34370664 0.5416627 0.3812363 0.4615454
0.86740804 0.84327376 0.52779675 1.2402428 0.43139604 0.46312666 1.0802271 0.7625566
0.42977613 0.518868 0.61198914 0.68739027 0.44838792 0.9730538 0.768606 0.52200514
0.5472917 0.6476783 0.96440244 0.45654115 0.39224607 0.5795735 0.5989207 0.69558954
0.5646963 0.41091493 0.88995713 0.68015754
00000000: c223 423f f265 2f3f 0d38 163f c275 bb3f
00000010: bba0 203f 16bc 1b3f 11c9 703f 9970 693f
00000020: d6ac 523f fb0e 143f 55df 0d3f 9019 063f
00000030: 8f2e 9d3f 6647 463f 7b95 bc3e e826 243f
00000040: 06c1 c33e 2853 773e d167 6d3f 7a0e 9e3e
00000050: c19b 173f b120 a13e 6160 1e3f 9f70 f33e
00000060: 2716 713f 3a94 7f3f 9d5a 933f 51f6 dc3e
00000070: 2ed6 373f 4e23 273f 48c4 143f 6bab 4b3f
00000080: fc0d 083f 619d 0d3f f414 213f 0c25 0a3f
00000090: 7c4a bc3e cf36 a83e 3c2b c73e dcc8 003f
000000a0: 619f 143f 3cf4 6d3f 276b 573f 37f2 3f3f
000000b0: a594 fa3e 5512 c83e 5b4a 023f 36d2 e83e
000000c0: 1d5a 023f 40ec c33e 1f15 aa3e 5630 453f
000000d0: 868d 1b3f 8599 613f 252f 363f ffe5 ef3e
000000e0: 634e a33f 6b5e 573f eed1 0f3f eed5 7a3f
000000f0: e2b2 fd3e 0d08 2a3f e7ed fe3e e747 f83e
00000100: 2335 fa3e 9ffc 883f 5e35 f03e b309 173f
00000110: 51fa af3e 68aa 0a3f 6831 c33e ae4f ec3e
00000120: 740e 5e3f cae0 573f b01d 073f 47c0 9e3f
00000130: f1df dc3e f01e ed3e e244 8a3f e936 433f
00000140: 9e0b dc3e 89d4 043f 52ab 1c3f cff8 2f3f
00000150: 1a93 e53e 0e1a 793f 5dc3 443f 21a2 053f
00000160: 4f1b 0c3f 3fce 253f 14e3 763f c3bf e93e
00000170: 7ad4 c83e ee5e 143f de52 193f 2812 323f
00000180: f08f 103f 7163 d23e 3bd4 633f ce1e 2e3f

weight f4 [200, 100, 1, 5]
0.008547148 0.0061928798 -0.038995594 -0.027330596 -0.062230185 0.089852296 -0.011580877 -0.05519609
-0.02404394 -0.057870448 -0.017781438 0.0854902 -0.007095271 -0.04521424 -0.04131798 0.02042448
0.016596666 -0.06296279 -0.028606117 -0.09959875 -0.034868505 0.026696945 0.047057547 -0.0017835848
0.0014842023 0.011004767 0.043008603 0.0213271 -0.0013090374 -0.021612708 0.07283658 -0.01954413
-0.025375653 -0.01894506 -0.020230923 0.09819395 0.025462866 0.040973365 -0.038875315 0.0016076114
-0.026876897 0.054785974 0.02333387 -0.024882201 -0.036016554 0.017702436 0.0071823946 -0.017637236
0.021477496 0.019759003 -0.030157734 -0.032936774 -0.047575217 -0.040014025 0.03514476 0.018663237
0.0467843 -0.011927358 -0.11183503 -0.07792871 0.07189517 -0.0073134154 -0.033381164 0.019869693
0.005994571 0.059577048 0.012585101 -0.013538428 0.053208545 -0.044812895 -0.08330495 0.01577975
-0.045215644 -0.017383901 -0.011336804 -0.04450009 -0.028288577 -0.026151687 -0.046199832 0.01090378
-0.004164133 -0.039333537 -0.03842624 -0.069927454 -0.0055436804 0.015165756 -0.023544338 -0.0005428785
-0.033410363 -0.024963675 0.021148928 -0.036521647 -0.062384684 -0.019718774 0.0031492442 -0.0586401
-0.04363355 0.0024943338 0.04146761 -0.0057362756 0.0053818324 -0.05041503 0.064604424 -0.025133118
0.0086144805 0.0071982467 0.074480064 0.015053311 -0.049194295 -0.05799379 0.08034102 0.02929514
0.009485397 -0.003198813 0.01285191 -0.060307734 -0.00075567537 0.019840162 -0.034478467 -0.077796616
0.07833481 0.00030860255 -0.04749515 0.0062787523 -0.038110536 -0.009451412 -0.041422736 -0.027680892
-0.0704761 -0.07012635 0.051946413 -0.018678796 0.017348835 0.011939668 -0.019596113 0.014489589
-0.093713306 0.010493313 0.030118521 -0.016643936 0.031809833 0.009160309 -0.028002933 -0.07506652
0.021686161 -0.04712962 0.060639527 0.10545285 0.0040600374 -0.08883501 0.03346897 0.058520146
0.056755986 -0.0343679 -0.07953816 0.024931641 0.049553342 0.014800132 -0.044539534 -0.056409232
-0.039015375 -0.0117177535 0.005398562 -0.02490634 -0.044502415 -0.0012648462 -0.07171135 0.04581247
0.00606939 0.0004509679 0.0014966797 -0.029308524 -0.05461314 -0.034030445 -0.015142965 0.011866829
-0.022257907 -0.07667064 -0.017071279 -0.03892554 0.019634765 -0.038009875 0.0001363246 0.01029331
-0.0789916 -0.0165519 0.004418612 -0.012719169 -0.038262427 -0.05244382 0.025754925 0.023902548
0.011285061 -0.05801664 -0.08777715 0.038327843 -0.0024356453 -0.008685952 -0.047356866 -0.0949641
0.05467573 0.041417792 -0.038681217 -0.028810665 -0.021560933 -0.02606033 0.039938953 0.025573997
0.0050265314 -0.011443742 -0.021895517 -0.0059000524 -0.0076313326 0.019145535 0.02917804 0.036617145
-0.04776206 -0.0045510964 -0.02709378 0.02770094 -0.018063752 -0.0070074657 -0.050718587 0.008304246
-0.0120449 0.05987461 -0.005465413 0.055709317 -0.038110957 -0.0916191 -0.030447876 -0.020357028
0.02646937 0.018124938 -0.08717601 -0.020664783 0.024040397 -0.005994012 0.030786652 -0.03158135
-0.08046205 -0.055751856 -0.015892887 -0.013719967 -0.0826729 0.0046728863 0.06417953 -0.014917489
-0.035338372 -0.01479898 -0.036843844 -0.07122626 -0.022846958 0.032329194 -0.09117988 -0.008546374
00000000: 5609 0c3c a4ed ca3b d8b9 1fbd 6ae4 dfbc
00000010: 14e5 7ebd 7b04 b83d b8bd 3dbc 4c15 62bd
00000020: ccf7 c4bc 9009 6dbd 61aa 91bc 7c15 af3d
00000030: 727f e8bb 9132 39bd 0b3d 29bd 3d51 a73c
00000040: bbf5 873c a3f2 80bd 6057 eabc 6efa cbbd
00000050: 47d2 0ebd 8db3 da3c 6abf 403d 2dc7 e9ba
00000060: 9189 c23a 574d 343c ca29 303d 2cb6 ae3c
00000070: 0294 abba 220d b1bc 582b 953d 031b a0bc
00000080: 9ae0 cfbc ac32 9bbc 52bb a5bc e919 c93d
00000090: 8097 d03c b0d3 273d b93b 1fbd 7db6 d23a
000000a0: f02c dcbc 4267 603d ac26 bf3c c2d5 cbbc
000000b0: 1886 13bd b304 913c 4b5a eb3b f77b 90bc
000000c0: 93f1 af3c a2dd a13c 5a0d f7bc b6e8 06bd
000000d0: 3bde 42bd bfe5 23bd f4f3 0f3d a5e3 983c
000000e0: e5a0 3f3d f76a 43bc c409 e5bd 1699 9fbd
000000f0: c63d 933d 60a5 efbb b0ba 08bd c4c5 a23c
00000100: 1b6e c43b 1007 743d bd31 4e3c 48d0 5dbc
00000110: 34f1 593d ba8d 37bd c99b aabd 8944 813c
00000120: 0a34 39bd af68 8ebc 01be 39bc ba45 36bd
00000130: 72bd e7bc 103c d6bc 093c 3dbd c5a5 323c
00000140: 4873 88bb 341c 21bd d564 1dbd 2036 8fbd
00000150: c3a7 b5bb cb79 783c 0ee0 c0bc f64f 0eba
00000160: 4ed9 08bd 9f80 ccbc 8440 ad3c b997 15bd
00000170: 1587 7fbd 4489 a1bc 8d63 4e3b 9a30 70bd
00000180: 18b9 32bd fa77 233b f1d9 293d 5ef7 bbbb
00000190: 155a b03b fe7f 4ebd 534f 843d f8e3 cdbc
000001a0: c023 0d3c 45df eb3b 0189 983d 2aa2 763c
000001b0: f57f 49bd e58a 6dbd d589 a43d 5dfc ef3c
000001c0: a368 1b3c 2da3 51bb d190 523c 3e05 77bd
000001d0: 8418 46ba d687 a23c 4b39 0dbd d553 9fbd
000001e0: 006e a03d efcb a139 468a 42bd febd cd3b
000001f0: cb19 1cbd 18da 1abc e3aa 29bd 0ac3 e2bc
00000200: c655 90bd 679e 8fbd c3c5 543d 4604 99bc
00000210: 251f 8e3c 999e 433c 0788 a0bc be65 6d3c
00000220: c3ec bfbd 25ec 2b3c 1ebb f63c dd58 88bc
00000230: 074b 023d 1f15 163c 6866 e5bc 7abc 99bd
00000240: 2da7 b13c fd0a 41bd 2761 783d aaf7 d73d
00000250: 100a 853b 21ef b5bd c216 093d d2b2 6f3d
00000260: f778 683d 5bc5 0cbd e7e4 a2bd 713d cc3c
00000270: 72f8 4a3d 417c 723c 166f 36bd 5e0d 67bd
00000280: 96ce 1fbd d2fb 3fbc 6ce6 b03b 6108 ccbc
00000290: 2a48 36bd 32c9 a5ba 66dd 92bd dba5 3b3d
000002a0: bce1 c63b e36f ec39 3d2c c43a 6e18 f0bc
000002b0: 07b2 5fbd 8263 0bbd 331a 78bc 176d 423c
000002c0: 3756 b6bc 7f05 9dbd 11d9 8bbc 6370 1fbd
000002d0: 16d9 a03c 3eb0 1bbd 5bf2 0e39 45a5 283c
000002e0: 59c6 a1bd da97 87bc 01ca 903b 1064 50bc
000002f0: 10b9 1cbd 55cf 56bd fefb d23c 47cf c33c
00000300: fae4 383c dba2 6dbd 82c4 b3bd a8fd 1c3d
00000310: 599f 1fbb 864f 0ebc 46f9 41bd 8a7c c2bd
00000320: a9f3 5f3d b4a5 293d 3270 1ebd 5804 ecbc
00000330: 8ea0 b0bc 797c d5bc 0797 233d 8f80 d13c
00000340: 9ab5 a43b 887e 3bbc 3a5e b3bc 3a55 c1bb
00000350: 4210 fabb 19d7 9c3c c906 ef3c dcfb 153d
00000360: 26a2 43bd 5d21 95bb c6f3 ddbc 15ed e23c
00000370: 6ffa 93bc e29e e5bb 4bbe 4fbd 880e 083c
00000380: f957 45bc 143f 753d 3517 b3bb 742f 643d
00000390: 3c1a 1cbd cba2 bbbd d36d f9bc c8c3 a6bc
000003a0: 4bd6 d83c c07a 943c 5689 b2bd 3149 a9bc
000003b0: 5ef0 c43c 6b69 c4bb 4a34 fc3c 725b 01bd
000003c0: 4ac9 a4bd 0f5c 64bd cd31 82bc b6c9 60bc
000003d0: 6950 a9bd 031f 993b 8f70 833d 7c68 74bc
000003e0: f8be 10bd 6c77 72bc 92e9 16bd 13df 91bd
000003f0: 8b29 bbbc 9e6b 043d 84bc babd 1706 0cbc
